{"format": "graph-model", "generatedBy": "2.5.0", "convertedBy": "TensorFlow.js Converter v3.6.0", "signature": {"outputs": {"Postprocessor/Slice": {"name": "Postprocessor/Slice"}, "Postprocessor/ExpandDims_1": {"name": "Postprocessor/ExpandDims_1"}}}, "modelTopology": {"node": [{"name": "ConstantFolding/Postprocessor/Decode/truediv_4_recip", "op": "Const", "attr": {"value": {"tensor": {"dtype": "DT_FLOAT", "tensorShape": {}}}, "dtype": {"type": "DT_FLOAT"}}}, {"name": "ConstantFolding/Postprocessor/Decode/truediv_5_recip", "op": "Const", "attr": {"dtype": {"type": "DT_FLOAT"}, "value": {"tensor": {"dtype": "DT_FLOAT", "tensorShape": {}}}}}, {"name": "ConstantFolding/Postprocessor/Decode/truediv_recip", "op": "Const", "attr": {"value": {"tensor": {"dtype": "DT_FLOAT", "tensorShape": {}}}, "dtype": {"type": "DT_FLOAT"}}}, {"name": "ConstantFolding/Postprocessor/Decode/get_center_coordinates_and_sizes/truediv_recip", "op": "Const", "attr": {"dtype": {"type": "DT_FLOAT"}, "value": {"tensor": {"dtype": "DT_FLOAT", "tensorShape": {}}}}}, {"name": "ConstantFolding/Postprocessor/Decode/truediv_2_recip", "op": "Const", "attr": {"dtype": {"type": "DT_FLOAT"}, "value": {"tensor": {"dtype": "DT_FLOAT", "tensorShape": {}}}}}, {"name": "ConstantFolding/Postprocessor/Decode/truediv_6_recip", "op": "Const", "attr": {"dtype": {"type": "DT_FLOAT"}, "value": {"tensor": {"dtype": "DT_FLOAT", "tensorShape": {}}}}}, {"name": "ConstantFolding/Postprocessor/Decode/truediv_1_recip", "op": "Const", "attr": {"value": {"tensor": {"dtype": "DT_FLOAT", "tensorShape": {}}}, "dtype": {"type": "DT_FLOAT"}}}, {"name": "ConstantFolding/Postprocessor/Decode/get_center_coordinates_and_sizes/truediv_1_recip", "op": "Const", "attr": {"dtype": {"type": "DT_FLOAT"}, "value": {"tensor": {"dtype": "DT_FLOAT", "tensorShape": {}}}}}, {"name": "Postprocessor/Reshape_1/shape", "op": "Const", "attr": {"dtype": {"type": "DT_INT32"}, "value": {"tensor": {"dtype": "DT_INT32", "tensorShape": {"dim": [{"size": "2"}]}}}}}, {"name": "Postprocessor/Decode/transpose/perm", "op": "Const", "attr": {"dtype": {"type": "DT_INT32"}, "value": {"tensor": {"dtype": "DT_INT32", "tensorShape": {"dim": [{"size": "2"}]}}}}}, {"name": "ConstantFolding/Postprocessor/Decode/truediv_3_recip", "op": "Const", "attr": {"value": {"tensor": {"dtype": "DT_FLOAT", "tensorShape": {}}}, "dtype": {"type": "DT_FLOAT"}}}, {"name": "Postprocessor/ExpandDims", "op": "Const", "attr": {"value": {"tensor": {"dtype": "DT_FLOAT", "tensorShape": {"dim": [{"size": "1"}, {"size": "2034"}, {"size": "4"}]}}}, "dtype": {"type": "DT_FLOAT"}}}, {"name": "Postprocessor/Tile/multiples/1", "op": "Const", "attr": {"value": {"tensor": {"dtype": "DT_INT32", "tensorShape": {}}}, "dtype": {"type": "DT_INT32"}}}, {"name": "Postprocessor/Tile/multiples/2", "op": "Const", "attr": {"dtype": {"type": "DT_INT32"}, "value": {"tensor": {"dtype": "DT_INT32", "tensorShape": {}}}}}, {"name": "Postprocessor/Reshape/shape", "op": "Const", "attr": {"dtype": {"type": "DT_INT32"}, "value": {"tensor": {"dtype": "DT_INT32", "tensorShape": {"dim": [{"size": "2"}]}}}}}, {"name": "Postprocessor/Decode/get_center_coordinates_and_sizes/transpose/perm", "op": "Const", "attr": {"value": {"tensor": {"dtype": "DT_INT32", "tensorShape": {"dim": [{"size": "2"}]}}}, "dtype": {"type": "DT_INT32"}}}, {"name": "ConstantFolding/Postprocessor/Decode/truediv_7_recip", "op": "Const", "attr": {"value": {"tensor": {"dtype": "DT_FLOAT", "tensorShape": {}}}, "dtype": {"type": "DT_FLOAT"}}}, {"name": "Postprocessor/Decode/transpose_1/perm", "op": "Const", "attr": {"dtype": {"type": "DT_INT32"}, "value": {"tensor": {"dtype": "DT_INT32", "tensorShape": {"dim": [{"size": "2"}]}}}}}, {"name": "Postprocessor/strided_slice/stack", "op": "Const", "attr": {"dtype": {"type": "DT_INT32"}, "value": {"tensor": {"dtype": "DT_INT32", "tensorShape": {"dim": [{"size": "1"}]}}}}}, {"name": "Postprocessor/strided_slice/stack_1", "op": "Const", "attr": {"value": {"tensor": {"dtype": "DT_INT32", "tensorShape": {"dim": [{"size": "1"}]}}}, "dtype": {"type": "DT_INT32"}}}, {"name": "Postprocessor/strided_slice/stack_2", "op": "Const", "attr": {"dtype": {"type": "DT_INT32"}, "value": {"tensor": {"dtype": "DT_INT32", "tensorShape": {"dim": [{"size": "1"}]}}}}}, {"name": "BoxPredictor_0/BoxEncodingPredictor/weights", "op": "Const", "attr": {"dtype": {"type": "DT_FLOAT"}, "value": {"tensor": {"dtype": "DT_FLOAT", "tensorShape": {"dim": [{"size": "1"}, {"size": "1"}, {"size": "288"}, {"size": "12"}]}}}}}, {"name": "BoxPredictor_0/BoxEncodingPredictor/biases", "op": "Const", "attr": {"value": {"tensor": {"dtype": "DT_FLOAT", "tensorShape": {"dim": [{"size": "12"}]}}}, "dtype": {"type": "DT_FLOAT"}}}, {"name": "BoxPredictor_0/strided_slice/stack", "op": "Const", "attr": {"dtype": {"type": "DT_INT32"}, "value": {"tensor": {"dtype": "DT_INT32", "tensorShape": {"dim": [{"size": "1"}]}}}}}, {"name": "BoxPredictor_0/strided_slice/stack_1", "op": "Const", "attr": {"dtype": {"type": "DT_INT32"}, "value": {"tensor": {"dtype": "DT_INT32", "tensorShape": {"dim": [{"size": "1"}]}}}}}, {"name": "BoxPredictor_0/strided_slice/stack_2", "op": "Const", "attr": {"value": {"tensor": {"dtype": "DT_INT32", "tensorShape": {"dim": [{"size": "1"}]}}}, "dtype": {"type": "DT_INT32"}}}, {"name": "BoxPredictor_0/Reshape/shape/1", "op": "Const", "attr": {"value": {"tensor": {"dtype": "DT_INT32", "tensorShape": {}}}, "dtype": {"type": "DT_INT32"}}}, {"name": "BoxPredictor_0/Reshape/shape/2", "op": "Const", "attr": {"value": {"tensor": {"dtype": "DT_INT32", "tensorShape": {}}}, "dtype": {"type": "DT_INT32"}}}, {"name": "BoxPredictor_0/Reshape/shape/3", "op": "Const", "attr": {"dtype": {"type": "DT_INT32"}, "value": {"tensor": {"dtype": "DT_INT32", "tensorShape": {}}}}}, {"name": "BoxPredictor_1/BoxEncodingPredictor/weights", "op": "Const", "attr": {"value": {"tensor": {"dtype": "DT_FLOAT", "tensorShape": {"dim": [{"size": "1"}, {"size": "1"}, {"size": "288"}, {"size": "24"}]}}}, "dtype": {"type": "DT_FLOAT"}}}, {"name": "BoxPredictor_1/BoxEncodingPredictor/biases", "op": "Const", "attr": {"value": {"tensor": {"dtype": "DT_FLOAT", "tensorShape": {"dim": [{"size": "24"}]}}}, "dtype": {"type": "DT_FLOAT"}}}, {"name": "BoxPredictor_1/strided_slice/stack", "op": "Const", "attr": {"value": {"tensor": {"dtype": "DT_INT32", "tensorShape": {"dim": [{"size": "1"}]}}}, "dtype": {"type": "DT_INT32"}}}, {"name": "BoxPredictor_1/strided_slice/stack_1", "op": "Const", "attr": {"value": {"tensor": {"dtype": "DT_INT32", "tensorShape": {"dim": [{"size": "1"}]}}}, "dtype": {"type": "DT_INT32"}}}, {"name": "BoxPredictor_1/strided_slice/stack_2", "op": "Const", "attr": {"dtype": {"type": "DT_INT32"}, "value": {"tensor": {"dtype": "DT_INT32", "tensorShape": {"dim": [{"size": "1"}]}}}}}, {"name": "BoxPredictor_1/Reshape/shape/1", "op": "Const", "attr": {"value": {"tensor": {"dtype": "DT_INT32", "tensorShape": {}}}, "dtype": {"type": "DT_INT32"}}}, {"name": "BoxPredictor_1/Reshape/shape/2", "op": "Const", "attr": {"value": {"tensor": {"dtype": "DT_INT32", "tensorShape": {}}}, "dtype": {"type": "DT_INT32"}}}, {"name": "BoxPredictor_1/Reshape/shape/3", "op": "Const", "attr": {"dtype": {"type": "DT_INT32"}, "value": {"tensor": {"dtype": "DT_INT32", "tensorShape": {}}}}}, {"name": "BoxPredictor_2/BoxEncodingPredictor/weights", "op": "Const", "attr": {"dtype": {"type": "DT_FLOAT"}, "value": {"tensor": {"dtype": "DT_FLOAT", "tensorShape": {"dim": [{"size": "1"}, {"size": "1"}, {"size": "512"}, {"size": "24"}]}}}}}, {"name": "BoxPredictor_2/BoxEncodingPredictor/biases", "op": "Const", "attr": {"dtype": {"type": "DT_FLOAT"}, "value": {"tensor": {"dtype": "DT_FLOAT", "tensorShape": {"dim": [{"size": "24"}]}}}}}, {"name": "BoxPredictor_2/strided_slice/stack", "op": "Const", "attr": {"value": {"tensor": {"dtype": "DT_INT32", "tensorShape": {"dim": [{"size": "1"}]}}}, "dtype": {"type": "DT_INT32"}}}, {"name": "BoxPredictor_2/strided_slice/stack_1", "op": "Const", "attr": {"dtype": {"type": "DT_INT32"}, "value": {"tensor": {"dtype": "DT_INT32", "tensorShape": {"dim": [{"size": "1"}]}}}}}, {"name": "BoxPredictor_2/strided_slice/stack_2", "op": "Const", "attr": {"value": {"tensor": {"dtype": "DT_INT32", "tensorShape": {"dim": [{"size": "1"}]}}}, "dtype": {"type": "DT_INT32"}}}, {"name": "BoxPredictor_2/Reshape/shape/1", "op": "Const", "attr": {"dtype": {"type": "DT_INT32"}, "value": {"tensor": {"dtype": "DT_INT32", "tensorShape": {}}}}}, {"name": "BoxPredictor_2/Reshape/shape/2", "op": "Const", "attr": {"dtype": {"type": "DT_INT32"}, "value": {"tensor": {"dtype": "DT_INT32", "tensorShape": {}}}}}, {"name": "BoxPredictor_2/Reshape/shape/3", "op": "Const", "attr": {"value": {"tensor": {"dtype": "DT_INT32", "tensorShape": {}}}, "dtype": {"type": "DT_INT32"}}}, {"name": "BoxPredictor_3/BoxEncodingPredictor/weights", "op": "Const", "attr": {"value": {"tensor": {"dtype": "DT_FLOAT", "tensorShape": {"dim": [{"size": "1"}, {"size": "1"}, {"size": "256"}, {"size": "24"}]}}}, "dtype": {"type": "DT_FLOAT"}}}, {"name": "BoxPredictor_3/BoxEncodingPredictor/biases", "op": "Const", "attr": {"value": {"tensor": {"dtype": "DT_FLOAT", "tensorShape": {"dim": [{"size": "24"}]}}}, "dtype": {"type": "DT_FLOAT"}}}, {"name": "BoxPredictor_3/strided_slice/stack", "op": "Const", "attr": {"dtype": {"type": "DT_INT32"}, "value": {"tensor": {"dtype": "DT_INT32", "tensorShape": {"dim": [{"size": "1"}]}}}}}, {"name": "BoxPredictor_3/strided_slice/stack_1", "op": "Const", "attr": {"dtype": {"type": "DT_INT32"}, "value": {"tensor": {"dtype": "DT_INT32", "tensorShape": {"dim": [{"size": "1"}]}}}}}, {"name": "BoxPredictor_3/strided_slice/stack_2", "op": "Const", "attr": {"value": {"tensor": {"dtype": "DT_INT32", "tensorShape": {"dim": [{"size": "1"}]}}}, "dtype": {"type": "DT_INT32"}}}, {"name": "BoxPredictor_3/Reshape/shape/1", "op": "Const", "attr": {"value": {"tensor": {"dtype": "DT_INT32", "tensorShape": {}}}, "dtype": {"type": "DT_INT32"}}}, {"name": "BoxPredictor_3/Reshape/shape/2", "op": "Const", "attr": {"value": {"tensor": {"dtype": "DT_INT32", "tensorShape": {}}}, "dtype": {"type": "DT_INT32"}}}, {"name": "BoxPredictor_3/Reshape/shape/3", "op": "Const", "attr": {"dtype": {"type": "DT_INT32"}, "value": {"tensor": {"dtype": "DT_INT32", "tensorShape": {}}}}}, {"name": "BoxPredictor_4/BoxEncodingPredictor/weights", "op": "Const", "attr": {"value": {"tensor": {"dtype": "DT_FLOAT", "tensorShape": {"dim": [{"size": "1"}, {"size": "1"}, {"size": "256"}, {"size": "24"}]}}}, "dtype": {"type": "DT_FLOAT"}}}, {"name": "BoxPredictor_4/BoxEncodingPredictor/biases", "op": "Const", "attr": {"dtype": {"type": "DT_FLOAT"}, "value": {"tensor": {"dtype": "DT_FLOAT", "tensorShape": {"dim": [{"size": "24"}]}}}}}, {"name": "BoxPredictor_4/strided_slice/stack", "op": "Const", "attr": {"dtype": {"type": "DT_INT32"}, "value": {"tensor": {"dtype": "DT_INT32", "tensorShape": {"dim": [{"size": "1"}]}}}}}, {"name": "BoxPredictor_4/strided_slice/stack_1", "op": "Const", "attr": {"dtype": {"type": "DT_INT32"}, "value": {"tensor": {"dtype": "DT_INT32", "tensorShape": {"dim": [{"size": "1"}]}}}}}, {"name": "BoxPredictor_4/strided_slice/stack_2", "op": "Const", "attr": {"value": {"tensor": {"dtype": "DT_INT32", "tensorShape": {"dim": [{"size": "1"}]}}}, "dtype": {"type": "DT_INT32"}}}, {"name": "BoxPredictor_4/Reshape/shape/1", "op": "Const", "attr": {"value": {"tensor": {"dtype": "DT_INT32", "tensorShape": {}}}, "dtype": {"type": "DT_INT32"}}}, {"name": "BoxPredictor_4/Reshape/shape/2", "op": "Const", "attr": {"value": {"tensor": {"dtype": "DT_INT32", "tensorShape": {}}}, "dtype": {"type": "DT_INT32"}}}, {"name": "BoxPredictor_4/Reshape/shape/3", "op": "Const", "attr": {"value": {"tensor": {"dtype": "DT_INT32", "tensorShape": {}}}, "dtype": {"type": "DT_INT32"}}}, {"name": "BoxPredictor_5/BoxEncodingPredictor/weights", "op": "Const", "attr": {"dtype": {"type": "DT_FLOAT"}, "value": {"tensor": {"dtype": "DT_FLOAT", "tensorShape": {"dim": [{"size": "1"}, {"size": "1"}, {"size": "128"}, {"size": "24"}]}}}}}, {"name": "BoxPredictor_5/BoxEncodingPredictor/biases", "op": "Const", "attr": {"value": {"tensor": {"dtype": "DT_FLOAT", "tensorShape": {"dim": [{"size": "24"}]}}}, "dtype": {"type": "DT_FLOAT"}}}, {"name": "BoxPredictor_5/strided_slice/stack", "op": "Const", "attr": {"dtype": {"type": "DT_INT32"}, "value": {"tensor": {"dtype": "DT_INT32", "tensorShape": {"dim": [{"size": "1"}]}}}}}, {"name": "BoxPredictor_5/strided_slice/stack_1", "op": "Const", "attr": {"value": {"tensor": {"dtype": "DT_INT32", "tensorShape": {"dim": [{"size": "1"}]}}}, "dtype": {"type": "DT_INT32"}}}, {"name": "BoxPredictor_5/strided_slice/stack_2", "op": "Const", "attr": {"value": {"tensor": {"dtype": "DT_INT32", "tensorShape": {"dim": [{"size": "1"}]}}}, "dtype": {"type": "DT_INT32"}}}, {"name": "BoxPredictor_5/Reshape/shape/1", "op": "Const", "attr": {"value": {"tensor": {"dtype": "DT_INT32", "tensorShape": {}}}, "dtype": {"type": "DT_INT32"}}}, {"name": "BoxPredictor_5/Reshape/shape/2", "op": "Const", "attr": {"value": {"tensor": {"dtype": "DT_INT32", "tensorShape": {}}}, "dtype": {"type": "DT_INT32"}}}, {"name": "BoxPredictor_5/Reshape/shape/3", "op": "Const", "attr": {"value": {"tensor": {"dtype": "DT_INT32", "tensorShape": {}}}, "dtype": {"type": "DT_INT32"}}}, {"name": "concat/axis", "op": "Const", "attr": {"value": {"tensor": {"dtype": "DT_INT32", "tensorShape": {}}}, "dtype": {"type": "DT_INT32"}}}, {"name": "Postprocessor/strided_slice_1/stack", "op": "Const", "attr": {"dtype": {"type": "DT_INT32"}, "value": {"tensor": {"dtype": "DT_INT32", "tensorShape": {"dim": [{"size": "1"}]}}}}}, {"name": "Postprocessor/strided_slice_1/stack_1", "op": "Const", "attr": {"value": {"tensor": {"dtype": "DT_INT32", "tensorShape": {"dim": [{"size": "1"}]}}}, "dtype": {"type": "DT_INT32"}}}, {"name": "Postprocessor/strided_slice_1/stack_2", "op": "Const", "attr": {"dtype": {"type": "DT_INT32"}, "value": {"tensor": {"dtype": "DT_INT32", "tensorShape": {"dim": [{"size": "1"}]}}}}}, {"name": "Postprocessor/stack/2", "op": "Const", "attr": {"value": {"tensor": {"dtype": "DT_INT32", "tensorShape": {}}}, "dtype": {"type": "DT_INT32"}}}, {"name": "Postprocessor/ExpandDims_1/dim", "op": "Const", "attr": {"value": {"tensor": {"dtype": "DT_INT32", "tensorShape": {}}}, "dtype": {"type": "DT_INT32"}}}, {"name": "BoxPredictor_0/ClassPredictor/weights", "op": "Const", "attr": {"dtype": {"type": "DT_FLOAT"}, "value": {"tensor": {"dtype": "DT_FLOAT", "tensorShape": {"dim": [{"size": "1"}, {"size": "1"}, {"size": "288"}, {"size": "6"}]}}}}}, {"name": "BoxPredictor_0/ClassPredictor/biases", "op": "Const", "attr": {"dtype": {"type": "DT_FLOAT"}, "value": {"tensor": {"dtype": "DT_FLOAT", "tensorShape": {"dim": [{"size": "6"}]}}}}}, {"name": "BoxPredictor_0/strided_slice_1/stack", "op": "Const", "attr": {"dtype": {"type": "DT_INT32"}, "value": {"tensor": {"dtype": "DT_INT32", "tensorShape": {"dim": [{"size": "1"}]}}}}}, {"name": "BoxPredictor_0/strided_slice_1/stack_1", "op": "Const", "attr": {"dtype": {"type": "DT_INT32"}, "value": {"tensor": {"dtype": "DT_INT32", "tensorShape": {"dim": [{"size": "1"}]}}}}}, {"name": "BoxPredictor_0/strided_slice_1/stack_2", "op": "Const", "attr": {"dtype": {"type": "DT_INT32"}, "value": {"tensor": {"dtype": "DT_INT32", "tensorShape": {"dim": [{"size": "1"}]}}}}}, {"name": "BoxPredictor_0/Reshape_1/shape/1", "op": "Const", "attr": {"value": {"tensor": {"dtype": "DT_INT32", "tensorShape": {}}}, "dtype": {"type": "DT_INT32"}}}, {"name": "BoxPredictor_0/Reshape_1/shape/2", "op": "Const", "attr": {"value": {"tensor": {"dtype": "DT_INT32", "tensorShape": {}}}, "dtype": {"type": "DT_INT32"}}}, {"name": "BoxPredictor_1/ClassPredictor/weights", "op": "Const", "attr": {"dtype": {"type": "DT_FLOAT"}, "value": {"tensor": {"dtype": "DT_FLOAT", "tensorShape": {"dim": [{"size": "1"}, {"size": "1"}, {"size": "288"}, {"size": "12"}]}}}}}, {"name": "BoxPredictor_1/ClassPredictor/biases", "op": "Const", "attr": {"value": {"tensor": {"dtype": "DT_FLOAT", "tensorShape": {"dim": [{"size": "12"}]}}}, "dtype": {"type": "DT_FLOAT"}}}, {"name": "BoxPredictor_1/strided_slice_1/stack", "op": "Const", "attr": {"dtype": {"type": "DT_INT32"}, "value": {"tensor": {"dtype": "DT_INT32", "tensorShape": {"dim": [{"size": "1"}]}}}}}, {"name": "BoxPredictor_1/strided_slice_1/stack_1", "op": "Const", "attr": {"value": {"tensor": {"dtype": "DT_INT32", "tensorShape": {"dim": [{"size": "1"}]}}}, "dtype": {"type": "DT_INT32"}}}, {"name": "BoxPredictor_1/strided_slice_1/stack_2", "op": "Const", "attr": {"value": {"tensor": {"dtype": "DT_INT32", "tensorShape": {"dim": [{"size": "1"}]}}}, "dtype": {"type": "DT_INT32"}}}, {"name": "BoxPredictor_1/Reshape_1/shape/1", "op": "Const", "attr": {"value": {"tensor": {"dtype": "DT_INT32", "tensorShape": {}}}, "dtype": {"type": "DT_INT32"}}}, {"name": "BoxPredictor_1/Reshape_1/shape/2", "op": "Const", "attr": {"dtype": {"type": "DT_INT32"}, "value": {"tensor": {"dtype": "DT_INT32", "tensorShape": {}}}}}, {"name": "BoxPredictor_2/ClassPredictor/weights", "op": "Const", "attr": {"value": {"tensor": {"dtype": "DT_FLOAT", "tensorShape": {"dim": [{"size": "1"}, {"size": "1"}, {"size": "512"}, {"size": "12"}]}}}, "dtype": {"type": "DT_FLOAT"}}}, {"name": "BoxPredictor_2/ClassPredictor/biases", "op": "Const", "attr": {"dtype": {"type": "DT_FLOAT"}, "value": {"tensor": {"dtype": "DT_FLOAT", "tensorShape": {"dim": [{"size": "12"}]}}}}}, {"name": "BoxPredictor_2/strided_slice_1/stack", "op": "Const", "attr": {"value": {"tensor": {"dtype": "DT_INT32", "tensorShape": {"dim": [{"size": "1"}]}}}, "dtype": {"type": "DT_INT32"}}}, {"name": "BoxPredictor_2/strided_slice_1/stack_1", "op": "Const", "attr": {"dtype": {"type": "DT_INT32"}, "value": {"tensor": {"dtype": "DT_INT32", "tensorShape": {"dim": [{"size": "1"}]}}}}}, {"name": "BoxPredictor_2/strided_slice_1/stack_2", "op": "Const", "attr": {"dtype": {"type": "DT_INT32"}, "value": {"tensor": {"dtype": "DT_INT32", "tensorShape": {"dim": [{"size": "1"}]}}}}}, {"name": "BoxPredictor_2/Reshape_1/shape/1", "op": "Const", "attr": {"dtype": {"type": "DT_INT32"}, "value": {"tensor": {"dtype": "DT_INT32", "tensorShape": {}}}}}, {"name": "BoxPredictor_2/Reshape_1/shape/2", "op": "Const", "attr": {"value": {"tensor": {"dtype": "DT_INT32", "tensorShape": {}}}, "dtype": {"type": "DT_INT32"}}}, {"name": "BoxPredictor_3/ClassPredictor/weights", "op": "Const", "attr": {"value": {"tensor": {"dtype": "DT_FLOAT", "tensorShape": {"dim": [{"size": "1"}, {"size": "1"}, {"size": "256"}, {"size": "12"}]}}}, "dtype": {"type": "DT_FLOAT"}}}, {"name": "BoxPredictor_3/ClassPredictor/biases", "op": "Const", "attr": {"value": {"tensor": {"dtype": "DT_FLOAT", "tensorShape": {"dim": [{"size": "12"}]}}}, "dtype": {"type": "DT_FLOAT"}}}, {"name": "BoxPredictor_3/strided_slice_1/stack", "op": "Const", "attr": {"dtype": {"type": "DT_INT32"}, "value": {"tensor": {"dtype": "DT_INT32", "tensorShape": {"dim": [{"size": "1"}]}}}}}, {"name": "BoxPredictor_3/strided_slice_1/stack_1", "op": "Const", "attr": {"value": {"tensor": {"dtype": "DT_INT32", "tensorShape": {"dim": [{"size": "1"}]}}}, "dtype": {"type": "DT_INT32"}}}, {"name": "BoxPredictor_3/strided_slice_1/stack_2", "op": "Const", "attr": {"dtype": {"type": "DT_INT32"}, "value": {"tensor": {"dtype": "DT_INT32", "tensorShape": {"dim": [{"size": "1"}]}}}}}, {"name": "BoxPredictor_3/Reshape_1/shape/1", "op": "Const", "attr": {"value": {"tensor": {"dtype": "DT_INT32", "tensorShape": {}}}, "dtype": {"type": "DT_INT32"}}}, {"name": "BoxPredictor_3/Reshape_1/shape/2", "op": "Const", "attr": {"value": {"tensor": {"dtype": "DT_INT32", "tensorShape": {}}}, "dtype": {"type": "DT_INT32"}}}, {"name": "BoxPredictor_4/ClassPredictor/weights", "op": "Const", "attr": {"dtype": {"type": "DT_FLOAT"}, "value": {"tensor": {"dtype": "DT_FLOAT", "tensorShape": {"dim": [{"size": "1"}, {"size": "1"}, {"size": "256"}, {"size": "12"}]}}}}}, {"name": "BoxPredictor_4/ClassPredictor/biases", "op": "Const", "attr": {"dtype": {"type": "DT_FLOAT"}, "value": {"tensor": {"dtype": "DT_FLOAT", "tensorShape": {"dim": [{"size": "12"}]}}}}}, {"name": "BoxPredictor_4/strided_slice_1/stack", "op": "Const", "attr": {"dtype": {"type": "DT_INT32"}, "value": {"tensor": {"dtype": "DT_INT32", "tensorShape": {"dim": [{"size": "1"}]}}}}}, {"name": "BoxPredictor_4/strided_slice_1/stack_1", "op": "Const", "attr": {"dtype": {"type": "DT_INT32"}, "value": {"tensor": {"dtype": "DT_INT32", "tensorShape": {"dim": [{"size": "1"}]}}}}}, {"name": "BoxPredictor_4/strided_slice_1/stack_2", "op": "Const", "attr": {"value": {"tensor": {"dtype": "DT_INT32", "tensorShape": {"dim": [{"size": "1"}]}}}, "dtype": {"type": "DT_INT32"}}}, {"name": "BoxPredictor_4/Reshape_1/shape/1", "op": "Const", "attr": {"value": {"tensor": {"dtype": "DT_INT32", "tensorShape": {}}}, "dtype": {"type": "DT_INT32"}}}, {"name": "BoxPredictor_4/Reshape_1/shape/2", "op": "Const", "attr": {"value": {"tensor": {"dtype": "DT_INT32", "tensorShape": {}}}, "dtype": {"type": "DT_INT32"}}}, {"name": "BoxPredictor_5/ClassPredictor/weights", "op": "Const", "attr": {"value": {"tensor": {"dtype": "DT_FLOAT", "tensorShape": {"dim": [{"size": "1"}, {"size": "1"}, {"size": "128"}, {"size": "12"}]}}}, "dtype": {"type": "DT_FLOAT"}}}, {"name": "BoxPredictor_5/ClassPredictor/biases", "op": "Const", "attr": {"value": {"tensor": {"dtype": "DT_FLOAT", "tensorShape": {"dim": [{"size": "12"}]}}}, "dtype": {"type": "DT_FLOAT"}}}, {"name": "FeatureExtractor/MobilenetV3/Conv_1/hard_swish/mul_1/y", "op": "Const", "attr": {"dtype": {"type": "DT_FLOAT"}, "value": {"tensor": {"dtype": "DT_FLOAT", "tensorShape": {}}}}}, {"name": "FeatureExtractor/MobilenetV3/expanded_conv_10/squeeze_excite/Conv_1/mul/y", "op": "Const", "attr": {"value": {"tensor": {"dtype": "DT_FLOAT", "tensorShape": {}}}, "dtype": {"type": "DT_FLOAT"}}}, {"name": "FeatureExtractor/MobilenetV3/expanded_conv_10/squeeze_excite/Mean/reduction_indices", "op": "Const", "attr": {"dtype": {"type": "DT_INT32"}, "value": {"tensor": {"dtype": "DT_INT32", "tensorShape": {"dim": [{"size": "2"}]}}}}}, {"name": "FeatureExtractor/MobilenetV3/expanded_conv_10/squeeze_excite/Conv/weights", "op": "Const", "attr": {"dtype": {"type": "DT_FLOAT"}, "value": {"tensor": {"dtype": "DT_FLOAT", "tensorShape": {"dim": [{"size": "1"}, {"size": "1"}, {"size": "288"}, {"size": "72"}]}}}}}, {"name": "FeatureExtractor/MobilenetV3/expanded_conv_10/squeeze_excite/Conv/biases", "op": "Const", "attr": {"value": {"tensor": {"dtype": "DT_FLOAT", "tensorShape": {"dim": [{"size": "72"}]}}}, "dtype": {"type": "DT_FLOAT"}}}, {"name": "FeatureExtractor/MobilenetV3/expanded_conv_10/squeeze_excite/Conv_1/weights", "op": "Const", "attr": {"dtype": {"type": "DT_FLOAT"}, "value": {"tensor": {"dtype": "DT_FLOAT", "tensorShape": {"dim": [{"size": "1"}, {"size": "1"}, {"size": "72"}, {"size": "288"}]}}}}}, {"name": "FeatureExtractor/MobilenetV3/expanded_conv_10/squeeze_excite/Conv_1/biases", "op": "Const", "attr": {"value": {"tensor": {"dtype": "DT_FLOAT", "tensorShape": {"dim": [{"size": "288"}]}}}, "dtype": {"type": "DT_FLOAT"}}}, {"name": "FeatureExtractor/MobilenetV3/expanded_conv_10/squeeze_excite/Conv_1/add/y", "op": "Const", "attr": {"dtype": {"type": "DT_FLOAT"}, "value": {"tensor": {"dtype": "DT_FLOAT", "tensorShape": {}}}}}, {"name": "FeatureExtractor/MobilenetV3/expanded_conv_10/depthwise/hard_swish/mul_1/y", "op": "Const", "attr": {"dtype": {"type": "DT_FLOAT"}, "value": {"tensor": {"dtype": "DT_FLOAT", "tensorShape": {}}}}}, {"name": "FeatureExtractor/MobilenetV3/expanded_conv_10/expand/hard_swish/mul_1/y", "op": "Const", "attr": {"value": {"tensor": {"dtype": "DT_FLOAT", "tensorShape": {}}}, "dtype": {"type": "DT_FLOAT"}}}, {"name": "FeatureExtractor/MobilenetV3/expanded_conv_10/expand/hard_swish/add/y", "op": "Const", "attr": {"dtype": {"type": "DT_FLOAT"}, "value": {"tensor": {"dtype": "DT_FLOAT", "tensorShape": {}}}}}, {"name": "FeatureExtractor/MobilenetV3/expanded_conv_10/depthwise/hard_swish/add/y", "op": "Const", "attr": {"dtype": {"type": "DT_FLOAT"}, "value": {"tensor": {"dtype": "DT_FLOAT", "tensorShape": {}}}}}, {"name": "FeatureExtractor/MobilenetV3/expanded_conv_9/squeeze_excite/Conv_1/mul/y", "op": "Const", "attr": {"value": {"tensor": {"dtype": "DT_FLOAT", "tensorShape": {}}}, "dtype": {"type": "DT_FLOAT"}}}, {"name": "FeatureExtractor/MobilenetV3/expanded_conv_9/squeeze_excite/Mean/reduction_indices", "op": "Const", "attr": {"dtype": {"type": "DT_INT32"}, "value": {"tensor": {"dtype": "DT_INT32", "tensorShape": {"dim": [{"size": "2"}]}}}}}, {"name": "FeatureExtractor/MobilenetV3/expanded_conv_9/squeeze_excite/Conv/weights", "op": "Const", "attr": {"value": {"tensor": {"dtype": "DT_FLOAT", "tensorShape": {"dim": [{"size": "1"}, {"size": "1"}, {"size": "288"}, {"size": "72"}]}}}, "dtype": {"type": "DT_FLOAT"}}}, {"name": "FeatureExtractor/MobilenetV3/expanded_conv_9/squeeze_excite/Conv/biases", "op": "Const", "attr": {"dtype": {"type": "DT_FLOAT"}, "value": {"tensor": {"dtype": "DT_FLOAT", "tensorShape": {"dim": [{"size": "72"}]}}}}}, {"name": "FeatureExtractor/MobilenetV3/expanded_conv_9/squeeze_excite/Conv_1/weights", "op": "Const", "attr": {"value": {"tensor": {"dtype": "DT_FLOAT", "tensorShape": {"dim": [{"size": "1"}, {"size": "1"}, {"size": "72"}, {"size": "288"}]}}}, "dtype": {"type": "DT_FLOAT"}}}, {"name": "FeatureExtractor/MobilenetV3/expanded_conv_9/squeeze_excite/Conv_1/biases", "op": "Const", "attr": {"value": {"tensor": {"dtype": "DT_FLOAT", "tensorShape": {"dim": [{"size": "288"}]}}}, "dtype": {"type": "DT_FLOAT"}}}, {"name": "FeatureExtractor/MobilenetV3/expanded_conv_9/squeeze_excite/Conv_1/add/y", "op": "Const", "attr": {"value": {"tensor": {"dtype": "DT_FLOAT", "tensorShape": {}}}, "dtype": {"type": "DT_FLOAT"}}}, {"name": "FeatureExtractor/MobilenetV3/expanded_conv_9/depthwise/hard_swish/mul_1/y", "op": "Const", "attr": {"value": {"tensor": {"dtype": "DT_FLOAT", "tensorShape": {}}}, "dtype": {"type": "DT_FLOAT"}}}, {"name": "FeatureExtractor/MobilenetV3/expanded_conv_9/expand/hard_swish/mul_1/y", "op": "Const", "attr": {"value": {"tensor": {"dtype": "DT_FLOAT", "tensorShape": {}}}, "dtype": {"type": "DT_FLOAT"}}}, {"name": "FeatureExtractor/MobilenetV3/expanded_conv_9/expand/hard_swish/add/y", "op": "Const", "attr": {"dtype": {"type": "DT_FLOAT"}, "value": {"tensor": {"dtype": "DT_FLOAT", "tensorShape": {}}}}}, {"name": "FeatureExtractor/MobilenetV3/expanded_conv_9/depthwise/hard_swish/add/y", "op": "Const", "attr": {"dtype": {"type": "DT_FLOAT"}, "value": {"tensor": {"dtype": "DT_FLOAT", "tensorShape": {}}}}}, {"name": "FeatureExtractor/MobilenetV3/expanded_conv_8/squeeze_excite/Conv_1/mul/y", "op": "Const", "attr": {"dtype": {"type": "DT_FLOAT"}, "value": {"tensor": {"dtype": "DT_FLOAT", "tensorShape": {}}}}}, {"name": "FeatureExtractor/MobilenetV3/expanded_conv_8/squeeze_excite/Mean/reduction_indices", "op": "Const", "attr": {"dtype": {"type": "DT_INT32"}, "value": {"tensor": {"dtype": "DT_INT32", "tensorShape": {"dim": [{"size": "2"}]}}}}}, {"name": "FeatureExtractor/MobilenetV3/expanded_conv_8/squeeze_excite/Conv/weights", "op": "Const", "attr": {"value": {"tensor": {"dtype": "DT_FLOAT", "tensorShape": {"dim": [{"size": "1"}, {"size": "1"}, {"size": "288"}, {"size": "72"}]}}}, "dtype": {"type": "DT_FLOAT"}}}, {"name": "FeatureExtractor/MobilenetV3/expanded_conv_8/squeeze_excite/Conv/biases", "op": "Const", "attr": {"dtype": {"type": "DT_FLOAT"}, "value": {"tensor": {"dtype": "DT_FLOAT", "tensorShape": {"dim": [{"size": "72"}]}}}}}, {"name": "FeatureExtractor/MobilenetV3/expanded_conv_8/squeeze_excite/Conv_1/weights", "op": "Const", "attr": {"value": {"tensor": {"dtype": "DT_FLOAT", "tensorShape": {"dim": [{"size": "1"}, {"size": "1"}, {"size": "72"}, {"size": "288"}]}}}, "dtype": {"type": "DT_FLOAT"}}}, {"name": "FeatureExtractor/MobilenetV3/expanded_conv_8/squeeze_excite/Conv_1/biases", "op": "Const", "attr": {"value": {"tensor": {"dtype": "DT_FLOAT", "tensorShape": {"dim": [{"size": "288"}]}}}, "dtype": {"type": "DT_FLOAT"}}}, {"name": "FeatureExtractor/MobilenetV3/expanded_conv_8/squeeze_excite/Conv_1/add/y", "op": "Const", "attr": {"dtype": {"type": "DT_FLOAT"}, "value": {"tensor": {"dtype": "DT_FLOAT", "tensorShape": {}}}}}, {"name": "FeatureExtractor/MobilenetV3/expanded_conv_8/depthwise/hard_swish/mul_1/y", "op": "Const", "attr": {"dtype": {"type": "DT_FLOAT"}, "value": {"tensor": {"dtype": "DT_FLOAT", "tensorShape": {}}}}}, {"name": "FeatureExtractor/MobilenetV3/expanded_conv_8/expand/hard_swish/mul_1/y", "op": "Const", "attr": {"value": {"tensor": {"dtype": "DT_FLOAT", "tensorShape": {}}}, "dtype": {"type": "DT_FLOAT"}}}, {"name": "FeatureExtractor/MobilenetV3/expanded_conv_7/squeeze_excite/Conv_1/mul/y", "op": "Const", "attr": {"value": {"tensor": {"dtype": "DT_FLOAT", "tensorShape": {}}}, "dtype": {"type": "DT_FLOAT"}}}, {"name": "FeatureExtractor/MobilenetV3/expanded_conv_7/squeeze_excite/Mean/reduction_indices", "op": "Const", "attr": {"dtype": {"type": "DT_INT32"}, "value": {"tensor": {"dtype": "DT_INT32", "tensorShape": {"dim": [{"size": "2"}]}}}}}, {"name": "FeatureExtractor/MobilenetV3/expanded_conv_7/squeeze_excite/Conv/weights", "op": "Const", "attr": {"dtype": {"type": "DT_FLOAT"}, "value": {"tensor": {"dtype": "DT_FLOAT", "tensorShape": {"dim": [{"size": "1"}, {"size": "1"}, {"size": "144"}, {"size": "40"}]}}}}}, {"name": "FeatureExtractor/MobilenetV3/expanded_conv_7/squeeze_excite/Conv/biases", "op": "Const", "attr": {"dtype": {"type": "DT_FLOAT"}, "value": {"tensor": {"dtype": "DT_FLOAT", "tensorShape": {"dim": [{"size": "40"}]}}}}}, {"name": "FeatureExtractor/MobilenetV3/expanded_conv_7/squeeze_excite/Conv_1/weights", "op": "Const", "attr": {"dtype": {"type": "DT_FLOAT"}, "value": {"tensor": {"dtype": "DT_FLOAT", "tensorShape": {"dim": [{"size": "1"}, {"size": "1"}, {"size": "40"}, {"size": "144"}]}}}}}, {"name": "FeatureExtractor/MobilenetV3/expanded_conv_7/squeeze_excite/Conv_1/biases", "op": "Const", "attr": {"dtype": {"type": "DT_FLOAT"}, "value": {"tensor": {"dtype": "DT_FLOAT", "tensorShape": {"dim": [{"size": "144"}]}}}}}, {"name": "FeatureExtractor/MobilenetV3/expanded_conv_7/squeeze_excite/Conv_1/add/y", "op": "Const", "attr": {"dtype": {"type": "DT_FLOAT"}, "value": {"tensor": {"dtype": "DT_FLOAT", "tensorShape": {}}}}}, {"name": "FeatureExtractor/MobilenetV3/expanded_conv_7/depthwise/hard_swish/mul_1/y", "op": "Const", "attr": {"value": {"tensor": {"dtype": "DT_FLOAT", "tensorShape": {}}}, "dtype": {"type": "DT_FLOAT"}}}, {"name": "FeatureExtractor/MobilenetV3/expanded_conv_7/expand/hard_swish/mul_1/y", "op": "Const", "attr": {"value": {"tensor": {"dtype": "DT_FLOAT", "tensorShape": {}}}, "dtype": {"type": "DT_FLOAT"}}}, {"name": "FeatureExtractor/MobilenetV3/expanded_conv_7/expand/hard_swish/add/y", "op": "Const", "attr": {"dtype": {"type": "DT_FLOAT"}, "value": {"tensor": {"dtype": "DT_FLOAT", "tensorShape": {}}}}}, {"name": "FeatureExtractor/MobilenetV3/expanded_conv_7/depthwise/hard_swish/add/y", "op": "Const", "attr": {"value": {"tensor": {"dtype": "DT_FLOAT", "tensorShape": {}}}, "dtype": {"type": "DT_FLOAT"}}}, {"name": "FeatureExtractor/MobilenetV3/expanded_conv_6/squeeze_excite/Conv_1/mul/y", "op": "Const", "attr": {"dtype": {"type": "DT_FLOAT"}, "value": {"tensor": {"dtype": "DT_FLOAT", "tensorShape": {}}}}}, {"name": "FeatureExtractor/MobilenetV3/expanded_conv_6/squeeze_excite/Mean/reduction_indices", "op": "Const", "attr": {"value": {"tensor": {"dtype": "DT_INT32", "tensorShape": {"dim": [{"size": "2"}]}}}, "dtype": {"type": "DT_INT32"}}}, {"name": "FeatureExtractor/MobilenetV3/expanded_conv_6/squeeze_excite/Conv/weights", "op": "Const", "attr": {"dtype": {"type": "DT_FLOAT"}, "value": {"tensor": {"dtype": "DT_FLOAT", "tensorShape": {"dim": [{"size": "1"}, {"size": "1"}, {"size": "120"}, {"size": "32"}]}}}}}, {"name": "FeatureExtractor/MobilenetV3/expanded_conv_6/squeeze_excite/Conv/biases", "op": "Const", "attr": {"value": {"tensor": {"dtype": "DT_FLOAT", "tensorShape": {"dim": [{"size": "32"}]}}}, "dtype": {"type": "DT_FLOAT"}}}, {"name": "FeatureExtractor/MobilenetV3/expanded_conv_6/squeeze_excite/Conv_1/weights", "op": "Const", "attr": {"dtype": {"type": "DT_FLOAT"}, "value": {"tensor": {"dtype": "DT_FLOAT", "tensorShape": {"dim": [{"size": "1"}, {"size": "1"}, {"size": "32"}, {"size": "120"}]}}}}}, {"name": "FeatureExtractor/MobilenetV3/expanded_conv_6/squeeze_excite/Conv_1/biases", "op": "Const", "attr": {"dtype": {"type": "DT_FLOAT"}, "value": {"tensor": {"dtype": "DT_FLOAT", "tensorShape": {"dim": [{"size": "120"}]}}}}}, {"name": "FeatureExtractor/MobilenetV3/expanded_conv_6/squeeze_excite/Conv_1/add/y", "op": "Const", "attr": {"dtype": {"type": "DT_FLOAT"}, "value": {"tensor": {"dtype": "DT_FLOAT", "tensorShape": {}}}}}, {"name": "FeatureExtractor/MobilenetV3/expanded_conv_6/depthwise/hard_swish/mul_1/y", "op": "Const", "attr": {"value": {"tensor": {"dtype": "DT_FLOAT", "tensorShape": {}}}, "dtype": {"type": "DT_FLOAT"}}}, {"name": "FeatureExtractor/MobilenetV3/expanded_conv_6/expand/hard_swish/mul_1/y", "op": "Const", "attr": {"value": {"tensor": {"dtype": "DT_FLOAT", "tensorShape": {}}}, "dtype": {"type": "DT_FLOAT"}}}, {"name": "FeatureExtractor/MobilenetV3/expanded_conv_5/squeeze_excite/Conv_1/mul/y", "op": "Const", "attr": {"value": {"tensor": {"dtype": "DT_FLOAT", "tensorShape": {}}}, "dtype": {"type": "DT_FLOAT"}}}, {"name": "FeatureExtractor/MobilenetV3/expanded_conv_5/squeeze_excite/Mean/reduction_indices", "op": "Const", "attr": {"dtype": {"type": "DT_INT32"}, "value": {"tensor": {"dtype": "DT_INT32", "tensorShape": {"dim": [{"size": "2"}]}}}}}, {"name": "FeatureExtractor/MobilenetV3/expanded_conv_5/squeeze_excite/Conv/weights", "op": "Const", "attr": {"value": {"tensor": {"dtype": "DT_FLOAT", "tensorShape": {"dim": [{"size": "1"}, {"size": "1"}, {"size": "240"}, {"size": "64"}]}}}, "dtype": {"type": "DT_FLOAT"}}}, {"name": "FeatureExtractor/MobilenetV3/expanded_conv_5/squeeze_excite/Conv/biases", "op": "Const", "attr": {"dtype": {"type": "DT_FLOAT"}, "value": {"tensor": {"dtype": "DT_FLOAT", "tensorShape": {"dim": [{"size": "64"}]}}}}}, {"name": "FeatureExtractor/MobilenetV3/expanded_conv_5/squeeze_excite/Conv_1/weights", "op": "Const", "attr": {"dtype": {"type": "DT_FLOAT"}, "value": {"tensor": {"dtype": "DT_FLOAT", "tensorShape": {"dim": [{"size": "1"}, {"size": "1"}, {"size": "64"}, {"size": "240"}]}}}}}, {"name": "FeatureExtractor/MobilenetV3/expanded_conv_5/squeeze_excite/Conv_1/biases", "op": "Const", "attr": {"value": {"tensor": {"dtype": "DT_FLOAT", "tensorShape": {"dim": [{"size": "240"}]}}}, "dtype": {"type": "DT_FLOAT"}}}, {"name": "FeatureExtractor/MobilenetV3/expanded_conv_5/squeeze_excite/Conv_1/add/y", "op": "Const", "attr": {"value": {"tensor": {"dtype": "DT_FLOAT", "tensorShape": {}}}, "dtype": {"type": "DT_FLOAT"}}}, {"name": "FeatureExtractor/MobilenetV3/expanded_conv_5/depthwise/hard_swish/mul_1/y", "op": "Const", "attr": {"value": {"tensor": {"dtype": "DT_FLOAT", "tensorShape": {}}}, "dtype": {"type": "DT_FLOAT"}}}, {"name": "FeatureExtractor/MobilenetV3/expanded_conv_5/expand/hard_swish/mul_1/y", "op": "Const", "attr": {"dtype": {"type": "DT_FLOAT"}, "value": {"tensor": {"dtype": "DT_FLOAT", "tensorShape": {}}}}}, {"name": "FeatureExtractor/MobilenetV3/expanded_conv_5/expand/hard_swish/add/y", "op": "Const", "attr": {"value": {"tensor": {"dtype": "DT_FLOAT", "tensorShape": {}}}, "dtype": {"type": "DT_FLOAT"}}}, {"name": "FeatureExtractor/MobilenetV3/expanded_conv_5/depthwise/hard_swish/add/y", "op": "Const", "attr": {"dtype": {"type": "DT_FLOAT"}, "value": {"tensor": {"dtype": "DT_FLOAT", "tensorShape": {}}}}}, {"name": "FeatureExtractor/MobilenetV3/expanded_conv_4/squeeze_excite/Conv_1/mul/y", "op": "Const", "attr": {"dtype": {"type": "DT_FLOAT"}, "value": {"tensor": {"dtype": "DT_FLOAT", "tensorShape": {}}}}}, {"name": "FeatureExtractor/MobilenetV3/expanded_conv_4/squeeze_excite/Mean/reduction_indices", "op": "Const", "attr": {"value": {"tensor": {"dtype": "DT_INT32", "tensorShape": {"dim": [{"size": "2"}]}}}, "dtype": {"type": "DT_INT32"}}}, {"name": "FeatureExtractor/MobilenetV3/expanded_conv_4/squeeze_excite/Conv/weights", "op": "Const", "attr": {"dtype": {"type": "DT_FLOAT"}, "value": {"tensor": {"dtype": "DT_FLOAT", "tensorShape": {"dim": [{"size": "1"}, {"size": "1"}, {"size": "240"}, {"size": "64"}]}}}}}, {"name": "FeatureExtractor/MobilenetV3/expanded_conv_4/squeeze_excite/Conv/biases", "op": "Const", "attr": {"dtype": {"type": "DT_FLOAT"}, "value": {"tensor": {"dtype": "DT_FLOAT", "tensorShape": {"dim": [{"size": "64"}]}}}}}, {"name": "FeatureExtractor/MobilenetV3/expanded_conv_4/squeeze_excite/Conv_1/weights", "op": "Const", "attr": {"value": {"tensor": {"dtype": "DT_FLOAT", "tensorShape": {"dim": [{"size": "1"}, {"size": "1"}, {"size": "64"}, {"size": "240"}]}}}, "dtype": {"type": "DT_FLOAT"}}}, {"name": "FeatureExtractor/MobilenetV3/expanded_conv_4/squeeze_excite/Conv_1/biases", "op": "Const", "attr": {"dtype": {"type": "DT_FLOAT"}, "value": {"tensor": {"dtype": "DT_FLOAT", "tensorShape": {"dim": [{"size": "240"}]}}}}}, {"name": "FeatureExtractor/MobilenetV3/expanded_conv_4/squeeze_excite/Conv_1/add/y", "op": "Const", "attr": {"value": {"tensor": {"dtype": "DT_FLOAT", "tensorShape": {}}}, "dtype": {"type": "DT_FLOAT"}}}, {"name": "FeatureExtractor/MobilenetV3/expanded_conv_4/depthwise/hard_swish/mul_1/y", "op": "Const", "attr": {"value": {"tensor": {"dtype": "DT_FLOAT", "tensorShape": {}}}, "dtype": {"type": "DT_FLOAT"}}}, {"name": "FeatureExtractor/MobilenetV3/expanded_conv_4/expand/hard_swish/mul_1/y", "op": "Const", "attr": {"dtype": {"type": "DT_FLOAT"}, "value": {"tensor": {"dtype": "DT_FLOAT", "tensorShape": {}}}}}, {"name": "FeatureExtractor/MobilenetV3/expanded_conv_4/expand/hard_swish/add/y", "op": "Const", "attr": {"value": {"tensor": {"dtype": "DT_FLOAT", "tensorShape": {}}}, "dtype": {"type": "DT_FLOAT"}}}, {"name": "FeatureExtractor/MobilenetV3/expanded_conv_4/depthwise/hard_swish/add/y", "op": "Const", "attr": {"value": {"tensor": {"dtype": "DT_FLOAT", "tensorShape": {}}}, "dtype": {"type": "DT_FLOAT"}}}, {"name": "FeatureExtractor/MobilenetV3/expanded_conv_3/squeeze_excite/Conv_1/mul/y", "op": "Const", "attr": {"dtype": {"type": "DT_FLOAT"}, "value": {"tensor": {"dtype": "DT_FLOAT", "tensorShape": {}}}}}, {"name": "FeatureExtractor/MobilenetV3/expanded_conv_3/squeeze_excite/Mean/reduction_indices", "op": "Const", "attr": {"value": {"tensor": {"dtype": "DT_INT32", "tensorShape": {"dim": [{"size": "2"}]}}}, "dtype": {"type": "DT_INT32"}}}, {"name": "FeatureExtractor/MobilenetV3/expanded_conv_3/squeeze_excite/Conv/weights", "op": "Const", "attr": {"value": {"tensor": {"dtype": "DT_FLOAT", "tensorShape": {"dim": [{"size": "1"}, {"size": "1"}, {"size": "96"}, {"size": "24"}]}}}, "dtype": {"type": "DT_FLOAT"}}}, {"name": "FeatureExtractor/MobilenetV3/expanded_conv_3/squeeze_excite/Conv/biases", "op": "Const", "attr": {"dtype": {"type": "DT_FLOAT"}, "value": {"tensor": {"dtype": "DT_FLOAT", "tensorShape": {"dim": [{"size": "24"}]}}}}}, {"name": "FeatureExtractor/MobilenetV3/expanded_conv_3/squeeze_excite/Conv_1/weights", "op": "Const", "attr": {"value": {"tensor": {"dtype": "DT_FLOAT", "tensorShape": {"dim": [{"size": "1"}, {"size": "1"}, {"size": "24"}, {"size": "96"}]}}}, "dtype": {"type": "DT_FLOAT"}}}, {"name": "FeatureExtractor/MobilenetV3/expanded_conv_3/squeeze_excite/Conv_1/biases", "op": "Const", "attr": {"value": {"tensor": {"dtype": "DT_FLOAT", "tensorShape": {"dim": [{"size": "96"}]}}}, "dtype": {"type": "DT_FLOAT"}}}, {"name": "FeatureExtractor/MobilenetV3/expanded_conv_3/squeeze_excite/Conv_1/add/y", "op": "Const", "attr": {"dtype": {"type": "DT_FLOAT"}, "value": {"tensor": {"dtype": "DT_FLOAT", "tensorShape": {}}}}}, {"name": "FeatureExtractor/MobilenetV3/expanded_conv_3/depthwise/hard_swish/mul_1/y", "op": "Const", "attr": {"value": {"tensor": {"dtype": "DT_FLOAT", "tensorShape": {}}}, "dtype": {"type": "DT_FLOAT"}}}, {"name": "FeatureExtractor/MobilenetV3/expanded_conv_3/expand/hard_swish/mul_1/y", "op": "Const", "attr": {"dtype": {"type": "DT_FLOAT"}, "value": {"tensor": {"dtype": "DT_FLOAT", "tensorShape": {}}}}}, {"name": "FeatureExtractor/MobilenetV3/expanded_conv/squeeze_excite/Conv_1/mul/y", "op": "Const", "attr": {"value": {"tensor": {"dtype": "DT_FLOAT", "tensorShape": {}}}, "dtype": {"type": "DT_FLOAT"}}}, {"name": "FeatureExtractor/MobilenetV3/expanded_conv/squeeze_excite/Mean/reduction_indices", "op": "Const", "attr": {"dtype": {"type": "DT_INT32"}, "value": {"tensor": {"dtype": "DT_INT32", "tensorShape": {"dim": [{"size": "2"}]}}}}}, {"name": "FeatureExtractor/MobilenetV3/expanded_conv/squeeze_excite/Conv/weights", "op": "Const", "attr": {"dtype": {"type": "DT_FLOAT"}, "value": {"tensor": {"dtype": "DT_FLOAT", "tensorShape": {"dim": [{"size": "1"}, {"size": "1"}, {"size": "16"}, {"size": "8"}]}}}}}, {"name": "FeatureExtractor/MobilenetV3/expanded_conv/squeeze_excite/Conv/biases", "op": "Const", "attr": {"value": {"tensor": {"dtype": "DT_FLOAT", "tensorShape": {"dim": [{"size": "8"}]}}}, "dtype": {"type": "DT_FLOAT"}}}, {"name": "FeatureExtractor/MobilenetV3/expanded_conv/squeeze_excite/Conv_1/weights", "op": "Const", "attr": {"value": {"tensor": {"dtype": "DT_FLOAT", "tensorShape": {"dim": [{"size": "1"}, {"size": "1"}, {"size": "8"}, {"size": "16"}]}}}, "dtype": {"type": "DT_FLOAT"}}}, {"name": "FeatureExtractor/MobilenetV3/expanded_conv/squeeze_excite/Conv_1/biases", "op": "Const", "attr": {"dtype": {"type": "DT_FLOAT"}, "value": {"tensor": {"dtype": "DT_FLOAT", "tensorShape": {"dim": [{"size": "16"}]}}}}}, {"name": "FeatureExtractor/MobilenetV3/expanded_conv/squeeze_excite/Conv_1/add/y", "op": "Const", "attr": {"dtype": {"type": "DT_FLOAT"}, "value": {"tensor": {"dtype": "DT_FLOAT", "tensorShape": {}}}}}, {"name": "FeatureExtractor/MobilenetV3/Conv/hard_swish/mul_1/y", "op": "Const", "attr": {"value": {"tensor": {"dtype": "DT_FLOAT", "tensorShape": {}}}, "dtype": {"type": "DT_FLOAT"}}}, {"name": "Preprocessor/map/TensorArrayStack/range/start", "op": "Const", "attr": {"dtype": {"type": "DT_INT32"}, "value": {"tensor": {"dtype": "DT_INT32", "tensorShape": {}}}}}, {"name": "Preprocessor/map/TensorArrayStack/range/delta", "op": "Const", "attr": {"value": {"tensor": {"dtype": "DT_INT32", "tensorShape": {}}}, "dtype": {"type": "DT_INT32"}}}, {"name": "Preprocessor/map/TensorArrayUnstack/range/start", "op": "Const", "attr": {"value": {"tensor": {"dtype": "DT_INT32", "tensorShape": {}}}, "dtype": {"type": "DT_INT32"}}}, {"name": "Preprocessor/map/TensorArrayUnstack/strided_slice/stack", "op": "Const", "attr": {"dtype": {"type": "DT_INT32"}, "value": {"tensor": {"dtype": "DT_INT32", "tensorShape": {"dim": [{"size": "1"}]}}}}}, {"name": "Preprocessor/map/TensorArrayUnstack/strided_slice/stack_1", "op": "Const", "attr": {"value": {"tensor": {"dtype": "DT_INT32", "tensorShape": {"dim": [{"size": "1"}]}}}, "dtype": {"type": "DT_INT32"}}}, {"name": "Preprocessor/map/TensorArrayUnstack/strided_slice/stack_2", "op": "Const", "attr": {"value": {"tensor": {"dtype": "DT_INT32", "tensorShape": {"dim": [{"size": "1"}]}}}, "dtype": {"type": "DT_INT32"}}}, {"name": "Preprocessor/map/TensorArrayUnstack/range/delta", "op": "Const", "attr": {"dtype": {"type": "DT_INT32"}, "value": {"tensor": {"dtype": "DT_INT32", "tensorShape": {}}}}}, {"name": "Preprocessor/map/Const", "op": "Const", "attr": {"value": {"tensor": {"dtype": "DT_INT32", "tensorShape": {}}}, "dtype": {"type": "DT_INT32"}}}, {"name": "Preprocessor/map/while/iteration_counter", "op": "Const", "attr": {"value": {"tensor": {"dtype": "DT_INT32", "tensorShape": {}}}, "dtype": {"type": "DT_INT32"}}}, {"name": "Preprocessor/mul/x", "op": "Const", "attr": {"value": {"tensor": {"dtype": "DT_FLOAT", "tensorShape": {}}}, "dtype": {"type": "DT_FLOAT"}}}, {"name": "Preprocessor/sub/y", "op": "Const", "attr": {"dtype": {"type": "DT_FLOAT"}, "value": {"tensor": {"dtype": "DT_FLOAT", "tensorShape": {}}}}}, {"name": "Preprocessor/map/strided_slice/stack", "op": "Const", "attr": {"value": {"tensor": {"dtype": "DT_INT32", "tensorShape": {"dim": [{"size": "1"}]}}}, "dtype": {"type": "DT_INT32"}}}, {"name": "Preprocessor/map/strided_slice/stack_1", "op": "Const", "attr": {"dtype": {"type": "DT_INT32"}, "value": {"tensor": {"dtype": "DT_INT32", "tensorShape": {"dim": [{"size": "1"}]}}}}}, {"name": "Preprocessor/map/strided_slice/stack_2", "op": "Const", "attr": {"value": {"tensor": {"dtype": "DT_INT32", "tensorShape": {"dim": [{"size": "1"}]}}}, "dtype": {"type": "DT_INT32"}}}, {"name": "FeatureExtractor/MobilenetV3/Conv/hard_swish/add/y", "op": "Const", "attr": {"dtype": {"type": "DT_FLOAT"}, "value": {"tensor": {"dtype": "DT_FLOAT", "tensorShape": {}}}}}, {"name": "FeatureExtractor/MobilenetV3/expanded_conv_3/expand/hard_swish/add/y", "op": "Const", "attr": {"dtype": {"type": "DT_FLOAT"}, "value": {"tensor": {"dtype": "DT_FLOAT", "tensorShape": {}}}}}, {"name": "FeatureExtractor/MobilenetV3/expanded_conv_3/depthwise/hard_swish/add/y", "op": "Const", "attr": {"dtype": {"type": "DT_FLOAT"}, "value": {"tensor": {"dtype": "DT_FLOAT", "tensorShape": {}}}}}, {"name": "FeatureExtractor/MobilenetV3/expanded_conv_6/expand/hard_swish/add/y", "op": "Const", "attr": {"value": {"tensor": {"dtype": "DT_FLOAT", "tensorShape": {}}}, "dtype": {"type": "DT_FLOAT"}}}, {"name": "FeatureExtractor/MobilenetV3/expanded_conv_6/depthwise/hard_swish/add/y", "op": "Const", "attr": {"dtype": {"type": "DT_FLOAT"}, "value": {"tensor": {"dtype": "DT_FLOAT", "tensorShape": {}}}}}, {"name": "FeatureExtractor/MobilenetV3/expanded_conv_8/expand/hard_swish/add/y", "op": "Const", "attr": {"dtype": {"type": "DT_FLOAT"}, "value": {"tensor": {"dtype": "DT_FLOAT", "tensorShape": {}}}}}, {"name": "FeatureExtractor/MobilenetV3/expanded_conv_8/depthwise/hard_swish/add/y", "op": "Const", "attr": {"dtype": {"type": "DT_FLOAT"}, "value": {"tensor": {"dtype": "DT_FLOAT", "tensorShape": {}}}}}, {"name": "FeatureExtractor/MobilenetV3/Conv_1/hard_swish/add/y", "op": "Const", "attr": {"dtype": {"type": "DT_FLOAT"}, "value": {"tensor": {"dtype": "DT_FLOAT", "tensorShape": {}}}}}, {"name": "BoxPredictor_5/strided_slice_1/stack", "op": "Const", "attr": {"value": {"tensor": {"dtype": "DT_INT32", "tensorShape": {"dim": [{"size": "1"}]}}}, "dtype": {"type": "DT_INT32"}}}, {"name": "BoxPredictor_5/strided_slice_1/stack_1", "op": "Const", "attr": {"value": {"tensor": {"dtype": "DT_INT32", "tensorShape": {"dim": [{"size": "1"}]}}}, "dtype": {"type": "DT_INT32"}}}, {"name": "BoxPredictor_5/strided_slice_1/stack_2", "op": "Const", "attr": {"value": {"tensor": {"dtype": "DT_INT32", "tensorShape": {"dim": [{"size": "1"}]}}}, "dtype": {"type": "DT_INT32"}}}, {"name": "BoxPredictor_5/Reshape_1/shape/1", "op": "Const", "attr": {"value": {"tensor": {"dtype": "DT_INT32", "tensorShape": {}}}, "dtype": {"type": "DT_INT32"}}}, {"name": "BoxPredictor_5/Reshape_1/shape/2", "op": "Const", "attr": {"value": {"tensor": {"dtype": "DT_INT32", "tensorShape": {}}}, "dtype": {"type": "DT_INT32"}}}, {"name": "concat_1/axis", "op": "Const", "attr": {"value": {"tensor": {"dtype": "DT_INT32", "tensorShape": {}}}, "dtype": {"type": "DT_INT32"}}}, {"name": "Postprocessor/Slice/begin", "op": "Const", "attr": {"value": {"tensor": {"dtype": "DT_INT32", "tensorShape": {"dim": [{"size": "3"}]}}}, "dtype": {"type": "DT_INT32"}}}, {"name": "Postprocessor/Slice/size", "op": "Const", "attr": {"value": {"tensor": {"dtype": "DT_INT32", "tensorShape": {"dim": [{"size": "3"}]}}}, "dtype": {"type": "DT_INT32"}}}, {"name": "image_tensor", "op": "Placeholder", "attr": {"dtype": {"type": "DT_UINT8"}, "shape": {"shape": {"dim": [{"size": "-1"}, {"size": "-1"}, {"size": "-1"}, {"size": "3"}]}}}}, {"name": "FeatureExtractor/MobilenetV3/Conv/Conv2D_weights", "op": "Const", "attr": {"dtype": {"type": "DT_FLOAT"}, "value": {"tensor": {"dtype": "DT_FLOAT", "tensorShape": {"dim": [{"size": "3"}, {"size": "3"}, {"size": "3"}, {"size": "16"}]}}}}}, {"name": "FeatureExtractor/MobilenetV3/Conv/Conv2D_bn_offset", "op": "Const", "attr": {"value": {"tensor": {"dtype": "DT_FLOAT", "tensorShape": {"dim": [{"size": "16"}]}}}, "dtype": {"type": "DT_FLOAT"}}}, {"name": "FeatureExtractor/MobilenetV3/expanded_conv/depthwise/depthwise_weights", "op": "Const", "attr": {"dtype": {"type": "DT_FLOAT"}, "value": {"tensor": {"dtype": "DT_FLOAT", "tensorShape": {"dim": [{"size": "3"}, {"size": "3"}, {"size": "16"}, {"size": "1"}]}}}}}, {"name": "FeatureExtractor/MobilenetV3/expanded_conv/depthwise/depthwise_bn_offset", "op": "Const", "attr": {"dtype": {"type": "DT_FLOAT"}, "value": {"tensor": {"dtype": "DT_FLOAT", "tensorShape": {"dim": [{"size": "16"}]}}}}}, {"name": "FeatureExtractor/MobilenetV3/layer_13_2_Conv2d_5_3x3_s2_128_depthwise/depthwise_weights", "op": "Const", "attr": {"dtype": {"type": "DT_FLOAT"}, "value": {"tensor": {"dtype": "DT_FLOAT", "tensorShape": {"dim": [{"size": "3"}, {"size": "3"}, {"size": "64"}, {"size": "1"}]}}}}}, {"name": "FeatureExtractor/MobilenetV3/layer_13_2_Conv2d_5_3x3_s2_128_depthwise/depthwise_bn_offset", "op": "Const", "attr": {"dtype": {"type": "DT_FLOAT"}, "value": {"tensor": {"dtype": "DT_FLOAT", "tensorShape": {"dim": [{"size": "64"}]}}}}}, {"name": "FeatureExtractor/MobilenetV3/expanded_conv/project/Conv2D_weights", "op": "Const", "attr": {"value": {"tensor": {"dtype": "DT_FLOAT", "tensorShape": {"dim": [{"size": "1"}, {"size": "1"}, {"size": "16"}, {"size": "16"}]}}}, "dtype": {"type": "DT_FLOAT"}}}, {"name": "FeatureExtractor/MobilenetV3/expanded_conv/project/Conv2D_bn_offset", "op": "Const", "attr": {"value": {"tensor": {"dtype": "DT_FLOAT", "tensorShape": {"dim": [{"size": "16"}]}}}, "dtype": {"type": "DT_FLOAT"}}}, {"name": "FeatureExtractor/MobilenetV3/expanded_conv_1/expand/Conv2D_weights", "op": "Const", "attr": {"dtype": {"type": "DT_FLOAT"}, "value": {"tensor": {"dtype": "DT_FLOAT", "tensorShape": {"dim": [{"size": "1"}, {"size": "1"}, {"size": "16"}, {"size": "72"}]}}}}}, {"name": "FeatureExtractor/MobilenetV3/expanded_conv_1/expand/Conv2D_bn_offset", "op": "Const", "attr": {"dtype": {"type": "DT_FLOAT"}, "value": {"tensor": {"dtype": "DT_FLOAT", "tensorShape": {"dim": [{"size": "72"}]}}}}}, {"name": "FeatureExtractor/MobilenetV3/layer_13_2_Conv2d_5_3x3_s2_128/Conv2D_weights", "op": "Const", "attr": {"value": {"tensor": {"dtype": "DT_FLOAT", "tensorShape": {"dim": [{"size": "1"}, {"size": "1"}, {"size": "64"}, {"size": "128"}]}}}, "dtype": {"type": "DT_FLOAT"}}}, {"name": "FeatureExtractor/MobilenetV3/expanded_conv_1/depthwise/depthwise_weights", "op": "Const", "attr": {"value": {"tensor": {"dtype": "DT_FLOAT", "tensorShape": {"dim": [{"size": "3"}, {"size": "3"}, {"size": "72"}, {"size": "1"}]}}}, "dtype": {"type": "DT_FLOAT"}}}, {"name": "FeatureExtractor/MobilenetV3/expanded_conv_1/depthwise/depthwise_bn_offset", "op": "Const", "attr": {"value": {"tensor": {"dtype": "DT_FLOAT", "tensorShape": {"dim": [{"size": "72"}]}}}, "dtype": {"type": "DT_FLOAT"}}}, {"name": "FeatureExtractor/MobilenetV3/expanded_conv_1/project/Conv2D_weights", "op": "Const", "attr": {"value": {"tensor": {"dtype": "DT_FLOAT", "tensorShape": {"dim": [{"size": "1"}, {"size": "1"}, {"size": "72"}, {"size": "24"}]}}}, "dtype": {"type": "DT_FLOAT"}}}, {"name": "FeatureExtractor/MobilenetV3/expanded_conv_1/project/Conv2D_bn_offset", "op": "Const", "attr": {"dtype": {"type": "DT_FLOAT"}, "value": {"tensor": {"dtype": "DT_FLOAT", "tensorShape": {"dim": [{"size": "24"}]}}}}}, {"name": "FeatureExtractor/MobilenetV3/expanded_conv_2/expand/Conv2D_weights", "op": "Const", "attr": {"dtype": {"type": "DT_FLOAT"}, "value": {"tensor": {"dtype": "DT_FLOAT", "tensorShape": {"dim": [{"size": "1"}, {"size": "1"}, {"size": "24"}, {"size": "88"}]}}}}}, {"name": "FeatureExtractor/MobilenetV3/layer_13_2_Conv2d_5_3x3_s2_128/Conv2D_bn_offset", "op": "Const", "attr": {"dtype": {"type": "DT_FLOAT"}, "value": {"tensor": {"dtype": "DT_FLOAT", "tensorShape": {"dim": [{"size": "128"}]}}}}}, {"name": "FeatureExtractor/MobilenetV3/expanded_conv_2/expand/Conv2D_bn_offset", "op": "Const", "attr": {"value": {"tensor": {"dtype": "DT_FLOAT", "tensorShape": {"dim": [{"size": "88"}]}}}, "dtype": {"type": "DT_FLOAT"}}}, {"name": "FeatureExtractor/MobilenetV3/expanded_conv_2/depthwise/depthwise_weights", "op": "Const", "attr": {"dtype": {"type": "DT_FLOAT"}, "value": {"tensor": {"dtype": "DT_FLOAT", "tensorShape": {"dim": [{"size": "3"}, {"size": "3"}, {"size": "88"}, {"size": "1"}]}}}}}, {"name": "FeatureExtractor/MobilenetV3/expanded_conv_2/depthwise/depthwise_bn_offset", "op": "Const", "attr": {"dtype": {"type": "DT_FLOAT"}, "value": {"tensor": {"dtype": "DT_FLOAT", "tensorShape": {"dim": [{"size": "88"}]}}}}}, {"name": "FeatureExtractor/MobilenetV3/expanded_conv_2/project/Conv2D_weights", "op": "Const", "attr": {"value": {"tensor": {"dtype": "DT_FLOAT", "tensorShape": {"dim": [{"size": "1"}, {"size": "1"}, {"size": "88"}, {"size": "24"}]}}}, "dtype": {"type": "DT_FLOAT"}}}, {"name": "FeatureExtractor/MobilenetV3/expanded_conv_2/project/Conv2D_bn_offset", "op": "Const", "attr": {"dtype": {"type": "DT_FLOAT"}, "value": {"tensor": {"dtype": "DT_FLOAT", "tensorShape": {"dim": [{"size": "24"}]}}}}}, {"name": "FeatureExtractor/MobilenetV3/expanded_conv_3/expand/Conv2D_weights", "op": "Const", "attr": {"value": {"tensor": {"dtype": "DT_FLOAT", "tensorShape": {"dim": [{"size": "1"}, {"size": "1"}, {"size": "24"}, {"size": "96"}]}}}, "dtype": {"type": "DT_FLOAT"}}}, {"name": "FeatureExtractor/MobilenetV3/expanded_conv_3/expand/Conv2D_bn_offset", "op": "Const", "attr": {"value": {"tensor": {"dtype": "DT_FLOAT", "tensorShape": {"dim": [{"size": "96"}]}}}, "dtype": {"type": "DT_FLOAT"}}}, {"name": "FeatureExtractor/MobilenetV3/expanded_conv_3/depthwise/depthwise_weights", "op": "Const", "attr": {"dtype": {"type": "DT_FLOAT"}, "value": {"tensor": {"dtype": "DT_FLOAT", "tensorShape": {"dim": [{"size": "5"}, {"size": "5"}, {"size": "96"}, {"size": "1"}]}}}}}, {"name": "FeatureExtractor/MobilenetV3/expanded_conv_3/depthwise/depthwise_bn_offset", "op": "Const", "attr": {"value": {"tensor": {"dtype": "DT_FLOAT", "tensorShape": {"dim": [{"size": "96"}]}}}, "dtype": {"type": "DT_FLOAT"}}}, {"name": "FeatureExtractor/MobilenetV3/expanded_conv_3/project/Conv2D_weights", "op": "Const", "attr": {"value": {"tensor": {"dtype": "DT_FLOAT", "tensorShape": {"dim": [{"size": "1"}, {"size": "1"}, {"size": "96"}, {"size": "40"}]}}}, "dtype": {"type": "DT_FLOAT"}}}, {"name": "FeatureExtractor/MobilenetV3/expanded_conv_3/project/Conv2D_bn_offset", "op": "Const", "attr": {"dtype": {"type": "DT_FLOAT"}, "value": {"tensor": {"dtype": "DT_FLOAT", "tensorShape": {"dim": [{"size": "40"}]}}}}}, {"name": "FeatureExtractor/MobilenetV3/expanded_conv_4/expand/Conv2D_weights", "op": "Const", "attr": {"value": {"tensor": {"dtype": "DT_FLOAT", "tensorShape": {"dim": [{"size": "1"}, {"size": "1"}, {"size": "40"}, {"size": "240"}]}}}, "dtype": {"type": "DT_FLOAT"}}}, {"name": "FeatureExtractor/MobilenetV3/expanded_conv_4/expand/Conv2D_bn_offset", "op": "Const", "attr": {"value": {"tensor": {"dtype": "DT_FLOAT", "tensorShape": {"dim": [{"size": "240"}]}}}, "dtype": {"type": "DT_FLOAT"}}}, {"name": "FeatureExtractor/MobilenetV3/expanded_conv_4/depthwise/depthwise_weights", "op": "Const", "attr": {"dtype": {"type": "DT_FLOAT"}, "value": {"tensor": {"dtype": "DT_FLOAT", "tensorShape": {"dim": [{"size": "5"}, {"size": "5"}, {"size": "240"}, {"size": "1"}]}}}}}, {"name": "FeatureExtractor/MobilenetV3/expanded_conv_4/depthwise/depthwise_bn_offset", "op": "Const", "attr": {"dtype": {"type": "DT_FLOAT"}, "value": {"tensor": {"dtype": "DT_FLOAT", "tensorShape": {"dim": [{"size": "240"}]}}}}}, {"name": "BoxPredictor_5/BoxEncodingPredictor_depthwise/depthwise_weights", "op": "Const", "attr": {"value": {"tensor": {"dtype": "DT_FLOAT", "tensorShape": {"dim": [{"size": "3"}, {"size": "3"}, {"size": "128"}, {"size": "1"}]}}}, "dtype": {"type": "DT_FLOAT"}}}, {"name": "BoxPredictor_5/BoxEncodingPredictor_depthwise/depthwise_bn_offset", "op": "Const", "attr": {"dtype": {"type": "DT_FLOAT"}, "value": {"tensor": {"dtype": "DT_FLOAT", "tensorShape": {"dim": [{"size": "128"}]}}}}}, {"name": "FeatureExtractor/MobilenetV3/expanded_conv_4/project/Conv2D_weights", "op": "Const", "attr": {"value": {"tensor": {"dtype": "DT_FLOAT", "tensorShape": {"dim": [{"size": "1"}, {"size": "1"}, {"size": "240"}, {"size": "40"}]}}}, "dtype": {"type": "DT_FLOAT"}}}, {"name": "FeatureExtractor/MobilenetV3/expanded_conv_4/project/Conv2D_bn_offset", "op": "Const", "attr": {"dtype": {"type": "DT_FLOAT"}, "value": {"tensor": {"dtype": "DT_FLOAT", "tensorShape": {"dim": [{"size": "40"}]}}}}}, {"name": "FeatureExtractor/MobilenetV3/expanded_conv_5/expand/Conv2D_weights", "op": "Const", "attr": {"dtype": {"type": "DT_FLOAT"}, "value": {"tensor": {"dtype": "DT_FLOAT", "tensorShape": {"dim": [{"size": "1"}, {"size": "1"}, {"size": "40"}, {"size": "240"}]}}}}}, {"name": "FeatureExtractor/MobilenetV3/expanded_conv_5/expand/Conv2D_bn_offset", "op": "Const", "attr": {"dtype": {"type": "DT_FLOAT"}, "value": {"tensor": {"dtype": "DT_FLOAT", "tensorShape": {"dim": [{"size": "240"}]}}}}}, {"name": "FeatureExtractor/MobilenetV3/expanded_conv_5/depthwise/depthwise_weights", "op": "Const", "attr": {"dtype": {"type": "DT_FLOAT"}, "value": {"tensor": {"dtype": "DT_FLOAT", "tensorShape": {"dim": [{"size": "5"}, {"size": "5"}, {"size": "240"}, {"size": "1"}]}}}}}, {"name": "FeatureExtractor/MobilenetV3/expanded_conv_5/depthwise/depthwise_bn_offset", "op": "Const", "attr": {"dtype": {"type": "DT_FLOAT"}, "value": {"tensor": {"dtype": "DT_FLOAT", "tensorShape": {"dim": [{"size": "240"}]}}}}}, {"name": "FeatureExtractor/MobilenetV3/expanded_conv_5/project/Conv2D_weights", "op": "Const", "attr": {"value": {"tensor": {"dtype": "DT_FLOAT", "tensorShape": {"dim": [{"size": "1"}, {"size": "1"}, {"size": "240"}, {"size": "40"}]}}}, "dtype": {"type": "DT_FLOAT"}}}, {"name": "FeatureExtractor/MobilenetV3/expanded_conv_5/project/Conv2D_bn_offset", "op": "Const", "attr": {"dtype": {"type": "DT_FLOAT"}, "value": {"tensor": {"dtype": "DT_FLOAT", "tensorShape": {"dim": [{"size": "40"}]}}}}}, {"name": "FeatureExtractor/MobilenetV3/expanded_conv_6/expand/Conv2D_weights", "op": "Const", "attr": {"dtype": {"type": "DT_FLOAT"}, "value": {"tensor": {"dtype": "DT_FLOAT", "tensorShape": {"dim": [{"size": "1"}, {"size": "1"}, {"size": "40"}, {"size": "120"}]}}}}}, {"name": "FeatureExtractor/MobilenetV3/expanded_conv_6/expand/Conv2D_bn_offset", "op": "Const", "attr": {"dtype": {"type": "DT_FLOAT"}, "value": {"tensor": {"dtype": "DT_FLOAT", "tensorShape": {"dim": [{"size": "120"}]}}}}}, {"name": "FeatureExtractor/MobilenetV3/expanded_conv_6/depthwise/depthwise_weights", "op": "Const", "attr": {"value": {"tensor": {"dtype": "DT_FLOAT", "tensorShape": {"dim": [{"size": "5"}, {"size": "5"}, {"size": "120"}, {"size": "1"}]}}}, "dtype": {"type": "DT_FLOAT"}}}, {"name": "FeatureExtractor/MobilenetV3/expanded_conv_6/depthwise/depthwise_bn_offset", "op": "Const", "attr": {"dtype": {"type": "DT_FLOAT"}, "value": {"tensor": {"dtype": "DT_FLOAT", "tensorShape": {"dim": [{"size": "120"}]}}}}}, {"name": "FeatureExtractor/MobilenetV3/expanded_conv_6/project/Conv2D_weights", "op": "Const", "attr": {"value": {"tensor": {"dtype": "DT_FLOAT", "tensorShape": {"dim": [{"size": "1"}, {"size": "1"}, {"size": "120"}, {"size": "48"}]}}}, "dtype": {"type": "DT_FLOAT"}}}, {"name": "FeatureExtractor/MobilenetV3/expanded_conv_6/project/Conv2D_bn_offset", "op": "Const", "attr": {"value": {"tensor": {"dtype": "DT_FLOAT", "tensorShape": {"dim": [{"size": "48"}]}}}, "dtype": {"type": "DT_FLOAT"}}}, {"name": "FeatureExtractor/MobilenetV3/expanded_conv_7/expand/Conv2D_weights", "op": "Const", "attr": {"value": {"tensor": {"dtype": "DT_FLOAT", "tensorShape": {"dim": [{"size": "1"}, {"size": "1"}, {"size": "48"}, {"size": "144"}]}}}, "dtype": {"type": "DT_FLOAT"}}}, {"name": "FeatureExtractor/MobilenetV3/expanded_conv_7/expand/Conv2D_bn_offset", "op": "Const", "attr": {"value": {"tensor": {"dtype": "DT_FLOAT", "tensorShape": {"dim": [{"size": "144"}]}}}, "dtype": {"type": "DT_FLOAT"}}}, {"name": "FeatureExtractor/MobilenetV3/expanded_conv_7/depthwise/depthwise_weights", "op": "Const", "attr": {"value": {"tensor": {"dtype": "DT_FLOAT", "tensorShape": {"dim": [{"size": "5"}, {"size": "5"}, {"size": "144"}, {"size": "1"}]}}}, "dtype": {"type": "DT_FLOAT"}}}, {"name": "FeatureExtractor/MobilenetV3/expanded_conv_7/depthwise/depthwise_bn_offset", "op": "Const", "attr": {"value": {"tensor": {"dtype": "DT_FLOAT", "tensorShape": {"dim": [{"size": "144"}]}}}, "dtype": {"type": "DT_FLOAT"}}}, {"name": "FeatureExtractor/MobilenetV3/expanded_conv_7/project/Conv2D_weights", "op": "Const", "attr": {"value": {"tensor": {"dtype": "DT_FLOAT", "tensorShape": {"dim": [{"size": "1"}, {"size": "1"}, {"size": "144"}, {"size": "48"}]}}}, "dtype": {"type": "DT_FLOAT"}}}, {"name": "FeatureExtractor/MobilenetV3/expanded_conv_7/project/Conv2D_bn_offset", "op": "Const", "attr": {"dtype": {"type": "DT_FLOAT"}, "value": {"tensor": {"dtype": "DT_FLOAT", "tensorShape": {"dim": [{"size": "48"}]}}}}}, {"name": "FeatureExtractor/MobilenetV3/expanded_conv_8/expand/Conv2D_weights", "op": "Const", "attr": {"value": {"tensor": {"dtype": "DT_FLOAT", "tensorShape": {"dim": [{"size": "1"}, {"size": "1"}, {"size": "48"}, {"size": "288"}]}}}, "dtype": {"type": "DT_FLOAT"}}}, {"name": "FeatureExtractor/MobilenetV3/expanded_conv_8/expand/Conv2D_bn_offset", "op": "Const", "attr": {"value": {"tensor": {"dtype": "DT_FLOAT", "tensorShape": {"dim": [{"size": "288"}]}}}, "dtype": {"type": "DT_FLOAT"}}}, {"name": "BoxPredictor_0/BoxEncodingPredictor_depthwise/depthwise_weights", "op": "Const", "attr": {"value": {"tensor": {"dtype": "DT_FLOAT", "tensorShape": {"dim": [{"size": "3"}, {"size": "3"}, {"size": "288"}, {"size": "1"}]}}}, "dtype": {"type": "DT_FLOAT"}}}, {"name": "BoxPredictor_0/BoxEncodingPredictor_depthwise/depthwise_bn_offset", "op": "Const", "attr": {"dtype": {"type": "DT_FLOAT"}, "value": {"tensor": {"dtype": "DT_FLOAT", "tensorShape": {"dim": [{"size": "288"}]}}}}}, {"name": "BoxPredictor_0/ClassPredictor_depthwise/depthwise_weights", "op": "Const", "attr": {"dtype": {"type": "DT_FLOAT"}, "value": {"tensor": {"dtype": "DT_FLOAT", "tensorShape": {"dim": [{"size": "3"}, {"size": "3"}, {"size": "288"}, {"size": "1"}]}}}}}, {"name": "BoxPredictor_0/ClassPredictor_depthwise/depthwise_bn_offset", "op": "Const", "attr": {"value": {"tensor": {"dtype": "DT_FLOAT", "tensorShape": {"dim": [{"size": "288"}]}}}, "dtype": {"type": "DT_FLOAT"}}}, {"name": "FeatureExtractor/MobilenetV3/expanded_conv_8/depthwise/depthwise_weights", "op": "Const", "attr": {"value": {"tensor": {"dtype": "DT_FLOAT", "tensorShape": {"dim": [{"size": "5"}, {"size": "5"}, {"size": "288"}, {"size": "1"}]}}}, "dtype": {"type": "DT_FLOAT"}}}, {"name": "FeatureExtractor/MobilenetV3/expanded_conv_8/depthwise/depthwise_bn_offset", "op": "Const", "attr": {"dtype": {"type": "DT_FLOAT"}, "value": {"tensor": {"dtype": "DT_FLOAT", "tensorShape": {"dim": [{"size": "288"}]}}}}}, {"name": "FeatureExtractor/MobilenetV3/expanded_conv_8/project/Conv2D_weights", "op": "Const", "attr": {"dtype": {"type": "DT_FLOAT"}, "value": {"tensor": {"dtype": "DT_FLOAT", "tensorShape": {"dim": [{"size": "1"}, {"size": "1"}, {"size": "288"}, {"size": "48"}]}}}}}, {"name": "FeatureExtractor/MobilenetV3/expanded_conv_8/project/Conv2D_bn_offset", "op": "Const", "attr": {"dtype": {"type": "DT_FLOAT"}, "value": {"tensor": {"dtype": "DT_FLOAT", "tensorShape": {"dim": [{"size": "48"}]}}}}}, {"name": "FeatureExtractor/MobilenetV3/expanded_conv_9/expand/Conv2D_weights", "op": "Const", "attr": {"value": {"tensor": {"dtype": "DT_FLOAT", "tensorShape": {"dim": [{"size": "1"}, {"size": "1"}, {"size": "48"}, {"size": "288"}]}}}, "dtype": {"type": "DT_FLOAT"}}}, {"name": "FeatureExtractor/MobilenetV3/expanded_conv_9/expand/Conv2D_bn_offset", "op": "Const", "attr": {"value": {"tensor": {"dtype": "DT_FLOAT", "tensorShape": {"dim": [{"size": "288"}]}}}, "dtype": {"type": "DT_FLOAT"}}}, {"name": "FeatureExtractor/MobilenetV3/expanded_conv_9/depthwise/depthwise_weights", "op": "Const", "attr": {"dtype": {"type": "DT_FLOAT"}, "value": {"tensor": {"dtype": "DT_FLOAT", "tensorShape": {"dim": [{"size": "5"}, {"size": "5"}, {"size": "288"}, {"size": "1"}]}}}}}, {"name": "FeatureExtractor/MobilenetV3/expanded_conv_9/depthwise/depthwise_bn_offset", "op": "Const", "attr": {"dtype": {"type": "DT_FLOAT"}, "value": {"tensor": {"dtype": "DT_FLOAT", "tensorShape": {"dim": [{"size": "288"}]}}}}}, {"name": "FeatureExtractor/MobilenetV3/expanded_conv_9/project/Conv2D_weights", "op": "Const", "attr": {"dtype": {"type": "DT_FLOAT"}, "value": {"tensor": {"dtype": "DT_FLOAT", "tensorShape": {"dim": [{"size": "1"}, {"size": "1"}, {"size": "288"}, {"size": "48"}]}}}}}, {"name": "FeatureExtractor/MobilenetV3/expanded_conv_9/project/Conv2D_bn_offset", "op": "Const", "attr": {"dtype": {"type": "DT_FLOAT"}, "value": {"tensor": {"dtype": "DT_FLOAT", "tensorShape": {"dim": [{"size": "48"}]}}}}}, {"name": "FeatureExtractor/MobilenetV3/expanded_conv_10/expand/Conv2D_weights", "op": "Const", "attr": {"value": {"tensor": {"dtype": "DT_FLOAT", "tensorShape": {"dim": [{"size": "1"}, {"size": "1"}, {"size": "48"}, {"size": "288"}]}}}, "dtype": {"type": "DT_FLOAT"}}}, {"name": "FeatureExtractor/MobilenetV3/expanded_conv_10/expand/Conv2D_bn_offset", "op": "Const", "attr": {"value": {"tensor": {"dtype": "DT_FLOAT", "tensorShape": {"dim": [{"size": "288"}]}}}, "dtype": {"type": "DT_FLOAT"}}}, {"name": "FeatureExtractor/MobilenetV3/expanded_conv_10/depthwise/depthwise_weights", "op": "Const", "attr": {"dtype": {"type": "DT_FLOAT"}, "value": {"tensor": {"dtype": "DT_FLOAT", "tensorShape": {"dim": [{"size": "5"}, {"size": "5"}, {"size": "288"}, {"size": "1"}]}}}}}, {"name": "FeatureExtractor/MobilenetV3/expanded_conv_10/depthwise/depthwise_bn_offset", "op": "Const", "attr": {"value": {"tensor": {"dtype": "DT_FLOAT", "tensorShape": {"dim": [{"size": "288"}]}}}, "dtype": {"type": "DT_FLOAT"}}}, {"name": "FeatureExtractor/MobilenetV3/expanded_conv_10/project/Conv2D_weights", "op": "Const", "attr": {"value": {"tensor": {"dtype": "DT_FLOAT", "tensorShape": {"dim": [{"size": "1"}, {"size": "1"}, {"size": "288"}, {"size": "48"}]}}}, "dtype": {"type": "DT_FLOAT"}}}, {"name": "FeatureExtractor/MobilenetV3/expanded_conv_10/project/Conv2D_bn_offset", "op": "Const", "attr": {"dtype": {"type": "DT_FLOAT"}, "value": {"tensor": {"dtype": "DT_FLOAT", "tensorShape": {"dim": [{"size": "48"}]}}}}}, {"name": "FeatureExtractor/MobilenetV3/Conv_1/Conv2D_weights", "op": "Const", "attr": {"dtype": {"type": "DT_FLOAT"}, "value": {"tensor": {"dtype": "DT_FLOAT", "tensorShape": {"dim": [{"size": "1"}, {"size": "1"}, {"size": "48"}, {"size": "288"}]}}}}}, {"name": "FeatureExtractor/MobilenetV3/Conv_1/Conv2D_bn_offset", "op": "Const", "attr": {"value": {"tensor": {"dtype": "DT_FLOAT", "tensorShape": {"dim": [{"size": "288"}]}}}, "dtype": {"type": "DT_FLOAT"}}}, {"name": "BoxPredictor_1/BoxEncodingPredictor_depthwise/depthwise_weights", "op": "Const", "attr": {"dtype": {"type": "DT_FLOAT"}, "value": {"tensor": {"dtype": "DT_FLOAT", "tensorShape": {"dim": [{"size": "3"}, {"size": "3"}, {"size": "288"}, {"size": "1"}]}}}}}, {"name": "BoxPredictor_1/BoxEncodingPredictor_depthwise/depthwise_bn_offset", "op": "Const", "attr": {"value": {"tensor": {"dtype": "DT_FLOAT", "tensorShape": {"dim": [{"size": "288"}]}}}, "dtype": {"type": "DT_FLOAT"}}}, {"name": "BoxPredictor_1/ClassPredictor_depthwise/depthwise_weights", "op": "Const", "attr": {"dtype": {"type": "DT_FLOAT"}, "value": {"tensor": {"dtype": "DT_FLOAT", "tensorShape": {"dim": [{"size": "3"}, {"size": "3"}, {"size": "288"}, {"size": "1"}]}}}}}, {"name": "BoxPredictor_1/ClassPredictor_depthwise/depthwise_bn_offset", "op": "Const", "attr": {"value": {"tensor": {"dtype": "DT_FLOAT", "tensorShape": {"dim": [{"size": "288"}]}}}, "dtype": {"type": "DT_FLOAT"}}}, {"name": "FeatureExtractor/MobilenetV3/layer_13_1_Conv2d_2_1x1_256/Conv2D_weights", "op": "Const", "attr": {"dtype": {"type": "DT_FLOAT"}, "value": {"tensor": {"dtype": "DT_FLOAT", "tensorShape": {"dim": [{"size": "1"}, {"size": "1"}, {"size": "288"}, {"size": "256"}]}}}}}, {"name": "FeatureExtractor/MobilenetV3/layer_13_1_Conv2d_2_1x1_256/Conv2D_bn_offset", "op": "Const", "attr": {"value": {"tensor": {"dtype": "DT_FLOAT", "tensorShape": {"dim": [{"size": "256"}]}}}, "dtype": {"type": "DT_FLOAT"}}}, {"name": "FeatureExtractor/MobilenetV3/layer_13_2_Conv2d_2_3x3_s2_512_depthwise/depthwise_weights", "op": "Const", "attr": {"value": {"tensor": {"dtype": "DT_FLOAT", "tensorShape": {"dim": [{"size": "3"}, {"size": "3"}, {"size": "256"}, {"size": "1"}]}}}, "dtype": {"type": "DT_FLOAT"}}}, {"name": "FeatureExtractor/MobilenetV3/layer_13_2_Conv2d_2_3x3_s2_512_depthwise/depthwise_bn_offset", "op": "Const", "attr": {"dtype": {"type": "DT_FLOAT"}, "value": {"tensor": {"dtype": "DT_FLOAT", "tensorShape": {"dim": [{"size": "256"}]}}}}}, {"name": "FeatureExtractor/MobilenetV3/layer_13_2_Conv2d_2_3x3_s2_512/Conv2D_weights", "op": "Const", "attr": {"value": {"tensor": {"dtype": "DT_FLOAT", "tensorShape": {"dim": [{"size": "1"}, {"size": "1"}, {"size": "256"}, {"size": "512"}]}}}, "dtype": {"type": "DT_FLOAT"}}}, {"name": "FeatureExtractor/MobilenetV3/layer_13_2_Conv2d_2_3x3_s2_512/Conv2D_bn_offset", "op": "Const", "attr": {"dtype": {"type": "DT_FLOAT"}, "value": {"tensor": {"dtype": "DT_FLOAT", "tensorShape": {"dim": [{"size": "512"}]}}}}}, {"name": "BoxPredictor_2/BoxEncodingPredictor_depthwise/depthwise_weights", "op": "Const", "attr": {"value": {"tensor": {"dtype": "DT_FLOAT", "tensorShape": {"dim": [{"size": "3"}, {"size": "3"}, {"size": "512"}, {"size": "1"}]}}}, "dtype": {"type": "DT_FLOAT"}}}, {"name": "BoxPredictor_2/BoxEncodingPredictor_depthwise/depthwise_bn_offset", "op": "Const", "attr": {"dtype": {"type": "DT_FLOAT"}, "value": {"tensor": {"dtype": "DT_FLOAT", "tensorShape": {"dim": [{"size": "512"}]}}}}}, {"name": "BoxPredictor_2/ClassPredictor_depthwise/depthwise_weights", "op": "Const", "attr": {"value": {"tensor": {"dtype": "DT_FLOAT", "tensorShape": {"dim": [{"size": "3"}, {"size": "3"}, {"size": "512"}, {"size": "1"}]}}}, "dtype": {"type": "DT_FLOAT"}}}, {"name": "BoxPredictor_2/ClassPredictor_depthwise/depthwise_bn_offset", "op": "Const", "attr": {"dtype": {"type": "DT_FLOAT"}, "value": {"tensor": {"dtype": "DT_FLOAT", "tensorShape": {"dim": [{"size": "512"}]}}}}}, {"name": "FeatureExtractor/MobilenetV3/layer_13_1_Conv2d_3_1x1_128/Conv2D_weights", "op": "Const", "attr": {"dtype": {"type": "DT_FLOAT"}, "value": {"tensor": {"dtype": "DT_FLOAT", "tensorShape": {"dim": [{"size": "1"}, {"size": "1"}, {"size": "512"}, {"size": "128"}]}}}}}, {"name": "FeatureExtractor/MobilenetV3/layer_13_1_Conv2d_3_1x1_128/Conv2D_bn_offset", "op": "Const", "attr": {"value": {"tensor": {"dtype": "DT_FLOAT", "tensorShape": {"dim": [{"size": "128"}]}}}, "dtype": {"type": "DT_FLOAT"}}}, {"name": "FeatureExtractor/MobilenetV3/layer_13_2_Conv2d_3_3x3_s2_256_depthwise/depthwise_weights", "op": "Const", "attr": {"value": {"tensor": {"dtype": "DT_FLOAT", "tensorShape": {"dim": [{"size": "3"}, {"size": "3"}, {"size": "128"}, {"size": "1"}]}}}, "dtype": {"type": "DT_FLOAT"}}}, {"name": "FeatureExtractor/MobilenetV3/layer_13_2_Conv2d_3_3x3_s2_256_depthwise/depthwise_bn_offset", "op": "Const", "attr": {"value": {"tensor": {"dtype": "DT_FLOAT", "tensorShape": {"dim": [{"size": "128"}]}}}, "dtype": {"type": "DT_FLOAT"}}}, {"name": "FeatureExtractor/MobilenetV3/layer_13_2_Conv2d_3_3x3_s2_256/Conv2D_weights", "op": "Const", "attr": {"value": {"tensor": {"dtype": "DT_FLOAT", "tensorShape": {"dim": [{"size": "1"}, {"size": "1"}, {"size": "128"}, {"size": "256"}]}}}, "dtype": {"type": "DT_FLOAT"}}}, {"name": "FeatureExtractor/MobilenetV3/layer_13_2_Conv2d_3_3x3_s2_256/Conv2D_bn_offset", "op": "Const", "attr": {"value": {"tensor": {"dtype": "DT_FLOAT", "tensorShape": {"dim": [{"size": "256"}]}}}, "dtype": {"type": "DT_FLOAT"}}}, {"name": "BoxPredictor_3/BoxEncodingPredictor_depthwise/depthwise_weights", "op": "Const", "attr": {"dtype": {"type": "DT_FLOAT"}, "value": {"tensor": {"dtype": "DT_FLOAT", "tensorShape": {"dim": [{"size": "3"}, {"size": "3"}, {"size": "256"}, {"size": "1"}]}}}}}, {"name": "BoxPredictor_3/BoxEncodingPredictor_depthwise/depthwise_bn_offset", "op": "Const", "attr": {"dtype": {"type": "DT_FLOAT"}, "value": {"tensor": {"dtype": "DT_FLOAT", "tensorShape": {"dim": [{"size": "256"}]}}}}}, {"name": "BoxPredictor_3/ClassPredictor_depthwise/depthwise_weights", "op": "Const", "attr": {"dtype": {"type": "DT_FLOAT"}, "value": {"tensor": {"dtype": "DT_FLOAT", "tensorShape": {"dim": [{"size": "3"}, {"size": "3"}, {"size": "256"}, {"size": "1"}]}}}}}, {"name": "BoxPredictor_3/ClassPredictor_depthwise/depthwise_bn_offset", "op": "Const", "attr": {"value": {"tensor": {"dtype": "DT_FLOAT", "tensorShape": {"dim": [{"size": "256"}]}}}, "dtype": {"type": "DT_FLOAT"}}}, {"name": "FeatureExtractor/MobilenetV3/layer_13_1_Conv2d_4_1x1_128/Conv2D_weights", "op": "Const", "attr": {"dtype": {"type": "DT_FLOAT"}, "value": {"tensor": {"dtype": "DT_FLOAT", "tensorShape": {"dim": [{"size": "1"}, {"size": "1"}, {"size": "256"}, {"size": "128"}]}}}}}, {"name": "FeatureExtractor/MobilenetV3/layer_13_1_Conv2d_4_1x1_128/Conv2D_bn_offset", "op": "Const", "attr": {"value": {"tensor": {"dtype": "DT_FLOAT", "tensorShape": {"dim": [{"size": "128"}]}}}, "dtype": {"type": "DT_FLOAT"}}}, {"name": "BoxPredictor_5/ClassPredictor_depthwise/depthwise_weights", "op": "Const", "attr": {"dtype": {"type": "DT_FLOAT"}, "value": {"tensor": {"dtype": "DT_FLOAT", "tensorShape": {"dim": [{"size": "3"}, {"size": "3"}, {"size": "128"}, {"size": "1"}]}}}}}, {"name": "FeatureExtractor/MobilenetV3/layer_13_2_Conv2d_4_3x3_s2_256_depthwise/depthwise_weights", "op": "Const", "attr": {"value": {"tensor": {"dtype": "DT_FLOAT", "tensorShape": {"dim": [{"size": "3"}, {"size": "3"}, {"size": "128"}, {"size": "1"}]}}}, "dtype": {"type": "DT_FLOAT"}}}, {"name": "FeatureExtractor/MobilenetV3/layer_13_2_Conv2d_4_3x3_s2_256_depthwise/depthwise_bn_offset", "op": "Const", "attr": {"dtype": {"type": "DT_FLOAT"}, "value": {"tensor": {"dtype": "DT_FLOAT", "tensorShape": {"dim": [{"size": "128"}]}}}}}, {"name": "FeatureExtractor/MobilenetV3/layer_13_2_Conv2d_4_3x3_s2_256/Conv2D_weights", "op": "Const", "attr": {"value": {"tensor": {"dtype": "DT_FLOAT", "tensorShape": {"dim": [{"size": "1"}, {"size": "1"}, {"size": "128"}, {"size": "256"}]}}}, "dtype": {"type": "DT_FLOAT"}}}, {"name": "FeatureExtractor/MobilenetV3/layer_13_2_Conv2d_4_3x3_s2_256/Conv2D_bn_offset", "op": "Const", "attr": {"value": {"tensor": {"dtype": "DT_FLOAT", "tensorShape": {"dim": [{"size": "256"}]}}}, "dtype": {"type": "DT_FLOAT"}}}, {"name": "BoxPredictor_5/ClassPredictor_depthwise/depthwise_bn_offset", "op": "Const", "attr": {"dtype": {"type": "DT_FLOAT"}, "value": {"tensor": {"dtype": "DT_FLOAT", "tensorShape": {"dim": [{"size": "128"}]}}}}}, {"name": "BoxPredictor_4/BoxEncodingPredictor_depthwise/depthwise_weights", "op": "Const", "attr": {"dtype": {"type": "DT_FLOAT"}, "value": {"tensor": {"dtype": "DT_FLOAT", "tensorShape": {"dim": [{"size": "3"}, {"size": "3"}, {"size": "256"}, {"size": "1"}]}}}}}, {"name": "BoxPredictor_4/BoxEncodingPredictor_depthwise/depthwise_bn_offset", "op": "Const", "attr": {"dtype": {"type": "DT_FLOAT"}, "value": {"tensor": {"dtype": "DT_FLOAT", "tensorShape": {"dim": [{"size": "256"}]}}}}}, {"name": "BoxPredictor_4/ClassPredictor_depthwise/depthwise_weights", "op": "Const", "attr": {"value": {"tensor": {"dtype": "DT_FLOAT", "tensorShape": {"dim": [{"size": "3"}, {"size": "3"}, {"size": "256"}, {"size": "1"}]}}}, "dtype": {"type": "DT_FLOAT"}}}, {"name": "BoxPredictor_4/ClassPredictor_depthwise/depthwise_bn_offset", "op": "Const", "attr": {"value": {"tensor": {"dtype": "DT_FLOAT", "tensorShape": {"dim": [{"size": "256"}]}}}, "dtype": {"type": "DT_FLOAT"}}}, {"name": "FeatureExtractor/MobilenetV3/layer_13_1_Conv2d_5_1x1_64/Conv2D_weights", "op": "Const", "attr": {"dtype": {"type": "DT_FLOAT"}, "value": {"tensor": {"dtype": "DT_FLOAT", "tensorShape": {"dim": [{"size": "1"}, {"size": "1"}, {"size": "256"}, {"size": "64"}]}}}}}, {"name": "FeatureExtractor/MobilenetV3/layer_13_1_Conv2d_5_1x1_64/Conv2D_bn_offset", "op": "Const", "attr": {"dtype": {"type": "DT_FLOAT"}, "value": {"tensor": {"dtype": "DT_FLOAT", "tensorShape": {"dim": [{"size": "64"}]}}}}}, {"name": "Preprocessor/map/while/Enter_1", "op": "Enter", "input": ["Preprocessor/map/Const"], "attr": {"frame_name": {"s": "UHJlcHJvY2Vzc29yL21hcC93aGlsZS93aGlsZV9jb250ZXh0"}, "is_constant": {"b": false}, "parallel_iterations": {"i": "32"}, "T": {"type": "DT_INT32"}}}, {"name": "Preprocessor/map/while/Enter", "op": "Enter", "input": ["Preprocessor/map/while/iteration_counter"], "attr": {"parallel_iterations": {"i": "32"}, "is_constant": {"b": false}, "frame_name": {"s": "UHJlcHJvY2Vzc29yL21hcC93aGlsZS93aGlsZV9jb250ZXh0"}, "T": {"type": "DT_INT32"}}}, {"name": "Cast", "op": "Cast", "input": ["image_tensor"], "attr": {"SrcT": {"type": "DT_UINT8"}, "DstT": {"type": "DT_FLOAT"}, "Truncate": {"b": false}}}, {"name": "Preprocessor/map/while/Merge_1", "op": "Merge", "input": ["Preprocessor/map/while/Enter_1", "Preprocessor/map/while/NextIteration_1"], "attr": {"N": {"i": "2"}, "T": {"type": "DT_INT32"}}}, {"name": "Preprocessor/map/while/Merge", "op": "Merge", "input": ["Preprocessor/map/while/Enter", "Preprocessor/map/while/NextIteration"], "attr": {"T": {"type": "DT_INT32"}, "N": {"i": "2"}}}, {"name": "Preprocessor/mul", "op": "Mul", "input": ["Preprocessor/mul/x", "Cast"], "attr": {"T": {"type": "DT_FLOAT"}}}, {"name": "Preprocessor/sub", "op": "Sub", "input": ["Preprocessor/mul", "Preprocessor/sub/y"], "attr": {"T": {"type": "DT_FLOAT"}}}, {"name": "Preprocessor/map/TensorArrayUnstack/Shape", "op": "Shape", "input": ["Preprocessor/sub"], "attr": {"T": {"type": "DT_FLOAT"}, "out_type": {"type": "DT_INT32"}}}, {"name": "Preprocessor/map/Shape", "op": "Shape", "input": ["Preprocessor/sub"], "attr": {"out_type": {"type": "DT_INT32"}, "T": {"type": "DT_FLOAT"}}}, {"name": "Preprocessor/map/TensorArrayUnstack/strided_slice", "op": "StridedSlice", "input": ["Preprocessor/map/TensorArrayUnstack/Shape", "Preprocessor/map/TensorArrayUnstack/strided_slice/stack", "Preprocessor/map/TensorArrayUnstack/strided_slice/stack_1", "Preprocessor/map/TensorArrayUnstack/strided_slice/stack_2"], "attr": {"new_axis_mask": {"i": "0"}, "shrink_axis_mask": {"i": "1"}, "T": {"type": "DT_INT32"}, "ellipsis_mask": {"i": "0"}, "end_mask": {"i": "0"}, "Index": {"type": "DT_INT32"}, "begin_mask": {"i": "0"}}}, {"name": "Preprocessor/map/strided_slice", "op": "StridedSlice", "input": ["Preprocessor/map/Shape", "Preprocessor/map/strided_slice/stack", "Preprocessor/map/strided_slice/stack_1", "Preprocessor/map/strided_slice/stack_2"], "attr": {"Index": {"type": "DT_INT32"}, "new_axis_mask": {"i": "0"}, "shrink_axis_mask": {"i": "1"}, "T": {"type": "DT_INT32"}, "ellipsis_mask": {"i": "0"}, "begin_mask": {"i": "0"}, "end_mask": {"i": "0"}}}, {"name": "Preprocessor/map/TensorArrayUnstack/range", "op": "Range", "input": ["Preprocessor/map/TensorArrayUnstack/range/start", "Preprocessor/map/TensorArrayUnstack/strided_slice", "Preprocessor/map/TensorArrayUnstack/range/delta"], "attr": {"Tidx": {"type": "DT_INT32"}}}, {"name": "Preprocessor/map/TensorArray_1", "op": "TensorArrayV3", "input": ["Preprocessor/map/strided_slice"], "attr": {"tensor_array_name": {"s": ""}, "element_shape": {"shape": {"unknownRank": true}}, "clear_after_read": {"b": true}, "dtype": {"type": "DT_FLOAT"}, "dynamic_size": {"b": false}, "identical_element_shapes": {"b": true}}}, {"name": "Preprocessor/map/TensorArray", "op": "TensorArrayV3", "input": ["Preprocessor/map/strided_slice"], "attr": {"dynamic_size": {"b": false}, "tensor_array_name": {"s": ""}, "dtype": {"type": "DT_FLOAT"}, "element_shape": {"shape": {"unknownRank": true}}, "identical_element_shapes": {"b": true}, "clear_after_read": {"b": true}}}, {"name": "Preprocessor/map/while/Less/Enter", "op": "Enter", "input": ["Preprocessor/map/strided_slice"], "attr": {"parallel_iterations": {"i": "32"}, "frame_name": {"s": "UHJlcHJvY2Vzc29yL21hcC93aGlsZS93aGlsZV9jb250ZXh0"}, "is_constant": {"b": true}, "T": {"type": "DT_INT32"}}}, {"name": "Preprocessor/map/while/TensorArrayWrite/TensorArrayWriteV3/Enter", "op": "Enter", "input": ["Preprocessor/map/TensorArray_1"], "attr": {"parallel_iterations": {"i": "32"}, "T": {"type": "DT_RESOURCE"}, "frame_name": {"s": "UHJlcHJvY2Vzc29yL21hcC93aGlsZS93aGlsZV9jb250ZXh0"}, "is_constant": {"b": true}}}, {"name": "Preprocessor/map/while/Enter_2", "op": "Enter", "input": ["Preprocessor/map/TensorArray_1:1"], "attr": {"T": {"type": "DT_FLOAT"}, "parallel_iterations": {"i": "32"}, "is_constant": {"b": false}, "frame_name": {"s": "UHJlcHJvY2Vzc29yL21hcC93aGlsZS93aGlsZV9jb250ZXh0"}}}, {"name": "Preprocessor/map/while/TensorArrayReadV3/Enter", "op": "Enter", "input": ["Preprocessor/map/TensorArray"], "attr": {"is_constant": {"b": true}, "T": {"type": "DT_RESOURCE"}, "parallel_iterations": {"i": "32"}, "frame_name": {"s": "UHJlcHJvY2Vzc29yL21hcC93aGlsZS93aGlsZV9jb250ZXh0"}}}, {"name": "Preprocessor/map/TensorArrayUnstack/TensorArrayScatter/TensorArrayScatterV3", "op": "TensorArrayScatterV3", "input": ["Preprocessor/map/TensorArray", "Preprocessor/map/TensorArrayUnstack/range", "Preprocessor/sub", "Preprocessor/map/TensorArray:1"], "attr": {"T": {"type": "DT_FLOAT"}}}, {"name": "Preprocessor/map/while/Less", "op": "Less", "input": ["Preprocessor/map/while/Merge", "Preprocessor/map/while/Less/Enter"], "attr": {"T": {"type": "DT_INT32"}}}, {"name": "Preprocessor/map/while/Less_1", "op": "Less", "input": ["Preprocessor/map/while/Merge_1", "Preprocessor/map/while/Less/Enter"], "attr": {"T": {"type": "DT_INT32"}}}, {"name": "Preprocessor/map/while/Merge_2", "op": "Merge", "input": ["Preprocessor/map/while/Enter_2", "Preprocessor/map/while/NextIteration_2"], "attr": {"N": {"i": "2"}, "T": {"type": "DT_FLOAT"}}}, {"name": "Preprocessor/map/while/TensorArrayReadV3/Enter_1", "op": "Enter", "input": ["Preprocessor/map/TensorArrayUnstack/TensorArrayScatter/TensorArrayScatterV3"], "attr": {"frame_name": {"s": "UHJlcHJvY2Vzc29yL21hcC93aGlsZS93aGlsZV9jb250ZXh0"}, "T": {"type": "DT_FLOAT"}, "parallel_iterations": {"i": "32"}, "is_constant": {"b": true}}}, {"name": "Preprocessor/map/while/LogicalAnd", "op": "LogicalAnd", "input": ["Preprocessor/map/while/Less", "Preprocessor/map/while/Less_1"]}, {"name": "Preprocessor/map/while/LoopCond", "op": "LoopCond", "input": ["Preprocessor/map/while/LogicalAnd"]}, {"name": "Preprocessor/map/while/Switch_1", "op": "Switch", "input": ["Preprocessor/map/while/Merge_1", "Preprocessor/map/while/LoopCond"], "attr": {"T": {"type": "DT_INT32"}}}, {"name": "Preprocessor/map/while/Switch", "op": "Switch", "input": ["Preprocessor/map/while/Merge", "Preprocessor/map/while/LoopCond"], "attr": {"T": {"type": "DT_INT32"}}}, {"name": "Preprocessor/map/while/Switch_2", "op": "Switch", "input": ["Preprocessor/map/while/Merge_2", "Preprocessor/map/while/LoopCond"], "attr": {"T": {"type": "DT_FLOAT"}}}, {"name": "Preprocessor/map/while/TensorArrayReadV3", "op": "TensorArrayReadV3", "input": ["Preprocessor/map/while/TensorArrayReadV3/Enter", "Preprocessor/map/while/Switch_1:1", "Preprocessor/map/while/TensorArrayReadV3/Enter_1"], "attr": {"dtype": {"type": "DT_FLOAT"}}}, {"name": "Preprocessor/map/while/Identity", "op": "Identity", "input": ["Preprocessor/map/while/Switch:1"], "attr": {"T": {"type": "DT_INT32"}}}, {"name": "Preprocessor/map/while/Exit_2", "op": "Exit", "input": ["Preprocessor/map/while/Switch_2"], "attr": {"T": {"type": "DT_FLOAT"}}}, {"name": "Preprocessor/map/while/ResizeImage/resize/ExpandDims/dim", "op": "Const", "input": ["^Preprocessor/map/while/Identity"], "attr": {"value": {"tensor": {"dtype": "DT_INT32", "tensorShape": {}}}, "dtype": {"type": "DT_INT32"}}}, {"name": "Preprocessor/map/while/ResizeImage/stack", "op": "Const", "input": ["^Preprocessor/map/while/Identity"], "attr": {"value": {"tensor": {"dtype": "DT_INT32", "tensorShape": {"dim": [{"size": "2"}]}}}, "dtype": {"type": "DT_INT32"}}}, {"name": "Preprocessor/map/while/add/y", "op": "Const", "input": ["^Preprocessor/map/while/Identity"], "attr": {"value": {"tensor": {"dtype": "DT_INT32", "tensorShape": {}}}, "dtype": {"type": "DT_INT32"}}}, {"name": "Preprocessor/map/while/add_1/y", "op": "Const", "input": ["^Preprocessor/map/while/Identity"], "attr": {"dtype": {"type": "DT_INT32"}, "value": {"tensor": {"dtype": "DT_INT32", "tensorShape": {}}}}}, {"name": "Preprocessor/map/TensorArrayStack/TensorArraySizeV3", "op": "TensorArraySizeV3", "input": ["Preprocessor/map/TensorArray_1", "Preprocessor/map/while/Exit_2"]}, {"name": "Preprocessor/map/while/ResizeImage/resize/ExpandDims", "op": "ExpandDims", "input": ["Preprocessor/map/while/TensorArrayReadV3", "Preprocessor/map/while/ResizeImage/resize/ExpandDims/dim"], "attr": {"Tdim": {"type": "DT_INT32"}, "T": {"type": "DT_FLOAT"}}}, {"name": "Preprocessor/map/while/add", "op": "AddV2", "input": ["Preprocessor/map/while/Identity", "Preprocessor/map/while/add/y"], "attr": {"T": {"type": "DT_INT32"}}}, {"name": "Preprocessor/map/while/add_1", "op": "AddV2", "input": ["Preprocessor/map/while/Switch_1:1", "Preprocessor/map/while/add_1/y"], "attr": {"T": {"type": "DT_INT32"}}}, {"name": "Preprocessor/map/TensorArrayStack/range", "op": "Range", "input": ["Preprocessor/map/TensorArrayStack/range/start", "Preprocessor/map/TensorArrayStack/TensorArraySizeV3", "Preprocessor/map/TensorArrayStack/range/delta"], "attr": {"Tidx": {"type": "DT_INT32"}}}, {"name": "Preprocessor/map/while/ResizeImage/resize/ResizeBilinear", "op": "ResizeBilinear", "input": ["Preprocessor/map/while/ResizeImage/resize/ExpandDims", "Preprocessor/map/while/ResizeImage/stack"], "attr": {"T": {"type": "DT_FLOAT"}, "align_corners": {"b": false}, "half_pixel_centers": {"b": false}}}, {"name": "Preprocessor/map/while/NextIteration", "op": "NextIteration", "input": ["Preprocessor/map/while/add"], "attr": {"T": {"type": "DT_INT32"}}}, {"name": "Preprocessor/map/while/NextIteration_1", "op": "NextIteration", "input": ["Preprocessor/map/while/add_1"], "attr": {"T": {"type": "DT_INT32"}}}, {"name": "Preprocessor/map/TensorArrayStack/TensorArrayGatherV3", "op": "TensorArrayGatherV3", "input": ["Preprocessor/map/TensorArray_1", "Preprocessor/map/TensorArrayStack/range", "Preprocessor/map/while/Exit_2"], "attr": {"element_shape": {"shape": {"dim": [{"size": "320"}, {"size": "320"}, {"size": "3"}]}}, "dtype": {"type": "DT_FLOAT"}}}, {"name": "Preprocessor/map/while/ResizeImage/resize/Squeeze", "op": "Squeeze", "input": ["Preprocessor/map/while/ResizeImage/resize/ResizeBilinear"], "attr": {"T": {"type": "DT_FLOAT"}, "squeeze_dims": {"list": {"i": ["0"]}}}}, {"name": "FeatureExtractor/MobilenetV3/Conv/BatchNorm/FusedBatchNormV3", "op": "_FusedConv2D", "input": ["Preprocessor/map/TensorArrayStack/TensorArrayGatherV3", "FeatureExtractor/MobilenetV3/Conv/Conv2D_weights", "FeatureExtractor/MobilenetV3/Conv/Conv2D_bn_offset"], "device": "/device:CPU:0", "attr": {"use_cudnn_on_gpu": {"b": true}, "num_args": {"i": "1"}, "fused_ops": {"list": {"s": ["Qmlhc0FkZA=="]}}, "dilations": {"list": {"i": ["1", "1", "1", "1"]}}, "padding": {"s": "U0FNRQ=="}, "data_format": {"s": "TkhXQw=="}, "strides": {"list": {"i": ["1", "2", "2", "1"]}}, "explicit_paddings": {"list": {}}, "T": {"type": "DT_FLOAT"}, "epsilon": {"f": 0.0}}}, {"name": "Preprocessor/map/while/TensorArrayWrite/TensorArrayWriteV3", "op": "TensorArrayWriteV3", "input": ["Preprocessor/map/while/TensorArrayWrite/TensorArrayWriteV3/Enter", "Preprocessor/map/while/Switch_1:1", "Preprocessor/map/while/ResizeImage/resize/Squeeze", "Preprocessor/map/while/Switch_2:1"], "attr": {"T": {"type": "DT_FLOAT"}}}, {"name": "FeatureExtractor/MobilenetV3/Conv/hard_swish/mul", "op": "Mul", "input": ["FeatureExtractor/MobilenetV3/Conv/hard_swish/mul_1/y", "FeatureExtractor/MobilenetV3/Conv/BatchNorm/FusedBatchNormV3"], "attr": {"T": {"type": "DT_FLOAT"}, "_grappler_ArithmeticOptimizer_MinimizeBroadcasts": {"b": true}}}, {"name": "FeatureExtractor/MobilenetV3/Conv/hard_swish/add", "op": "AddV2", "input": ["FeatureExtractor/MobilenetV3/Conv/BatchNorm/FusedBatchNormV3", "FeatureExtractor/MobilenetV3/Conv/hard_swish/add/y"], "attr": {"T": {"type": "DT_FLOAT"}}}, {"name": "Preprocessor/map/while/NextIteration_2", "op": "NextIteration", "input": ["Preprocessor/map/while/TensorArrayWrite/TensorArrayWriteV3"], "attr": {"T": {"type": "DT_FLOAT"}}}, {"name": "FeatureExtractor/MobilenetV3/Conv/hard_swish/Relu6", "op": "Relu6", "input": ["FeatureExtractor/MobilenetV3/Conv/hard_swish/add"], "attr": {"T": {"type": "DT_FLOAT"}}}, {"name": "FeatureExtractor/MobilenetV3/Conv/hard_swish/mul_1", "op": "Mul", "input": ["FeatureExtractor/MobilenetV3/Conv/hard_swish/mul", "FeatureExtractor/MobilenetV3/Conv/hard_swish/Relu6"], "attr": {"_grappler_ArithmeticOptimizer_MinimizeBroadcasts": {"b": true}, "T": {"type": "DT_FLOAT"}}}, {"name": "FeatureExtractor/MobilenetV3/expanded_conv/depthwise/depthwise", "op": "FusedDepthwiseConv2dNative", "input": ["FeatureExtractor/MobilenetV3/Conv/hard_swish/mul_1", "FeatureExtractor/MobilenetV3/expanded_conv/depthwise/depthwise_weights", "FeatureExtractor/MobilenetV3/expanded_conv/depthwise/depthwise_bn_offset"], "attr": {"explicit_paddings": {"list": {}}, "padding": {"s": "U0FNRQ=="}, "data_format": {"s": "TkhXQw=="}, "dilations": {"list": {"i": ["1", "1", "1", "1"]}}, "strides": {"list": {"i": ["1", "2", "2", "1"]}}, "num_args": {"i": "1"}, "T": {"type": "DT_FLOAT"}, "fused_ops": {"list": {"s": ["Qmlhc0FkZA==", "UmVsdQ=="]}}}}, {"name": "FeatureExtractor/MobilenetV3/expanded_conv/squeeze_excite/Mean", "op": "Mean", "input": ["FeatureExtractor/MobilenetV3/expanded_conv/depthwise/depthwise", "FeatureExtractor/MobilenetV3/expanded_conv/squeeze_excite/Mean/reduction_indices"], "attr": {"Tidx": {"type": "DT_INT32"}, "T": {"type": "DT_FLOAT"}, "keep_dims": {"b": true}}}, {"name": "FeatureExtractor/MobilenetV3/expanded_conv/squeeze_excite/Conv/Relu", "op": "_FusedConv2D", "input": ["FeatureExtractor/MobilenetV3/expanded_conv/squeeze_excite/Mean", "FeatureExtractor/MobilenetV3/expanded_conv/squeeze_excite/Conv/weights", "FeatureExtractor/MobilenetV3/expanded_conv/squeeze_excite/Conv/biases"], "device": "/device:CPU:0", "attr": {"fused_ops": {"list": {"s": ["Qmlhc0FkZA==", "UmVsdQ=="]}}, "padding": {"s": "U0FNRQ=="}, "dilations": {"list": {"i": ["1", "1", "1", "1"]}}, "data_format": {"s": "TkhXQw=="}, "T": {"type": "DT_FLOAT"}, "num_args": {"i": "1"}, "explicit_paddings": {"list": {}}, "strides": {"list": {"i": ["1", "1", "1", "1"]}}, "use_cudnn_on_gpu": {"b": true}, "epsilon": {"f": 0.0}}}, {"name": "FeatureExtractor/MobilenetV3/expanded_conv/squeeze_excite/Conv_1/BiasAdd", "op": "_FusedConv2D", "input": ["FeatureExtractor/MobilenetV3/expanded_conv/squeeze_excite/Conv/Relu", "FeatureExtractor/MobilenetV3/expanded_conv/squeeze_excite/Conv_1/weights", "FeatureExtractor/MobilenetV3/expanded_conv/squeeze_excite/Conv_1/biases"], "device": "/device:CPU:0", "attr": {"strides": {"list": {"i": ["1", "1", "1", "1"]}}, "use_cudnn_on_gpu": {"b": true}, "explicit_paddings": {"list": {}}, "padding": {"s": "U0FNRQ=="}, "fused_ops": {"list": {"s": ["Qmlhc0FkZA=="]}}, "dilations": {"list": {"i": ["1", "1", "1", "1"]}}, "epsilon": {"f": 0.0}, "T": {"type": "DT_FLOAT"}, "data_format": {"s": "TkhXQw=="}, "num_args": {"i": "1"}}}, {"name": "FeatureExtractor/MobilenetV3/expanded_conv/squeeze_excite/Conv_1/add", "op": "AddV2", "input": ["FeatureExtractor/MobilenetV3/expanded_conv/squeeze_excite/Conv_1/BiasAdd", "FeatureExtractor/MobilenetV3/expanded_conv/squeeze_excite/Conv_1/add/y"], "attr": {"T": {"type": "DT_FLOAT"}}}, {"name": "FeatureExtractor/MobilenetV3/expanded_conv/squeeze_excite/Conv_1/Relu6", "op": "Relu6", "input": ["FeatureExtractor/MobilenetV3/expanded_conv/squeeze_excite/Conv_1/add"], "attr": {"T": {"type": "DT_FLOAT"}}}, {"name": "FeatureExtractor/MobilenetV3/expanded_conv/squeeze_excite/Conv_1/mul", "op": "Mul", "input": ["FeatureExtractor/MobilenetV3/expanded_conv/squeeze_excite/Conv_1/mul/y", "FeatureExtractor/MobilenetV3/expanded_conv/squeeze_excite/Conv_1/Relu6"], "attr": {"_grappler_ArithmeticOptimizer_MinimizeBroadcasts": {"b": true}, "T": {"type": "DT_FLOAT"}}}, {"name": "FeatureExtractor/MobilenetV3/expanded_conv/squeeze_excite/mul", "op": "Mul", "input": ["FeatureExtractor/MobilenetV3/expanded_conv/squeeze_excite/Conv_1/mul", "FeatureExtractor/MobilenetV3/expanded_conv/depthwise/depthwise"], "attr": {"T": {"type": "DT_FLOAT"}, "_grappler_ArithmeticOptimizer_MinimizeBroadcasts": {"b": true}}}, {"name": "FeatureExtractor/MobilenetV3/expanded_conv/project/BatchNorm/FusedBatchNormV3", "op": "_FusedConv2D", "input": ["FeatureExtractor/MobilenetV3/expanded_conv/squeeze_excite/mul", "FeatureExtractor/MobilenetV3/expanded_conv/project/Conv2D_weights", "FeatureExtractor/MobilenetV3/expanded_conv/project/Conv2D_bn_offset"], "device": "/device:CPU:0", "attr": {"T": {"type": "DT_FLOAT"}, "dilations": {"list": {"i": ["1", "1", "1", "1"]}}, "fused_ops": {"list": {"s": ["Qmlhc0FkZA=="]}}, "strides": {"list": {"i": ["1", "1", "1", "1"]}}, "explicit_paddings": {"list": {}}, "use_cudnn_on_gpu": {"b": true}, "num_args": {"i": "1"}, "epsilon": {"f": 0.0}, "padding": {"s": "U0FNRQ=="}, "data_format": {"s": "TkhXQw=="}}}, {"name": "FeatureExtractor/MobilenetV3/expanded_conv_1/expand/Relu", "op": "_FusedConv2D", "input": ["FeatureExtractor/MobilenetV3/expanded_conv/project/BatchNorm/FusedBatchNormV3", "FeatureExtractor/MobilenetV3/expanded_conv_1/expand/Conv2D_weights", "FeatureExtractor/MobilenetV3/expanded_conv_1/expand/Conv2D_bn_offset"], "device": "/device:CPU:0", "attr": {"explicit_paddings": {"list": {}}, "use_cudnn_on_gpu": {"b": true}, "num_args": {"i": "1"}, "T": {"type": "DT_FLOAT"}, "padding": {"s": "U0FNRQ=="}, "fused_ops": {"list": {"s": ["Qmlhc0FkZA==", "UmVsdQ=="]}}, "epsilon": {"f": 0.0}, "strides": {"list": {"i": ["1", "1", "1", "1"]}}, "dilations": {"list": {"i": ["1", "1", "1", "1"]}}, "data_format": {"s": "TkhXQw=="}}}, {"name": "FeatureExtractor/MobilenetV3/expanded_conv_1/depthwise/depthwise", "op": "FusedDepthwiseConv2dNative", "input": ["FeatureExtractor/MobilenetV3/expanded_conv_1/expand/Relu", "FeatureExtractor/MobilenetV3/expanded_conv_1/depthwise/depthwise_weights", "FeatureExtractor/MobilenetV3/expanded_conv_1/depthwise/depthwise_bn_offset"], "attr": {"strides": {"list": {"i": ["1", "2", "2", "1"]}}, "explicit_paddings": {"list": {}}, "fused_ops": {"list": {"s": ["Qmlhc0FkZA==", "UmVsdQ=="]}}, "padding": {"s": "U0FNRQ=="}, "T": {"type": "DT_FLOAT"}, "data_format": {"s": "TkhXQw=="}, "dilations": {"list": {"i": ["1", "1", "1", "1"]}}, "num_args": {"i": "1"}}}, {"name": "FeatureExtractor/MobilenetV3/expanded_conv_1/project/BatchNorm/FusedBatchNormV3", "op": "_FusedConv2D", "input": ["FeatureExtractor/MobilenetV3/expanded_conv_1/depthwise/depthwise", "FeatureExtractor/MobilenetV3/expanded_conv_1/project/Conv2D_weights", "FeatureExtractor/MobilenetV3/expanded_conv_1/project/Conv2D_bn_offset"], "device": "/device:CPU:0", "attr": {"epsilon": {"f": 0.0}, "strides": {"list": {"i": ["1", "1", "1", "1"]}}, "padding": {"s": "U0FNRQ=="}, "fused_ops": {"list": {"s": ["Qmlhc0FkZA=="]}}, "dilations": {"list": {"i": ["1", "1", "1", "1"]}}, "explicit_paddings": {"list": {}}, "num_args": {"i": "1"}, "data_format": {"s": "TkhXQw=="}, "T": {"type": "DT_FLOAT"}, "use_cudnn_on_gpu": {"b": true}}}, {"name": "FeatureExtractor/MobilenetV3/expanded_conv_2/expand/Relu", "op": "_FusedConv2D", "input": ["FeatureExtractor/MobilenetV3/expanded_conv_1/project/BatchNorm/FusedBatchNormV3", "FeatureExtractor/MobilenetV3/expanded_conv_2/expand/Conv2D_weights", "FeatureExtractor/MobilenetV3/expanded_conv_2/expand/Conv2D_bn_offset"], "device": "/device:CPU:0", "attr": {"strides": {"list": {"i": ["1", "1", "1", "1"]}}, "num_args": {"i": "1"}, "use_cudnn_on_gpu": {"b": true}, "fused_ops": {"list": {"s": ["Qmlhc0FkZA==", "UmVsdQ=="]}}, "explicit_paddings": {"list": {}}, "T": {"type": "DT_FLOAT"}, "padding": {"s": "U0FNRQ=="}, "data_format": {"s": "TkhXQw=="}, "epsilon": {"f": 0.0}, "dilations": {"list": {"i": ["1", "1", "1", "1"]}}}}, {"name": "FeatureExtractor/MobilenetV3/expanded_conv_2/depthwise/depthwise", "op": "FusedDepthwiseConv2dNative", "input": ["FeatureExtractor/MobilenetV3/expanded_conv_2/expand/Relu", "FeatureExtractor/MobilenetV3/expanded_conv_2/depthwise/depthwise_weights", "FeatureExtractor/MobilenetV3/expanded_conv_2/depthwise/depthwise_bn_offset"], "attr": {"dilations": {"list": {"i": ["1", "1", "1", "1"]}}, "num_args": {"i": "1"}, "fused_ops": {"list": {"s": ["Qmlhc0FkZA==", "UmVsdQ=="]}}, "padding": {"s": "U0FNRQ=="}, "explicit_paddings": {"list": {}}, "T": {"type": "DT_FLOAT"}, "strides": {"list": {"i": ["1", "1", "1", "1"]}}, "data_format": {"s": "TkhXQw=="}}}, {"name": "FeatureExtractor/MobilenetV3/expanded_conv_2/project/BatchNorm/FusedBatchNormV3", "op": "_FusedConv2D", "input": ["FeatureExtractor/MobilenetV3/expanded_conv_2/depthwise/depthwise", "FeatureExtractor/MobilenetV3/expanded_conv_2/project/Conv2D_weights", "FeatureExtractor/MobilenetV3/expanded_conv_2/project/Conv2D_bn_offset"], "device": "/device:CPU:0", "attr": {"data_format": {"s": "TkhXQw=="}, "T": {"type": "DT_FLOAT"}, "strides": {"list": {"i": ["1", "1", "1", "1"]}}, "dilations": {"list": {"i": ["1", "1", "1", "1"]}}, "num_args": {"i": "1"}, "use_cudnn_on_gpu": {"b": true}, "fused_ops": {"list": {"s": ["Qmlhc0FkZA=="]}}, "epsilon": {"f": 0.0}, "explicit_paddings": {"list": {}}, "padding": {"s": "U0FNRQ=="}}}, {"name": "FeatureExtractor/MobilenetV3/expanded_conv_2/add", "op": "AddV2", "input": ["FeatureExtractor/MobilenetV3/expanded_conv_2/project/BatchNorm/FusedBatchNormV3", "FeatureExtractor/MobilenetV3/expanded_conv_1/project/BatchNorm/FusedBatchNormV3"], "attr": {"T": {"type": "DT_FLOAT"}}}, {"name": "FeatureExtractor/MobilenetV3/expanded_conv_3/expand/BatchNorm/FusedBatchNormV3", "op": "_FusedConv2D", "input": ["FeatureExtractor/MobilenetV3/expanded_conv_2/add", "FeatureExtractor/MobilenetV3/expanded_conv_3/expand/Conv2D_weights", "FeatureExtractor/MobilenetV3/expanded_conv_3/expand/Conv2D_bn_offset"], "device": "/device:CPU:0", "attr": {"padding": {"s": "U0FNRQ=="}, "fused_ops": {"list": {"s": ["Qmlhc0FkZA=="]}}, "use_cudnn_on_gpu": {"b": true}, "strides": {"list": {"i": ["1", "1", "1", "1"]}}, "num_args": {"i": "1"}, "explicit_paddings": {"list": {}}, "dilations": {"list": {"i": ["1", "1", "1", "1"]}}, "data_format": {"s": "TkhXQw=="}, "T": {"type": "DT_FLOAT"}, "epsilon": {"f": 0.0}}}, {"name": "FeatureExtractor/MobilenetV3/expanded_conv_3/expand/hard_swish/mul", "op": "Mul", "input": ["FeatureExtractor/MobilenetV3/expanded_conv_3/expand/hard_swish/mul_1/y", "FeatureExtractor/MobilenetV3/expanded_conv_3/expand/BatchNorm/FusedBatchNormV3"], "attr": {"T": {"type": "DT_FLOAT"}, "_grappler_ArithmeticOptimizer_MinimizeBroadcasts": {"b": true}}}, {"name": "FeatureExtractor/MobilenetV3/expanded_conv_3/expand/hard_swish/add", "op": "AddV2", "input": ["FeatureExtractor/MobilenetV3/expanded_conv_3/expand/BatchNorm/FusedBatchNormV3", "FeatureExtractor/MobilenetV3/expanded_conv_3/expand/hard_swish/add/y"], "attr": {"T": {"type": "DT_FLOAT"}}}, {"name": "FeatureExtractor/MobilenetV3/expanded_conv_3/expand/hard_swish/Relu6", "op": "Relu6", "input": ["FeatureExtractor/MobilenetV3/expanded_conv_3/expand/hard_swish/add"], "attr": {"T": {"type": "DT_FLOAT"}}}, {"name": "FeatureExtractor/MobilenetV3/expanded_conv_3/expand/hard_swish/mul_1", "op": "Mul", "input": ["FeatureExtractor/MobilenetV3/expanded_conv_3/expand/hard_swish/mul", "FeatureExtractor/MobilenetV3/expanded_conv_3/expand/hard_swish/Relu6"], "attr": {"T": {"type": "DT_FLOAT"}, "_grappler_ArithmeticOptimizer_MinimizeBroadcasts": {"b": true}}}, {"name": "FeatureExtractor/MobilenetV3/expanded_conv_3/depthwise/depthwise", "op": "FusedDepthwiseConv2dNative", "input": ["FeatureExtractor/MobilenetV3/expanded_conv_3/expand/hard_swish/mul_1", "FeatureExtractor/MobilenetV3/expanded_conv_3/depthwise/depthwise_weights", "FeatureExtractor/MobilenetV3/expanded_conv_3/depthwise/depthwise_bn_offset"], "attr": {"fused_ops": {"list": {"s": ["Qmlhc0FkZA=="]}}, "dilations": {"list": {"i": ["1", "1", "1", "1"]}}, "num_args": {"i": "1"}, "strides": {"list": {"i": ["1", "2", "2", "1"]}}, "T": {"type": "DT_FLOAT"}, "padding": {"s": "U0FNRQ=="}, "data_format": {"s": "TkhXQw=="}, "explicit_paddings": {"list": {}}}}, {"name": "FeatureExtractor/MobilenetV3/expanded_conv_3/depthwise/hard_swish/mul", "op": "Mul", "input": ["FeatureExtractor/MobilenetV3/expanded_conv_3/depthwise/hard_swish/mul_1/y", "FeatureExtractor/MobilenetV3/expanded_conv_3/depthwise/depthwise"], "attr": {"_grappler_ArithmeticOptimizer_MinimizeBroadcasts": {"b": true}, "T": {"type": "DT_FLOAT"}}}, {"name": "FeatureExtractor/MobilenetV3/expanded_conv_3/depthwise/hard_swish/add", "op": "AddV2", "input": ["FeatureExtractor/MobilenetV3/expanded_conv_3/depthwise/depthwise", "FeatureExtractor/MobilenetV3/expanded_conv_3/depthwise/hard_swish/add/y"], "attr": {"T": {"type": "DT_FLOAT"}}}, {"name": "FeatureExtractor/MobilenetV3/expanded_conv_3/depthwise/hard_swish/Relu6", "op": "Relu6", "input": ["FeatureExtractor/MobilenetV3/expanded_conv_3/depthwise/hard_swish/add"], "attr": {"T": {"type": "DT_FLOAT"}}}, {"name": "FeatureExtractor/MobilenetV3/expanded_conv_3/depthwise/hard_swish/mul_1", "op": "Mul", "input": ["FeatureExtractor/MobilenetV3/expanded_conv_3/depthwise/hard_swish/mul", "FeatureExtractor/MobilenetV3/expanded_conv_3/depthwise/hard_swish/Relu6"], "attr": {"_grappler_ArithmeticOptimizer_MinimizeBroadcasts": {"b": true}, "T": {"type": "DT_FLOAT"}}}, {"name": "FeatureExtractor/MobilenetV3/expanded_conv_3/squeeze_excite/Mean", "op": "Mean", "input": ["FeatureExtractor/MobilenetV3/expanded_conv_3/depthwise/hard_swish/mul_1", "FeatureExtractor/MobilenetV3/expanded_conv_3/squeeze_excite/Mean/reduction_indices"], "attr": {"keep_dims": {"b": true}, "T": {"type": "DT_FLOAT"}, "Tidx": {"type": "DT_INT32"}}}, {"name": "FeatureExtractor/MobilenetV3/expanded_conv_3/squeeze_excite/Conv/Relu", "op": "_FusedConv2D", "input": ["FeatureExtractor/MobilenetV3/expanded_conv_3/squeeze_excite/Mean", "FeatureExtractor/MobilenetV3/expanded_conv_3/squeeze_excite/Conv/weights", "FeatureExtractor/MobilenetV3/expanded_conv_3/squeeze_excite/Conv/biases"], "device": "/device:CPU:0", "attr": {"use_cudnn_on_gpu": {"b": true}, "epsilon": {"f": 0.0}, "num_args": {"i": "1"}, "padding": {"s": "U0FNRQ=="}, "fused_ops": {"list": {"s": ["Qmlhc0FkZA==", "UmVsdQ=="]}}, "strides": {"list": {"i": ["1", "1", "1", "1"]}}, "data_format": {"s": "TkhXQw=="}, "T": {"type": "DT_FLOAT"}, "dilations": {"list": {"i": ["1", "1", "1", "1"]}}, "explicit_paddings": {"list": {}}}}, {"name": "FeatureExtractor/MobilenetV3/expanded_conv_3/squeeze_excite/Conv_1/BiasAdd", "op": "_FusedConv2D", "input": ["FeatureExtractor/MobilenetV3/expanded_conv_3/squeeze_excite/Conv/Relu", "FeatureExtractor/MobilenetV3/expanded_conv_3/squeeze_excite/Conv_1/weights", "FeatureExtractor/MobilenetV3/expanded_conv_3/squeeze_excite/Conv_1/biases"], "device": "/device:CPU:0", "attr": {"data_format": {"s": "TkhXQw=="}, "explicit_paddings": {"list": {}}, "T": {"type": "DT_FLOAT"}, "epsilon": {"f": 0.0}, "use_cudnn_on_gpu": {"b": true}, "dilations": {"list": {"i": ["1", "1", "1", "1"]}}, "strides": {"list": {"i": ["1", "1", "1", "1"]}}, "padding": {"s": "U0FNRQ=="}, "fused_ops": {"list": {"s": ["Qmlhc0FkZA=="]}}, "num_args": {"i": "1"}}}, {"name": "FeatureExtractor/MobilenetV3/expanded_conv_3/squeeze_excite/Conv_1/add", "op": "AddV2", "input": ["FeatureExtractor/MobilenetV3/expanded_conv_3/squeeze_excite/Conv_1/BiasAdd", "FeatureExtractor/MobilenetV3/expanded_conv_3/squeeze_excite/Conv_1/add/y"], "attr": {"T": {"type": "DT_FLOAT"}}}, {"name": "FeatureExtractor/MobilenetV3/expanded_conv_3/squeeze_excite/Conv_1/Relu6", "op": "Relu6", "input": ["FeatureExtractor/MobilenetV3/expanded_conv_3/squeeze_excite/Conv_1/add"], "attr": {"T": {"type": "DT_FLOAT"}}}, {"name": "FeatureExtractor/MobilenetV3/expanded_conv_3/squeeze_excite/Conv_1/mul", "op": "Mul", "input": ["FeatureExtractor/MobilenetV3/expanded_conv_3/squeeze_excite/Conv_1/mul/y", "FeatureExtractor/MobilenetV3/expanded_conv_3/squeeze_excite/Conv_1/Relu6"], "attr": {"T": {"type": "DT_FLOAT"}, "_grappler_ArithmeticOptimizer_MinimizeBroadcasts": {"b": true}}}, {"name": "FeatureExtractor/MobilenetV3/expanded_conv_3/squeeze_excite/mul", "op": "Mul", "input": ["FeatureExtractor/MobilenetV3/expanded_conv_3/squeeze_excite/Conv_1/mul", "FeatureExtractor/MobilenetV3/expanded_conv_3/depthwise/hard_swish/mul_1"], "attr": {"_grappler_ArithmeticOptimizer_MinimizeBroadcasts": {"b": true}, "T": {"type": "DT_FLOAT"}}}, {"name": "FeatureExtractor/MobilenetV3/expanded_conv_3/project/BatchNorm/FusedBatchNormV3", "op": "_FusedConv2D", "input": ["FeatureExtractor/MobilenetV3/expanded_conv_3/squeeze_excite/mul", "FeatureExtractor/MobilenetV3/expanded_conv_3/project/Conv2D_weights", "FeatureExtractor/MobilenetV3/expanded_conv_3/project/Conv2D_bn_offset"], "device": "/device:CPU:0", "attr": {"dilations": {"list": {"i": ["1", "1", "1", "1"]}}, "strides": {"list": {"i": ["1", "1", "1", "1"]}}, "T": {"type": "DT_FLOAT"}, "num_args": {"i": "1"}, "epsilon": {"f": 0.0}, "data_format": {"s": "TkhXQw=="}, "padding": {"s": "U0FNRQ=="}, "fused_ops": {"list": {"s": ["Qmlhc0FkZA=="]}}, "use_cudnn_on_gpu": {"b": true}, "explicit_paddings": {"list": {}}}}, {"name": "FeatureExtractor/MobilenetV3/expanded_conv_4/expand/BatchNorm/FusedBatchNormV3", "op": "_FusedConv2D", "input": ["FeatureExtractor/MobilenetV3/expanded_conv_3/project/BatchNorm/FusedBatchNormV3", "FeatureExtractor/MobilenetV3/expanded_conv_4/expand/Conv2D_weights", "FeatureExtractor/MobilenetV3/expanded_conv_4/expand/Conv2D_bn_offset"], "device": "/device:CPU:0", "attr": {"num_args": {"i": "1"}, "fused_ops": {"list": {"s": ["Qmlhc0FkZA=="]}}, "padding": {"s": "U0FNRQ=="}, "explicit_paddings": {"list": {}}, "epsilon": {"f": 0.0}, "dilations": {"list": {"i": ["1", "1", "1", "1"]}}, "strides": {"list": {"i": ["1", "1", "1", "1"]}}, "T": {"type": "DT_FLOAT"}, "use_cudnn_on_gpu": {"b": true}, "data_format": {"s": "TkhXQw=="}}}, {"name": "FeatureExtractor/MobilenetV3/expanded_conv_4/expand/hard_swish/mul", "op": "Mul", "input": ["FeatureExtractor/MobilenetV3/expanded_conv_4/expand/hard_swish/mul_1/y", "FeatureExtractor/MobilenetV3/expanded_conv_4/expand/BatchNorm/FusedBatchNormV3"], "attr": {"T": {"type": "DT_FLOAT"}, "_grappler_ArithmeticOptimizer_MinimizeBroadcasts": {"b": true}}}, {"name": "FeatureExtractor/MobilenetV3/expanded_conv_4/expand/hard_swish/add", "op": "AddV2", "input": ["FeatureExtractor/MobilenetV3/expanded_conv_4/expand/BatchNorm/FusedBatchNormV3", "FeatureExtractor/MobilenetV3/expanded_conv_4/expand/hard_swish/add/y"], "attr": {"T": {"type": "DT_FLOAT"}}}, {"name": "FeatureExtractor/MobilenetV3/expanded_conv_4/expand/hard_swish/Relu6", "op": "Relu6", "input": ["FeatureExtractor/MobilenetV3/expanded_conv_4/expand/hard_swish/add"], "attr": {"T": {"type": "DT_FLOAT"}}}, {"name": "FeatureExtractor/MobilenetV3/expanded_conv_4/expand/hard_swish/mul_1", "op": "Mul", "input": ["FeatureExtractor/MobilenetV3/expanded_conv_4/expand/hard_swish/mul", "FeatureExtractor/MobilenetV3/expanded_conv_4/expand/hard_swish/Relu6"], "attr": {"_grappler_ArithmeticOptimizer_MinimizeBroadcasts": {"b": true}, "T": {"type": "DT_FLOAT"}}}, {"name": "FeatureExtractor/MobilenetV3/expanded_conv_4/depthwise/depthwise", "op": "FusedDepthwiseConv2dNative", "input": ["FeatureExtractor/MobilenetV3/expanded_conv_4/expand/hard_swish/mul_1", "FeatureExtractor/MobilenetV3/expanded_conv_4/depthwise/depthwise_weights", "FeatureExtractor/MobilenetV3/expanded_conv_4/depthwise/depthwise_bn_offset"], "attr": {"fused_ops": {"list": {"s": ["Qmlhc0FkZA=="]}}, "num_args": {"i": "1"}, "explicit_paddings": {"list": {}}, "data_format": {"s": "TkhXQw=="}, "strides": {"list": {"i": ["1", "1", "1", "1"]}}, "dilations": {"list": {"i": ["1", "1", "1", "1"]}}, "padding": {"s": "U0FNRQ=="}, "T": {"type": "DT_FLOAT"}}}, {"name": "FeatureExtractor/MobilenetV3/expanded_conv_4/depthwise/hard_swish/mul", "op": "Mul", "input": ["FeatureExtractor/MobilenetV3/expanded_conv_4/depthwise/hard_swish/mul_1/y", "FeatureExtractor/MobilenetV3/expanded_conv_4/depthwise/depthwise"], "attr": {"_grappler_ArithmeticOptimizer_MinimizeBroadcasts": {"b": true}, "T": {"type": "DT_FLOAT"}}}, {"name": "FeatureExtractor/MobilenetV3/expanded_conv_4/depthwise/hard_swish/add", "op": "AddV2", "input": ["FeatureExtractor/MobilenetV3/expanded_conv_4/depthwise/depthwise", "FeatureExtractor/MobilenetV3/expanded_conv_4/depthwise/hard_swish/add/y"], "attr": {"T": {"type": "DT_FLOAT"}}}, {"name": "FeatureExtractor/MobilenetV3/expanded_conv_4/depthwise/hard_swish/Relu6", "op": "Relu6", "input": ["FeatureExtractor/MobilenetV3/expanded_conv_4/depthwise/hard_swish/add"], "attr": {"T": {"type": "DT_FLOAT"}}}, {"name": "FeatureExtractor/MobilenetV3/expanded_conv_4/depthwise/hard_swish/mul_1", "op": "Mul", "input": ["FeatureExtractor/MobilenetV3/expanded_conv_4/depthwise/hard_swish/mul", "FeatureExtractor/MobilenetV3/expanded_conv_4/depthwise/hard_swish/Relu6"], "attr": {"T": {"type": "DT_FLOAT"}, "_grappler_ArithmeticOptimizer_MinimizeBroadcasts": {"b": true}}}, {"name": "FeatureExtractor/MobilenetV3/expanded_conv_4/squeeze_excite/Mean", "op": "Mean", "input": ["FeatureExtractor/MobilenetV3/expanded_conv_4/depthwise/hard_swish/mul_1", "FeatureExtractor/MobilenetV3/expanded_conv_4/squeeze_excite/Mean/reduction_indices"], "attr": {"T": {"type": "DT_FLOAT"}, "keep_dims": {"b": true}, "Tidx": {"type": "DT_INT32"}}}, {"name": "FeatureExtractor/MobilenetV3/expanded_conv_4/squeeze_excite/Conv/Relu", "op": "_FusedConv2D", "input": ["FeatureExtractor/MobilenetV3/expanded_conv_4/squeeze_excite/Mean", "FeatureExtractor/MobilenetV3/expanded_conv_4/squeeze_excite/Conv/weights", "FeatureExtractor/MobilenetV3/expanded_conv_4/squeeze_excite/Conv/biases"], "device": "/device:CPU:0", "attr": {"use_cudnn_on_gpu": {"b": true}, "padding": {"s": "U0FNRQ=="}, "strides": {"list": {"i": ["1", "1", "1", "1"]}}, "epsilon": {"f": 0.0}, "data_format": {"s": "TkhXQw=="}, "dilations": {"list": {"i": ["1", "1", "1", "1"]}}, "fused_ops": {"list": {"s": ["Qmlhc0FkZA==", "UmVsdQ=="]}}, "T": {"type": "DT_FLOAT"}, "num_args": {"i": "1"}, "explicit_paddings": {"list": {}}}}, {"name": "FeatureExtractor/MobilenetV3/expanded_conv_4/squeeze_excite/Conv_1/BiasAdd", "op": "_FusedConv2D", "input": ["FeatureExtractor/MobilenetV3/expanded_conv_4/squeeze_excite/Conv/Relu", "FeatureExtractor/MobilenetV3/expanded_conv_4/squeeze_excite/Conv_1/weights", "FeatureExtractor/MobilenetV3/expanded_conv_4/squeeze_excite/Conv_1/biases"], "device": "/device:CPU:0", "attr": {"padding": {"s": "U0FNRQ=="}, "epsilon": {"f": 0.0}, "data_format": {"s": "TkhXQw=="}, "use_cudnn_on_gpu": {"b": true}, "num_args": {"i": "1"}, "strides": {"list": {"i": ["1", "1", "1", "1"]}}, "dilations": {"list": {"i": ["1", "1", "1", "1"]}}, "T": {"type": "DT_FLOAT"}, "fused_ops": {"list": {"s": ["Qmlhc0FkZA=="]}}, "explicit_paddings": {"list": {}}}}, {"name": "FeatureExtractor/MobilenetV3/expanded_conv_4/squeeze_excite/Conv_1/add", "op": "AddV2", "input": ["FeatureExtractor/MobilenetV3/expanded_conv_4/squeeze_excite/Conv_1/BiasAdd", "FeatureExtractor/MobilenetV3/expanded_conv_4/squeeze_excite/Conv_1/add/y"], "attr": {"T": {"type": "DT_FLOAT"}}}, {"name": "FeatureExtractor/MobilenetV3/expanded_conv_4/squeeze_excite/Conv_1/Relu6", "op": "Relu6", "input": ["FeatureExtractor/MobilenetV3/expanded_conv_4/squeeze_excite/Conv_1/add"], "attr": {"T": {"type": "DT_FLOAT"}}}, {"name": "FeatureExtractor/MobilenetV3/expanded_conv_4/squeeze_excite/Conv_1/mul", "op": "Mul", "input": ["FeatureExtractor/MobilenetV3/expanded_conv_4/squeeze_excite/Conv_1/mul/y", "FeatureExtractor/MobilenetV3/expanded_conv_4/squeeze_excite/Conv_1/Relu6"], "attr": {"_grappler_ArithmeticOptimizer_MinimizeBroadcasts": {"b": true}, "T": {"type": "DT_FLOAT"}}}, {"name": "FeatureExtractor/MobilenetV3/expanded_conv_4/squeeze_excite/mul", "op": "Mul", "input": ["FeatureExtractor/MobilenetV3/expanded_conv_4/squeeze_excite/Conv_1/mul", "FeatureExtractor/MobilenetV3/expanded_conv_4/depthwise/hard_swish/mul_1"], "attr": {"_grappler_ArithmeticOptimizer_MinimizeBroadcasts": {"b": true}, "T": {"type": "DT_FLOAT"}}}, {"name": "FeatureExtractor/MobilenetV3/expanded_conv_4/project/BatchNorm/FusedBatchNormV3", "op": "_FusedConv2D", "input": ["FeatureExtractor/MobilenetV3/expanded_conv_4/squeeze_excite/mul", "FeatureExtractor/MobilenetV3/expanded_conv_4/project/Conv2D_weights", "FeatureExtractor/MobilenetV3/expanded_conv_4/project/Conv2D_bn_offset"], "device": "/device:CPU:0", "attr": {"padding": {"s": "U0FNRQ=="}, "explicit_paddings": {"list": {}}, "data_format": {"s": "TkhXQw=="}, "use_cudnn_on_gpu": {"b": true}, "fused_ops": {"list": {"s": ["Qmlhc0FkZA=="]}}, "T": {"type": "DT_FLOAT"}, "dilations": {"list": {"i": ["1", "1", "1", "1"]}}, "num_args": {"i": "1"}, "epsilon": {"f": 0.0}, "strides": {"list": {"i": ["1", "1", "1", "1"]}}}}, {"name": "FeatureExtractor/MobilenetV3/expanded_conv_4/add", "op": "AddV2", "input": ["FeatureExtractor/MobilenetV3/expanded_conv_4/project/BatchNorm/FusedBatchNormV3", "FeatureExtractor/MobilenetV3/expanded_conv_3/project/BatchNorm/FusedBatchNormV3"], "attr": {"T": {"type": "DT_FLOAT"}}}, {"name": "FeatureExtractor/MobilenetV3/expanded_conv_5/expand/BatchNorm/FusedBatchNormV3", "op": "_FusedConv2D", "input": ["FeatureExtractor/MobilenetV3/expanded_conv_4/add", "FeatureExtractor/MobilenetV3/expanded_conv_5/expand/Conv2D_weights", "FeatureExtractor/MobilenetV3/expanded_conv_5/expand/Conv2D_bn_offset"], "device": "/device:CPU:0", "attr": {"padding": {"s": "U0FNRQ=="}, "dilations": {"list": {"i": ["1", "1", "1", "1"]}}, "strides": {"list": {"i": ["1", "1", "1", "1"]}}, "fused_ops": {"list": {"s": ["Qmlhc0FkZA=="]}}, "data_format": {"s": "TkhXQw=="}, "epsilon": {"f": 0.0}, "num_args": {"i": "1"}, "T": {"type": "DT_FLOAT"}, "explicit_paddings": {"list": {}}, "use_cudnn_on_gpu": {"b": true}}}, {"name": "FeatureExtractor/MobilenetV3/expanded_conv_5/expand/hard_swish/mul", "op": "Mul", "input": ["FeatureExtractor/MobilenetV3/expanded_conv_5/expand/hard_swish/mul_1/y", "FeatureExtractor/MobilenetV3/expanded_conv_5/expand/BatchNorm/FusedBatchNormV3"], "attr": {"_grappler_ArithmeticOptimizer_MinimizeBroadcasts": {"b": true}, "T": {"type": "DT_FLOAT"}}}, {"name": "FeatureExtractor/MobilenetV3/expanded_conv_5/expand/hard_swish/add", "op": "AddV2", "input": ["FeatureExtractor/MobilenetV3/expanded_conv_5/expand/BatchNorm/FusedBatchNormV3", "FeatureExtractor/MobilenetV3/expanded_conv_5/expand/hard_swish/add/y"], "attr": {"T": {"type": "DT_FLOAT"}}}, {"name": "FeatureExtractor/MobilenetV3/expanded_conv_5/expand/hard_swish/Relu6", "op": "Relu6", "input": ["FeatureExtractor/MobilenetV3/expanded_conv_5/expand/hard_swish/add"], "attr": {"T": {"type": "DT_FLOAT"}}}, {"name": "FeatureExtractor/MobilenetV3/expanded_conv_5/expand/hard_swish/mul_1", "op": "Mul", "input": ["FeatureExtractor/MobilenetV3/expanded_conv_5/expand/hard_swish/mul", "FeatureExtractor/MobilenetV3/expanded_conv_5/expand/hard_swish/Relu6"], "attr": {"T": {"type": "DT_FLOAT"}, "_grappler_ArithmeticOptimizer_MinimizeBroadcasts": {"b": true}}}, {"name": "FeatureExtractor/MobilenetV3/expanded_conv_5/depthwise/depthwise", "op": "FusedDepthwiseConv2dNative", "input": ["FeatureExtractor/MobilenetV3/expanded_conv_5/expand/hard_swish/mul_1", "FeatureExtractor/MobilenetV3/expanded_conv_5/depthwise/depthwise_weights", "FeatureExtractor/MobilenetV3/expanded_conv_5/depthwise/depthwise_bn_offset"], "attr": {"T": {"type": "DT_FLOAT"}, "fused_ops": {"list": {"s": ["Qmlhc0FkZA=="]}}, "explicit_paddings": {"list": {}}, "padding": {"s": "U0FNRQ=="}, "strides": {"list": {"i": ["1", "1", "1", "1"]}}, "dilations": {"list": {"i": ["1", "1", "1", "1"]}}, "num_args": {"i": "1"}, "data_format": {"s": "TkhXQw=="}}}, {"name": "FeatureExtractor/MobilenetV3/expanded_conv_5/depthwise/hard_swish/mul", "op": "Mul", "input": ["FeatureExtractor/MobilenetV3/expanded_conv_5/depthwise/hard_swish/mul_1/y", "FeatureExtractor/MobilenetV3/expanded_conv_5/depthwise/depthwise"], "attr": {"T": {"type": "DT_FLOAT"}, "_grappler_ArithmeticOptimizer_MinimizeBroadcasts": {"b": true}}}, {"name": "FeatureExtractor/MobilenetV3/expanded_conv_5/depthwise/hard_swish/add", "op": "AddV2", "input": ["FeatureExtractor/MobilenetV3/expanded_conv_5/depthwise/depthwise", "FeatureExtractor/MobilenetV3/expanded_conv_5/depthwise/hard_swish/add/y"], "attr": {"T": {"type": "DT_FLOAT"}}}, {"name": "FeatureExtractor/MobilenetV3/expanded_conv_5/depthwise/hard_swish/Relu6", "op": "Relu6", "input": ["FeatureExtractor/MobilenetV3/expanded_conv_5/depthwise/hard_swish/add"], "attr": {"T": {"type": "DT_FLOAT"}}}, {"name": "FeatureExtractor/MobilenetV3/expanded_conv_5/depthwise/hard_swish/mul_1", "op": "Mul", "input": ["FeatureExtractor/MobilenetV3/expanded_conv_5/depthwise/hard_swish/mul", "FeatureExtractor/MobilenetV3/expanded_conv_5/depthwise/hard_swish/Relu6"], "attr": {"_grappler_ArithmeticOptimizer_MinimizeBroadcasts": {"b": true}, "T": {"type": "DT_FLOAT"}}}, {"name": "FeatureExtractor/MobilenetV3/expanded_conv_5/squeeze_excite/Mean", "op": "Mean", "input": ["FeatureExtractor/MobilenetV3/expanded_conv_5/depthwise/hard_swish/mul_1", "FeatureExtractor/MobilenetV3/expanded_conv_5/squeeze_excite/Mean/reduction_indices"], "attr": {"T": {"type": "DT_FLOAT"}, "Tidx": {"type": "DT_INT32"}, "keep_dims": {"b": true}}}, {"name": "FeatureExtractor/MobilenetV3/expanded_conv_5/squeeze_excite/Conv/Relu", "op": "_FusedConv2D", "input": ["FeatureExtractor/MobilenetV3/expanded_conv_5/squeeze_excite/Mean", "FeatureExtractor/MobilenetV3/expanded_conv_5/squeeze_excite/Conv/weights", "FeatureExtractor/MobilenetV3/expanded_conv_5/squeeze_excite/Conv/biases"], "device": "/device:CPU:0", "attr": {"num_args": {"i": "1"}, "explicit_paddings": {"list": {}}, "epsilon": {"f": 0.0}, "dilations": {"list": {"i": ["1", "1", "1", "1"]}}, "data_format": {"s": "TkhXQw=="}, "use_cudnn_on_gpu": {"b": true}, "T": {"type": "DT_FLOAT"}, "strides": {"list": {"i": ["1", "1", "1", "1"]}}, "fused_ops": {"list": {"s": ["Qmlhc0FkZA==", "UmVsdQ=="]}}, "padding": {"s": "U0FNRQ=="}}}, {"name": "FeatureExtractor/MobilenetV3/expanded_conv_5/squeeze_excite/Conv_1/BiasAdd", "op": "_FusedConv2D", "input": ["FeatureExtractor/MobilenetV3/expanded_conv_5/squeeze_excite/Conv/Relu", "FeatureExtractor/MobilenetV3/expanded_conv_5/squeeze_excite/Conv_1/weights", "FeatureExtractor/MobilenetV3/expanded_conv_5/squeeze_excite/Conv_1/biases"], "device": "/device:CPU:0", "attr": {"data_format": {"s": "TkhXQw=="}, "explicit_paddings": {"list": {}}, "epsilon": {"f": 0.0}, "fused_ops": {"list": {"s": ["Qmlhc0FkZA=="]}}, "padding": {"s": "U0FNRQ=="}, "strides": {"list": {"i": ["1", "1", "1", "1"]}}, "use_cudnn_on_gpu": {"b": true}, "num_args": {"i": "1"}, "dilations": {"list": {"i": ["1", "1", "1", "1"]}}, "T": {"type": "DT_FLOAT"}}}, {"name": "FeatureExtractor/MobilenetV3/expanded_conv_5/squeeze_excite/Conv_1/add", "op": "AddV2", "input": ["FeatureExtractor/MobilenetV3/expanded_conv_5/squeeze_excite/Conv_1/BiasAdd", "FeatureExtractor/MobilenetV3/expanded_conv_5/squeeze_excite/Conv_1/add/y"], "attr": {"T": {"type": "DT_FLOAT"}}}, {"name": "FeatureExtractor/MobilenetV3/expanded_conv_5/squeeze_excite/Conv_1/Relu6", "op": "Relu6", "input": ["FeatureExtractor/MobilenetV3/expanded_conv_5/squeeze_excite/Conv_1/add"], "attr": {"T": {"type": "DT_FLOAT"}}}, {"name": "FeatureExtractor/MobilenetV3/expanded_conv_5/squeeze_excite/Conv_1/mul", "op": "Mul", "input": ["FeatureExtractor/MobilenetV3/expanded_conv_5/squeeze_excite/Conv_1/mul/y", "FeatureExtractor/MobilenetV3/expanded_conv_5/squeeze_excite/Conv_1/Relu6"], "attr": {"_grappler_ArithmeticOptimizer_MinimizeBroadcasts": {"b": true}, "T": {"type": "DT_FLOAT"}}}, {"name": "FeatureExtractor/MobilenetV3/expanded_conv_5/squeeze_excite/mul", "op": "Mul", "input": ["FeatureExtractor/MobilenetV3/expanded_conv_5/squeeze_excite/Conv_1/mul", "FeatureExtractor/MobilenetV3/expanded_conv_5/depthwise/hard_swish/mul_1"], "attr": {"_grappler_ArithmeticOptimizer_MinimizeBroadcasts": {"b": true}, "T": {"type": "DT_FLOAT"}}}, {"name": "FeatureExtractor/MobilenetV3/expanded_conv_5/project/BatchNorm/FusedBatchNormV3", "op": "_FusedConv2D", "input": ["FeatureExtractor/MobilenetV3/expanded_conv_5/squeeze_excite/mul", "FeatureExtractor/MobilenetV3/expanded_conv_5/project/Conv2D_weights", "FeatureExtractor/MobilenetV3/expanded_conv_5/project/Conv2D_bn_offset"], "device": "/device:CPU:0", "attr": {"fused_ops": {"list": {"s": ["Qmlhc0FkZA=="]}}, "use_cudnn_on_gpu": {"b": true}, "T": {"type": "DT_FLOAT"}, "epsilon": {"f": 0.0}, "strides": {"list": {"i": ["1", "1", "1", "1"]}}, "num_args": {"i": "1"}, "data_format": {"s": "TkhXQw=="}, "padding": {"s": "U0FNRQ=="}, "dilations": {"list": {"i": ["1", "1", "1", "1"]}}, "explicit_paddings": {"list": {}}}}, {"name": "FeatureExtractor/MobilenetV3/expanded_conv_5/add", "op": "AddV2", "input": ["FeatureExtractor/MobilenetV3/expanded_conv_5/project/BatchNorm/FusedBatchNormV3", "FeatureExtractor/MobilenetV3/expanded_conv_4/add"], "attr": {"T": {"type": "DT_FLOAT"}}}, {"name": "FeatureExtractor/MobilenetV3/expanded_conv_6/expand/BatchNorm/FusedBatchNormV3", "op": "_FusedConv2D", "input": ["FeatureExtractor/MobilenetV3/expanded_conv_5/add", "FeatureExtractor/MobilenetV3/expanded_conv_6/expand/Conv2D_weights", "FeatureExtractor/MobilenetV3/expanded_conv_6/expand/Conv2D_bn_offset"], "device": "/device:CPU:0", "attr": {"data_format": {"s": "TkhXQw=="}, "explicit_paddings": {"list": {}}, "strides": {"list": {"i": ["1", "1", "1", "1"]}}, "epsilon": {"f": 0.0}, "T": {"type": "DT_FLOAT"}, "num_args": {"i": "1"}, "padding": {"s": "U0FNRQ=="}, "fused_ops": {"list": {"s": ["Qmlhc0FkZA=="]}}, "use_cudnn_on_gpu": {"b": true}, "dilations": {"list": {"i": ["1", "1", "1", "1"]}}}}, {"name": "FeatureExtractor/MobilenetV3/expanded_conv_6/expand/hard_swish/mul", "op": "Mul", "input": ["FeatureExtractor/MobilenetV3/expanded_conv_6/expand/hard_swish/mul_1/y", "FeatureExtractor/MobilenetV3/expanded_conv_6/expand/BatchNorm/FusedBatchNormV3"], "attr": {"T": {"type": "DT_FLOAT"}, "_grappler_ArithmeticOptimizer_MinimizeBroadcasts": {"b": true}}}, {"name": "FeatureExtractor/MobilenetV3/expanded_conv_6/expand/hard_swish/add", "op": "AddV2", "input": ["FeatureExtractor/MobilenetV3/expanded_conv_6/expand/BatchNorm/FusedBatchNormV3", "FeatureExtractor/MobilenetV3/expanded_conv_6/expand/hard_swish/add/y"], "attr": {"T": {"type": "DT_FLOAT"}}}, {"name": "FeatureExtractor/MobilenetV3/expanded_conv_6/expand/hard_swish/Relu6", "op": "Relu6", "input": ["FeatureExtractor/MobilenetV3/expanded_conv_6/expand/hard_swish/add"], "attr": {"T": {"type": "DT_FLOAT"}}}, {"name": "FeatureExtractor/MobilenetV3/expanded_conv_6/expand/hard_swish/mul_1", "op": "Mul", "input": ["FeatureExtractor/MobilenetV3/expanded_conv_6/expand/hard_swish/mul", "FeatureExtractor/MobilenetV3/expanded_conv_6/expand/hard_swish/Relu6"], "attr": {"T": {"type": "DT_FLOAT"}, "_grappler_ArithmeticOptimizer_MinimizeBroadcasts": {"b": true}}}, {"name": "FeatureExtractor/MobilenetV3/expanded_conv_6/depthwise/depthwise", "op": "FusedDepthwiseConv2dNative", "input": ["FeatureExtractor/MobilenetV3/expanded_conv_6/expand/hard_swish/mul_1", "FeatureExtractor/MobilenetV3/expanded_conv_6/depthwise/depthwise_weights", "FeatureExtractor/MobilenetV3/expanded_conv_6/depthwise/depthwise_bn_offset"], "attr": {"data_format": {"s": "TkhXQw=="}, "T": {"type": "DT_FLOAT"}, "fused_ops": {"list": {"s": ["Qmlhc0FkZA=="]}}, "strides": {"list": {"i": ["1", "1", "1", "1"]}}, "padding": {"s": "U0FNRQ=="}, "explicit_paddings": {"list": {}}, "dilations": {"list": {"i": ["1", "1", "1", "1"]}}, "num_args": {"i": "1"}}}, {"name": "FeatureExtractor/MobilenetV3/expanded_conv_6/depthwise/hard_swish/mul", "op": "Mul", "input": ["FeatureExtractor/MobilenetV3/expanded_conv_6/depthwise/hard_swish/mul_1/y", "FeatureExtractor/MobilenetV3/expanded_conv_6/depthwise/depthwise"], "attr": {"_grappler_ArithmeticOptimizer_MinimizeBroadcasts": {"b": true}, "T": {"type": "DT_FLOAT"}}}, {"name": "FeatureExtractor/MobilenetV3/expanded_conv_6/depthwise/hard_swish/add", "op": "AddV2", "input": ["FeatureExtractor/MobilenetV3/expanded_conv_6/depthwise/depthwise", "FeatureExtractor/MobilenetV3/expanded_conv_6/depthwise/hard_swish/add/y"], "attr": {"T": {"type": "DT_FLOAT"}}}, {"name": "FeatureExtractor/MobilenetV3/expanded_conv_6/depthwise/hard_swish/Relu6", "op": "Relu6", "input": ["FeatureExtractor/MobilenetV3/expanded_conv_6/depthwise/hard_swish/add"], "attr": {"T": {"type": "DT_FLOAT"}}}, {"name": "FeatureExtractor/MobilenetV3/expanded_conv_6/depthwise/hard_swish/mul_1", "op": "Mul", "input": ["FeatureExtractor/MobilenetV3/expanded_conv_6/depthwise/hard_swish/mul", "FeatureExtractor/MobilenetV3/expanded_conv_6/depthwise/hard_swish/Relu6"], "attr": {"T": {"type": "DT_FLOAT"}, "_grappler_ArithmeticOptimizer_MinimizeBroadcasts": {"b": true}}}, {"name": "FeatureExtractor/MobilenetV3/expanded_conv_6/squeeze_excite/Mean", "op": "Mean", "input": ["FeatureExtractor/MobilenetV3/expanded_conv_6/depthwise/hard_swish/mul_1", "FeatureExtractor/MobilenetV3/expanded_conv_6/squeeze_excite/Mean/reduction_indices"], "attr": {"Tidx": {"type": "DT_INT32"}, "keep_dims": {"b": true}, "T": {"type": "DT_FLOAT"}}}, {"name": "FeatureExtractor/MobilenetV3/expanded_conv_6/squeeze_excite/Conv/Relu", "op": "_FusedConv2D", "input": ["FeatureExtractor/MobilenetV3/expanded_conv_6/squeeze_excite/Mean", "FeatureExtractor/MobilenetV3/expanded_conv_6/squeeze_excite/Conv/weights", "FeatureExtractor/MobilenetV3/expanded_conv_6/squeeze_excite/Conv/biases"], "device": "/device:CPU:0", "attr": {"use_cudnn_on_gpu": {"b": true}, "strides": {"list": {"i": ["1", "1", "1", "1"]}}, "fused_ops": {"list": {"s": ["Qmlhc0FkZA==", "UmVsdQ=="]}}, "epsilon": {"f": 0.0}, "data_format": {"s": "TkhXQw=="}, "dilations": {"list": {"i": ["1", "1", "1", "1"]}}, "T": {"type": "DT_FLOAT"}, "explicit_paddings": {"list": {}}, "num_args": {"i": "1"}, "padding": {"s": "U0FNRQ=="}}}, {"name": "FeatureExtractor/MobilenetV3/expanded_conv_6/squeeze_excite/Conv_1/BiasAdd", "op": "_FusedConv2D", "input": ["FeatureExtractor/MobilenetV3/expanded_conv_6/squeeze_excite/Conv/Relu", "FeatureExtractor/MobilenetV3/expanded_conv_6/squeeze_excite/Conv_1/weights", "FeatureExtractor/MobilenetV3/expanded_conv_6/squeeze_excite/Conv_1/biases"], "device": "/device:CPU:0", "attr": {"explicit_paddings": {"list": {}}, "T": {"type": "DT_FLOAT"}, "padding": {"s": "U0FNRQ=="}, "epsilon": {"f": 0.0}, "strides": {"list": {"i": ["1", "1", "1", "1"]}}, "num_args": {"i": "1"}, "dilations": {"list": {"i": ["1", "1", "1", "1"]}}, "use_cudnn_on_gpu": {"b": true}, "data_format": {"s": "TkhXQw=="}, "fused_ops": {"list": {"s": ["Qmlhc0FkZA=="]}}}}, {"name": "FeatureExtractor/MobilenetV3/expanded_conv_6/squeeze_excite/Conv_1/add", "op": "AddV2", "input": ["FeatureExtractor/MobilenetV3/expanded_conv_6/squeeze_excite/Conv_1/BiasAdd", "FeatureExtractor/MobilenetV3/expanded_conv_6/squeeze_excite/Conv_1/add/y"], "attr": {"T": {"type": "DT_FLOAT"}}}, {"name": "FeatureExtractor/MobilenetV3/expanded_conv_6/squeeze_excite/Conv_1/Relu6", "op": "Relu6", "input": ["FeatureExtractor/MobilenetV3/expanded_conv_6/squeeze_excite/Conv_1/add"], "attr": {"T": {"type": "DT_FLOAT"}}}, {"name": "FeatureExtractor/MobilenetV3/expanded_conv_6/squeeze_excite/Conv_1/mul", "op": "Mul", "input": ["FeatureExtractor/MobilenetV3/expanded_conv_6/squeeze_excite/Conv_1/mul/y", "FeatureExtractor/MobilenetV3/expanded_conv_6/squeeze_excite/Conv_1/Relu6"], "attr": {"T": {"type": "DT_FLOAT"}, "_grappler_ArithmeticOptimizer_MinimizeBroadcasts": {"b": true}}}, {"name": "FeatureExtractor/MobilenetV3/expanded_conv_6/squeeze_excite/mul", "op": "Mul", "input": ["FeatureExtractor/MobilenetV3/expanded_conv_6/squeeze_excite/Conv_1/mul", "FeatureExtractor/MobilenetV3/expanded_conv_6/depthwise/hard_swish/mul_1"], "attr": {"T": {"type": "DT_FLOAT"}, "_grappler_ArithmeticOptimizer_MinimizeBroadcasts": {"b": true}}}, {"name": "FeatureExtractor/MobilenetV3/expanded_conv_6/project/BatchNorm/FusedBatchNormV3", "op": "_FusedConv2D", "input": ["FeatureExtractor/MobilenetV3/expanded_conv_6/squeeze_excite/mul", "FeatureExtractor/MobilenetV3/expanded_conv_6/project/Conv2D_weights", "FeatureExtractor/MobilenetV3/expanded_conv_6/project/Conv2D_bn_offset"], "device": "/device:CPU:0", "attr": {"T": {"type": "DT_FLOAT"}, "explicit_paddings": {"list": {}}, "fused_ops": {"list": {"s": ["Qmlhc0FkZA=="]}}, "use_cudnn_on_gpu": {"b": true}, "epsilon": {"f": 0.0}, "strides": {"list": {"i": ["1", "1", "1", "1"]}}, "dilations": {"list": {"i": ["1", "1", "1", "1"]}}, "padding": {"s": "U0FNRQ=="}, "num_args": {"i": "1"}, "data_format": {"s": "TkhXQw=="}}}, {"name": "FeatureExtractor/MobilenetV3/expanded_conv_7/expand/BatchNorm/FusedBatchNormV3", "op": "_FusedConv2D", "input": ["FeatureExtractor/MobilenetV3/expanded_conv_6/project/BatchNorm/FusedBatchNormV3", "FeatureExtractor/MobilenetV3/expanded_conv_7/expand/Conv2D_weights", "FeatureExtractor/MobilenetV3/expanded_conv_7/expand/Conv2D_bn_offset"], "device": "/device:CPU:0", "attr": {"use_cudnn_on_gpu": {"b": true}, "dilations": {"list": {"i": ["1", "1", "1", "1"]}}, "data_format": {"s": "TkhXQw=="}, "epsilon": {"f": 0.0}, "T": {"type": "DT_FLOAT"}, "fused_ops": {"list": {"s": ["Qmlhc0FkZA=="]}}, "strides": {"list": {"i": ["1", "1", "1", "1"]}}, "explicit_paddings": {"list": {}}, "num_args": {"i": "1"}, "padding": {"s": "U0FNRQ=="}}}, {"name": "FeatureExtractor/MobilenetV3/expanded_conv_7/expand/hard_swish/mul", "op": "Mul", "input": ["FeatureExtractor/MobilenetV3/expanded_conv_7/expand/hard_swish/mul_1/y", "FeatureExtractor/MobilenetV3/expanded_conv_7/expand/BatchNorm/FusedBatchNormV3"], "attr": {"T": {"type": "DT_FLOAT"}, "_grappler_ArithmeticOptimizer_MinimizeBroadcasts": {"b": true}}}, {"name": "FeatureExtractor/MobilenetV3/expanded_conv_7/expand/hard_swish/add", "op": "AddV2", "input": ["FeatureExtractor/MobilenetV3/expanded_conv_7/expand/BatchNorm/FusedBatchNormV3", "FeatureExtractor/MobilenetV3/expanded_conv_7/expand/hard_swish/add/y"], "attr": {"T": {"type": "DT_FLOAT"}}}, {"name": "FeatureExtractor/MobilenetV3/expanded_conv_7/expand/hard_swish/Relu6", "op": "Relu6", "input": ["FeatureExtractor/MobilenetV3/expanded_conv_7/expand/hard_swish/add"], "attr": {"T": {"type": "DT_FLOAT"}}}, {"name": "FeatureExtractor/MobilenetV3/expanded_conv_7/expand/hard_swish/mul_1", "op": "Mul", "input": ["FeatureExtractor/MobilenetV3/expanded_conv_7/expand/hard_swish/mul", "FeatureExtractor/MobilenetV3/expanded_conv_7/expand/hard_swish/Relu6"], "attr": {"T": {"type": "DT_FLOAT"}, "_grappler_ArithmeticOptimizer_MinimizeBroadcasts": {"b": true}}}, {"name": "FeatureExtractor/MobilenetV3/expanded_conv_7/depthwise/depthwise", "op": "FusedDepthwiseConv2dNative", "input": ["FeatureExtractor/MobilenetV3/expanded_conv_7/expand/hard_swish/mul_1", "FeatureExtractor/MobilenetV3/expanded_conv_7/depthwise/depthwise_weights", "FeatureExtractor/MobilenetV3/expanded_conv_7/depthwise/depthwise_bn_offset"], "attr": {"explicit_paddings": {"list": {}}, "padding": {"s": "U0FNRQ=="}, "T": {"type": "DT_FLOAT"}, "fused_ops": {"list": {"s": ["Qmlhc0FkZA=="]}}, "strides": {"list": {"i": ["1", "1", "1", "1"]}}, "dilations": {"list": {"i": ["1", "1", "1", "1"]}}, "data_format": {"s": "TkhXQw=="}, "num_args": {"i": "1"}}}, {"name": "FeatureExtractor/MobilenetV3/expanded_conv_7/depthwise/hard_swish/mul", "op": "Mul", "input": ["FeatureExtractor/MobilenetV3/expanded_conv_7/depthwise/hard_swish/mul_1/y", "FeatureExtractor/MobilenetV3/expanded_conv_7/depthwise/depthwise"], "attr": {"T": {"type": "DT_FLOAT"}, "_grappler_ArithmeticOptimizer_MinimizeBroadcasts": {"b": true}}}, {"name": "FeatureExtractor/MobilenetV3/expanded_conv_7/depthwise/hard_swish/add", "op": "AddV2", "input": ["FeatureExtractor/MobilenetV3/expanded_conv_7/depthwise/depthwise", "FeatureExtractor/MobilenetV3/expanded_conv_7/depthwise/hard_swish/add/y"], "attr": {"T": {"type": "DT_FLOAT"}}}, {"name": "FeatureExtractor/MobilenetV3/expanded_conv_7/depthwise/hard_swish/Relu6", "op": "Relu6", "input": ["FeatureExtractor/MobilenetV3/expanded_conv_7/depthwise/hard_swish/add"], "attr": {"T": {"type": "DT_FLOAT"}}}, {"name": "FeatureExtractor/MobilenetV3/expanded_conv_7/depthwise/hard_swish/mul_1", "op": "Mul", "input": ["FeatureExtractor/MobilenetV3/expanded_conv_7/depthwise/hard_swish/mul", "FeatureExtractor/MobilenetV3/expanded_conv_7/depthwise/hard_swish/Relu6"], "attr": {"T": {"type": "DT_FLOAT"}, "_grappler_ArithmeticOptimizer_MinimizeBroadcasts": {"b": true}}}, {"name": "FeatureExtractor/MobilenetV3/expanded_conv_7/squeeze_excite/Mean", "op": "Mean", "input": ["FeatureExtractor/MobilenetV3/expanded_conv_7/depthwise/hard_swish/mul_1", "FeatureExtractor/MobilenetV3/expanded_conv_7/squeeze_excite/Mean/reduction_indices"], "attr": {"keep_dims": {"b": true}, "T": {"type": "DT_FLOAT"}, "Tidx": {"type": "DT_INT32"}}}, {"name": "FeatureExtractor/MobilenetV3/expanded_conv_7/squeeze_excite/Conv/Relu", "op": "_FusedConv2D", "input": ["FeatureExtractor/MobilenetV3/expanded_conv_7/squeeze_excite/Mean", "FeatureExtractor/MobilenetV3/expanded_conv_7/squeeze_excite/Conv/weights", "FeatureExtractor/MobilenetV3/expanded_conv_7/squeeze_excite/Conv/biases"], "device": "/device:CPU:0", "attr": {"epsilon": {"f": 0.0}, "data_format": {"s": "TkhXQw=="}, "num_args": {"i": "1"}, "fused_ops": {"list": {"s": ["Qmlhc0FkZA==", "UmVsdQ=="]}}, "explicit_paddings": {"list": {}}, "strides": {"list": {"i": ["1", "1", "1", "1"]}}, "padding": {"s": "U0FNRQ=="}, "use_cudnn_on_gpu": {"b": true}, "dilations": {"list": {"i": ["1", "1", "1", "1"]}}, "T": {"type": "DT_FLOAT"}}}, {"name": "FeatureExtractor/MobilenetV3/expanded_conv_7/squeeze_excite/Conv_1/BiasAdd", "op": "_FusedConv2D", "input": ["FeatureExtractor/MobilenetV3/expanded_conv_7/squeeze_excite/Conv/Relu", "FeatureExtractor/MobilenetV3/expanded_conv_7/squeeze_excite/Conv_1/weights", "FeatureExtractor/MobilenetV3/expanded_conv_7/squeeze_excite/Conv_1/biases"], "device": "/device:CPU:0", "attr": {"dilations": {"list": {"i": ["1", "1", "1", "1"]}}, "num_args": {"i": "1"}, "data_format": {"s": "TkhXQw=="}, "padding": {"s": "U0FNRQ=="}, "explicit_paddings": {"list": {}}, "use_cudnn_on_gpu": {"b": true}, "fused_ops": {"list": {"s": ["Qmlhc0FkZA=="]}}, "epsilon": {"f": 0.0}, "T": {"type": "DT_FLOAT"}, "strides": {"list": {"i": ["1", "1", "1", "1"]}}}}, {"name": "FeatureExtractor/MobilenetV3/expanded_conv_7/squeeze_excite/Conv_1/add", "op": "AddV2", "input": ["FeatureExtractor/MobilenetV3/expanded_conv_7/squeeze_excite/Conv_1/BiasAdd", "FeatureExtractor/MobilenetV3/expanded_conv_7/squeeze_excite/Conv_1/add/y"], "attr": {"T": {"type": "DT_FLOAT"}}}, {"name": "FeatureExtractor/MobilenetV3/expanded_conv_7/squeeze_excite/Conv_1/Relu6", "op": "Relu6", "input": ["FeatureExtractor/MobilenetV3/expanded_conv_7/squeeze_excite/Conv_1/add"], "attr": {"T": {"type": "DT_FLOAT"}}}, {"name": "FeatureExtractor/MobilenetV3/expanded_conv_7/squeeze_excite/Conv_1/mul", "op": "Mul", "input": ["FeatureExtractor/MobilenetV3/expanded_conv_7/squeeze_excite/Conv_1/mul/y", "FeatureExtractor/MobilenetV3/expanded_conv_7/squeeze_excite/Conv_1/Relu6"], "attr": {"T": {"type": "DT_FLOAT"}, "_grappler_ArithmeticOptimizer_MinimizeBroadcasts": {"b": true}}}, {"name": "FeatureExtractor/MobilenetV3/expanded_conv_7/squeeze_excite/mul", "op": "Mul", "input": ["FeatureExtractor/MobilenetV3/expanded_conv_7/squeeze_excite/Conv_1/mul", "FeatureExtractor/MobilenetV3/expanded_conv_7/depthwise/hard_swish/mul_1"], "attr": {"_grappler_ArithmeticOptimizer_MinimizeBroadcasts": {"b": true}, "T": {"type": "DT_FLOAT"}}}, {"name": "FeatureExtractor/MobilenetV3/expanded_conv_7/project/BatchNorm/FusedBatchNormV3", "op": "_FusedConv2D", "input": ["FeatureExtractor/MobilenetV3/expanded_conv_7/squeeze_excite/mul", "FeatureExtractor/MobilenetV3/expanded_conv_7/project/Conv2D_weights", "FeatureExtractor/MobilenetV3/expanded_conv_7/project/Conv2D_bn_offset"], "device": "/device:CPU:0", "attr": {"use_cudnn_on_gpu": {"b": true}, "num_args": {"i": "1"}, "T": {"type": "DT_FLOAT"}, "epsilon": {"f": 0.0}, "fused_ops": {"list": {"s": ["Qmlhc0FkZA=="]}}, "data_format": {"s": "TkhXQw=="}, "explicit_paddings": {"list": {}}, "dilations": {"list": {"i": ["1", "1", "1", "1"]}}, "padding": {"s": "U0FNRQ=="}, "strides": {"list": {"i": ["1", "1", "1", "1"]}}}}, {"name": "FeatureExtractor/MobilenetV3/expanded_conv_7/add", "op": "AddV2", "input": ["FeatureExtractor/MobilenetV3/expanded_conv_7/project/BatchNorm/FusedBatchNormV3", "FeatureExtractor/MobilenetV3/expanded_conv_6/project/BatchNorm/FusedBatchNormV3"], "attr": {"T": {"type": "DT_FLOAT"}}}, {"name": "FeatureExtractor/MobilenetV3/expanded_conv_8/expand/BatchNorm/FusedBatchNormV3", "op": "_FusedConv2D", "input": ["FeatureExtractor/MobilenetV3/expanded_conv_7/add", "FeatureExtractor/MobilenetV3/expanded_conv_8/expand/Conv2D_weights", "FeatureExtractor/MobilenetV3/expanded_conv_8/expand/Conv2D_bn_offset"], "device": "/device:CPU:0", "attr": {"explicit_paddings": {"list": {}}, "dilations": {"list": {"i": ["1", "1", "1", "1"]}}, "num_args": {"i": "1"}, "T": {"type": "DT_FLOAT"}, "strides": {"list": {"i": ["1", "1", "1", "1"]}}, "use_cudnn_on_gpu": {"b": true}, "data_format": {"s": "TkhXQw=="}, "fused_ops": {"list": {"s": ["Qmlhc0FkZA=="]}}, "padding": {"s": "U0FNRQ=="}, "epsilon": {"f": 0.0}}}, {"name": "FeatureExtractor/MobilenetV3/expanded_conv_8/expand/hard_swish/mul", "op": "Mul", "input": ["FeatureExtractor/MobilenetV3/expanded_conv_8/expand/hard_swish/mul_1/y", "FeatureExtractor/MobilenetV3/expanded_conv_8/expand/BatchNorm/FusedBatchNormV3"], "attr": {"T": {"type": "DT_FLOAT"}, "_grappler_ArithmeticOptimizer_MinimizeBroadcasts": {"b": true}}}, {"name": "FeatureExtractor/MobilenetV3/expanded_conv_8/expand/hard_swish/add", "op": "AddV2", "input": ["FeatureExtractor/MobilenetV3/expanded_conv_8/expand/BatchNorm/FusedBatchNormV3", "FeatureExtractor/MobilenetV3/expanded_conv_8/expand/hard_swish/add/y"], "attr": {"T": {"type": "DT_FLOAT"}}}, {"name": "FeatureExtractor/MobilenetV3/expanded_conv_8/expand/hard_swish/Relu6", "op": "Relu6", "input": ["FeatureExtractor/MobilenetV3/expanded_conv_8/expand/hard_swish/add"], "attr": {"T": {"type": "DT_FLOAT"}}}, {"name": "FeatureExtractor/MobilenetV3/expanded_conv_8/expand/hard_swish/mul_1", "op": "Mul", "input": ["FeatureExtractor/MobilenetV3/expanded_conv_8/expand/hard_swish/mul", "FeatureExtractor/MobilenetV3/expanded_conv_8/expand/hard_swish/Relu6"], "attr": {"T": {"type": "DT_FLOAT"}, "_grappler_ArithmeticOptimizer_MinimizeBroadcasts": {"b": true}}}, {"name": "BoxPredictor_0/Shape", "op": "Shape", "input": ["FeatureExtractor/MobilenetV3/expanded_conv_8/expand/hard_swish/mul_1"], "attr": {"out_type": {"type": "DT_INT32"}, "T": {"type": "DT_FLOAT"}}}, {"name": "BoxPredictor_0/Shape_1", "op": "Shape", "input": ["FeatureExtractor/MobilenetV3/expanded_conv_8/expand/hard_swish/mul_1"], "attr": {"T": {"type": "DT_FLOAT"}, "out_type": {"type": "DT_INT32"}}}, {"name": "BoxPredictor_0/BoxEncodingPredictor_depthwise/depthwise", "op": "FusedDepthwiseConv2dNative", "input": ["FeatureExtractor/MobilenetV3/expanded_conv_8/expand/hard_swish/mul_1", "BoxPredictor_0/BoxEncodingPredictor_depthwise/depthwise_weights", "BoxPredictor_0/BoxEncodingPredictor_depthwise/depthwise_bn_offset"], "attr": {"strides": {"list": {"i": ["1", "1", "1", "1"]}}, "padding": {"s": "U0FNRQ=="}, "fused_ops": {"list": {"s": ["Qmlhc0FkZA==", "UmVsdTY="]}}, "num_args": {"i": "1"}, "dilations": {"list": {"i": ["1", "1", "1", "1"]}}, "T": {"type": "DT_FLOAT"}, "data_format": {"s": "TkhXQw=="}, "explicit_paddings": {"list": {}}}}, {"name": "BoxPredictor_0/ClassPredictor_depthwise/depthwise", "op": "FusedDepthwiseConv2dNative", "input": ["FeatureExtractor/MobilenetV3/expanded_conv_8/expand/hard_swish/mul_1", "BoxPredictor_0/ClassPredictor_depthwise/depthwise_weights", "BoxPredictor_0/ClassPredictor_depthwise/depthwise_bn_offset"], "attr": {"fused_ops": {"list": {"s": ["Qmlhc0FkZA==", "UmVsdTY="]}}, "data_format": {"s": "TkhXQw=="}, "num_args": {"i": "1"}, "strides": {"list": {"i": ["1", "1", "1", "1"]}}, "explicit_paddings": {"list": {}}, "T": {"type": "DT_FLOAT"}, "padding": {"s": "U0FNRQ=="}, "dilations": {"list": {"i": ["1", "1", "1", "1"]}}}}, {"name": "FeatureExtractor/MobilenetV3/expanded_conv_8/depthwise/depthwise", "op": "FusedDepthwiseConv2dNative", "input": ["FeatureExtractor/MobilenetV3/expanded_conv_8/expand/hard_swish/mul_1", "FeatureExtractor/MobilenetV3/expanded_conv_8/depthwise/depthwise_weights", "FeatureExtractor/MobilenetV3/expanded_conv_8/depthwise/depthwise_bn_offset"], "attr": {"data_format": {"s": "TkhXQw=="}, "explicit_paddings": {"list": {}}, "padding": {"s": "U0FNRQ=="}, "num_args": {"i": "1"}, "strides": {"list": {"i": ["1", "2", "2", "1"]}}, "dilations": {"list": {"i": ["1", "1", "1", "1"]}}, "fused_ops": {"list": {"s": ["Qmlhc0FkZA=="]}}, "T": {"type": "DT_FLOAT"}}}, {"name": "BoxPredictor_0/strided_slice", "op": "StridedSlice", "input": ["BoxPredictor_0/Shape", "BoxPredictor_0/strided_slice/stack", "BoxPredictor_0/strided_slice/stack_1", "BoxPredictor_0/strided_slice/stack_2"], "attr": {"end_mask": {"i": "0"}, "new_axis_mask": {"i": "0"}, "Index": {"type": "DT_INT32"}, "shrink_axis_mask": {"i": "1"}, "ellipsis_mask": {"i": "0"}, "begin_mask": {"i": "0"}, "T": {"type": "DT_INT32"}}}, {"name": "BoxPredictor_0/strided_slice_1", "op": "StridedSlice", "input": ["BoxPredictor_0/Shape_1", "BoxPredictor_0/strided_slice_1/stack", "BoxPredictor_0/strided_slice_1/stack_1", "BoxPredictor_0/strided_slice_1/stack_2"], "attr": {"shrink_axis_mask": {"i": "1"}, "end_mask": {"i": "0"}, "ellipsis_mask": {"i": "0"}, "T": {"type": "DT_INT32"}, "new_axis_mask": {"i": "0"}, "begin_mask": {"i": "0"}, "Index": {"type": "DT_INT32"}}}, {"name": "BoxPredictor_0/Reshape/shape", "op": "Pack", "input": ["BoxPredictor_0/strided_slice", "BoxPredictor_0/Reshape/shape/1", "BoxPredictor_0/Reshape/shape/2", "BoxPredictor_0/Reshape/shape/3"], "attr": {"N": {"i": "4"}, "T": {"type": "DT_INT32"}, "axis": {"i": "0"}}}, {"name": "BoxPredictor_0/Reshape_1/shape", "op": "Pack", "input": ["BoxPredictor_0/strided_slice_1", "BoxPredictor_0/Reshape_1/shape/1", "BoxPredictor_0/Reshape_1/shape/2"], "attr": {"axis": {"i": "0"}, "N": {"i": "3"}, "T": {"type": "DT_INT32"}}}, {"name": "FeatureExtractor/MobilenetV3/expanded_conv_8/depthwise/hard_swish/mul", "op": "Mul", "input": ["FeatureExtractor/MobilenetV3/expanded_conv_8/depthwise/hard_swish/mul_1/y", "FeatureExtractor/MobilenetV3/expanded_conv_8/depthwise/depthwise"], "attr": {"T": {"type": "DT_FLOAT"}, "_grappler_ArithmeticOptimizer_MinimizeBroadcasts": {"b": true}}}, {"name": "FeatureExtractor/MobilenetV3/expanded_conv_8/depthwise/hard_swish/add", "op": "AddV2", "input": ["FeatureExtractor/MobilenetV3/expanded_conv_8/depthwise/depthwise", "FeatureExtractor/MobilenetV3/expanded_conv_8/depthwise/hard_swish/add/y"], "attr": {"T": {"type": "DT_FLOAT"}}}, {"name": "BoxPredictor_0/BoxEncodingPredictor/BiasAdd", "op": "_FusedConv2D", "input": ["BoxPredictor_0/BoxEncodingPredictor_depthwise/depthwise", "BoxPredictor_0/BoxEncodingPredictor/weights", "BoxPredictor_0/BoxEncodingPredictor/biases"], "device": "/device:CPU:0", "attr": {"strides": {"list": {"i": ["1", "1", "1", "1"]}}, "fused_ops": {"list": {"s": ["Qmlhc0FkZA=="]}}, "padding": {"s": "U0FNRQ=="}, "dilations": {"list": {"i": ["1", "1", "1", "1"]}}, "data_format": {"s": "TkhXQw=="}, "explicit_paddings": {"list": {}}, "use_cudnn_on_gpu": {"b": true}, "num_args": {"i": "1"}, "T": {"type": "DT_FLOAT"}, "epsilon": {"f": 0.0}}}, {"name": "BoxPredictor_0/ClassPredictor/BiasAdd", "op": "_FusedConv2D", "input": ["BoxPredictor_0/ClassPredictor_depthwise/depthwise", "BoxPredictor_0/ClassPredictor/weights", "BoxPredictor_0/ClassPredictor/biases"], "device": "/device:CPU:0", "attr": {"fused_ops": {"list": {"s": ["Qmlhc0FkZA=="]}}, "use_cudnn_on_gpu": {"b": true}, "padding": {"s": "U0FNRQ=="}, "T": {"type": "DT_FLOAT"}, "num_args": {"i": "1"}, "data_format": {"s": "TkhXQw=="}, "dilations": {"list": {"i": ["1", "1", "1", "1"]}}, "explicit_paddings": {"list": {}}, "strides": {"list": {"i": ["1", "1", "1", "1"]}}, "epsilon": {"f": 0.0}}}, {"name": "FeatureExtractor/MobilenetV3/expanded_conv_8/depthwise/hard_swish/Relu6", "op": "Relu6", "input": ["FeatureExtractor/MobilenetV3/expanded_conv_8/depthwise/hard_swish/add"], "attr": {"T": {"type": "DT_FLOAT"}}}, {"name": "BoxPredictor_0/Reshape", "op": "Reshape", "input": ["BoxPredictor_0/BoxEncodingPredictor/BiasAdd", "BoxPredictor_0/Reshape/shape"], "attr": {"Tshape": {"type": "DT_INT32"}, "T": {"type": "DT_FLOAT"}}}, {"name": "BoxPredictor_0/Reshape_1", "op": "Reshape", "input": ["BoxPredictor_0/ClassPredictor/BiasAdd", "BoxPredictor_0/Reshape_1/shape"], "attr": {"Tshape": {"type": "DT_INT32"}, "T": {"type": "DT_FLOAT"}}}, {"name": "FeatureExtractor/MobilenetV3/expanded_conv_8/depthwise/hard_swish/mul_1", "op": "Mul", "input": ["FeatureExtractor/MobilenetV3/expanded_conv_8/depthwise/hard_swish/mul", "FeatureExtractor/MobilenetV3/expanded_conv_8/depthwise/hard_swish/Relu6"], "attr": {"T": {"type": "DT_FLOAT"}, "_grappler_ArithmeticOptimizer_MinimizeBroadcasts": {"b": true}}}, {"name": "FeatureExtractor/MobilenetV3/expanded_conv_8/squeeze_excite/Mean", "op": "Mean", "input": ["FeatureExtractor/MobilenetV3/expanded_conv_8/depthwise/hard_swish/mul_1", "FeatureExtractor/MobilenetV3/expanded_conv_8/squeeze_excite/Mean/reduction_indices"], "attr": {"keep_dims": {"b": true}, "T": {"type": "DT_FLOAT"}, "Tidx": {"type": "DT_INT32"}}}, {"name": "FeatureExtractor/MobilenetV3/expanded_conv_8/squeeze_excite/Conv/Relu", "op": "_FusedConv2D", "input": ["FeatureExtractor/MobilenetV3/expanded_conv_8/squeeze_excite/Mean", "FeatureExtractor/MobilenetV3/expanded_conv_8/squeeze_excite/Conv/weights", "FeatureExtractor/MobilenetV3/expanded_conv_8/squeeze_excite/Conv/biases"], "device": "/device:CPU:0", "attr": {"T": {"type": "DT_FLOAT"}, "num_args": {"i": "1"}, "use_cudnn_on_gpu": {"b": true}, "explicit_paddings": {"list": {}}, "padding": {"s": "U0FNRQ=="}, "strides": {"list": {"i": ["1", "1", "1", "1"]}}, "fused_ops": {"list": {"s": ["Qmlhc0FkZA==", "UmVsdQ=="]}}, "data_format": {"s": "TkhXQw=="}, "dilations": {"list": {"i": ["1", "1", "1", "1"]}}, "epsilon": {"f": 0.0}}}, {"name": "FeatureExtractor/MobilenetV3/expanded_conv_8/squeeze_excite/Conv_1/BiasAdd", "op": "_FusedConv2D", "input": ["FeatureExtractor/MobilenetV3/expanded_conv_8/squeeze_excite/Conv/Relu", "FeatureExtractor/MobilenetV3/expanded_conv_8/squeeze_excite/Conv_1/weights", "FeatureExtractor/MobilenetV3/expanded_conv_8/squeeze_excite/Conv_1/biases"], "device": "/device:CPU:0", "attr": {"epsilon": {"f": 0.0}, "padding": {"s": "U0FNRQ=="}, "data_format": {"s": "TkhXQw=="}, "num_args": {"i": "1"}, "explicit_paddings": {"list": {}}, "fused_ops": {"list": {"s": ["Qmlhc0FkZA=="]}}, "dilations": {"list": {"i": ["1", "1", "1", "1"]}}, "strides": {"list": {"i": ["1", "1", "1", "1"]}}, "T": {"type": "DT_FLOAT"}, "use_cudnn_on_gpu": {"b": true}}}, {"name": "FeatureExtractor/MobilenetV3/expanded_conv_8/squeeze_excite/Conv_1/add", "op": "AddV2", "input": ["FeatureExtractor/MobilenetV3/expanded_conv_8/squeeze_excite/Conv_1/BiasAdd", "FeatureExtractor/MobilenetV3/expanded_conv_8/squeeze_excite/Conv_1/add/y"], "attr": {"T": {"type": "DT_FLOAT"}}}, {"name": "FeatureExtractor/MobilenetV3/expanded_conv_8/squeeze_excite/Conv_1/Relu6", "op": "Relu6", "input": ["FeatureExtractor/MobilenetV3/expanded_conv_8/squeeze_excite/Conv_1/add"], "attr": {"T": {"type": "DT_FLOAT"}}}, {"name": "FeatureExtractor/MobilenetV3/expanded_conv_8/squeeze_excite/Conv_1/mul", "op": "Mul", "input": ["FeatureExtractor/MobilenetV3/expanded_conv_8/squeeze_excite/Conv_1/mul/y", "FeatureExtractor/MobilenetV3/expanded_conv_8/squeeze_excite/Conv_1/Relu6"], "attr": {"_grappler_ArithmeticOptimizer_MinimizeBroadcasts": {"b": true}, "T": {"type": "DT_FLOAT"}}}, {"name": "FeatureExtractor/MobilenetV3/expanded_conv_8/squeeze_excite/mul", "op": "Mul", "input": ["FeatureExtractor/MobilenetV3/expanded_conv_8/squeeze_excite/Conv_1/mul", "FeatureExtractor/MobilenetV3/expanded_conv_8/depthwise/hard_swish/mul_1"], "attr": {"_grappler_ArithmeticOptimizer_MinimizeBroadcasts": {"b": true}, "T": {"type": "DT_FLOAT"}}}, {"name": "FeatureExtractor/MobilenetV3/expanded_conv_8/project/BatchNorm/FusedBatchNormV3", "op": "_FusedConv2D", "input": ["FeatureExtractor/MobilenetV3/expanded_conv_8/squeeze_excite/mul", "FeatureExtractor/MobilenetV3/expanded_conv_8/project/Conv2D_weights", "FeatureExtractor/MobilenetV3/expanded_conv_8/project/Conv2D_bn_offset"], "device": "/device:CPU:0", "attr": {"num_args": {"i": "1"}, "fused_ops": {"list": {"s": ["Qmlhc0FkZA=="]}}, "use_cudnn_on_gpu": {"b": true}, "padding": {"s": "U0FNRQ=="}, "dilations": {"list": {"i": ["1", "1", "1", "1"]}}, "explicit_paddings": {"list": {}}, "strides": {"list": {"i": ["1", "1", "1", "1"]}}, "epsilon": {"f": 0.0}, "data_format": {"s": "TkhXQw=="}, "T": {"type": "DT_FLOAT"}}}, {"name": "FeatureExtractor/MobilenetV3/expanded_conv_9/expand/BatchNorm/FusedBatchNormV3", "op": "_FusedConv2D", "input": ["FeatureExtractor/MobilenetV3/expanded_conv_8/project/BatchNorm/FusedBatchNormV3", "FeatureExtractor/MobilenetV3/expanded_conv_9/expand/Conv2D_weights", "FeatureExtractor/MobilenetV3/expanded_conv_9/expand/Conv2D_bn_offset"], "device": "/device:CPU:0", "attr": {"strides": {"list": {"i": ["1", "1", "1", "1"]}}, "explicit_paddings"…
_1", "BoxPredictor_5/Reshape_1/shape/1", "BoxPredictor_5/Reshape_1/shape/2"], "attr": {"axis": {"i": "0"}, "T": {"type": "DT_INT32"}, "N": {"i": "3"}}}, {"name": "BoxPredictor_5/BoxEncodingPredictor/BiasAdd", "op": "_FusedConv2D", "input": ["BoxPredictor_5/BoxEncodingPredictor_depthwise/depthwise", "BoxPredictor_5/BoxEncodingPredictor/weights", "BoxPredictor_5/BoxEncodingPredictor/biases"], "device": "/device:CPU:0", "attr": {"data_format": {"s": "TkhXQw=="}, "num_args": {"i": "1"}, "fused_ops": {"list": {"s": ["Qmlhc0FkZA=="]}}, "padding": {"s": "U0FNRQ=="}, "epsilon": {"f": 0.0}, "dilations": {"list": {"i": ["1", "1", "1", "1"]}}, "strides": {"list": {"i": ["1", "1", "1", "1"]}}, "use_cudnn_on_gpu": {"b": true}, "T": {"type": "DT_FLOAT"}, "explicit_paddings": {"list": {}}}}, {"name": "BoxPredictor_5/ClassPredictor/BiasAdd", "op": "_FusedConv2D", "input": ["BoxPredictor_5/ClassPredictor_depthwise/depthwise", "BoxPredictor_5/ClassPredictor/weights", "BoxPredictor_5/ClassPredictor/biases"], "device": "/device:CPU:0", "attr": {"T": {"type": "DT_FLOAT"}, "fused_ops": {"list": {"s": ["Qmlhc0FkZA=="]}}, "use_cudnn_on_gpu": {"b": true}, "epsilon": {"f": 0.0}, "explicit_paddings": {"list": {}}, "padding": {"s": "U0FNRQ=="}, "data_format": {"s": "TkhXQw=="}, "num_args": {"i": "1"}, "dilations": {"list": {"i": ["1", "1", "1", "1"]}}, "strides": {"list": {"i": ["1", "1", "1", "1"]}}}}, {"name": "BoxPredictor_5/Reshape", "op": "Reshape", "input": ["BoxPredictor_5/BoxEncodingPredictor/BiasAdd", "BoxPredictor_5/Reshape/shape"], "attr": {"Tshape": {"type": "DT_INT32"}, "T": {"type": "DT_FLOAT"}}}, {"name": "BoxPredictor_5/Reshape_1", "op": "Reshape", "input": ["BoxPredictor_5/ClassPredictor/BiasAdd", "BoxPredictor_5/Reshape_1/shape"], "attr": {"Tshape": {"type": "DT_INT32"}, "T": {"type": "DT_FLOAT"}}}, {"name": "concat", "op": "ConcatV2", "input": ["BoxPredictor_0/Reshape", "BoxPredictor_1/Reshape", "BoxPredictor_2/Reshape", "BoxPredictor_3/Reshape", "BoxPredictor_4/Reshape", "BoxPredictor_5/Reshape", "concat/axis"], "attr": {"N": {"i": "6"}, "T": {"type": "DT_FLOAT"}, "Tidx": {"type": "DT_INT32"}}}, {"name": "concat_1", "op": "ConcatV2", "input": ["BoxPredictor_0/Reshape_1", "BoxPredictor_1/Reshape_1", "BoxPredictor_2/Reshape_1", "BoxPredictor_3/Reshape_1", "BoxPredictor_4/Reshape_1", "BoxPredictor_5/Reshape_1", "concat_1/axis"], "attr": {"Tidx": {"type": "DT_INT32"}, "T": {"type": "DT_FLOAT"}, "N": {"i": "6"}}}, {"name": "Squeeze", "op": "Squeeze", "input": ["concat"], "attr": {"squeeze_dims": {"list": {"i": ["2"]}}, "T": {"type": "DT_FLOAT"}}}, {"name": "Postprocessor/convert_scores", "op": "Sigmoid", "input": ["concat_1"], "attr": {"T": {"type": "DT_FLOAT"}}}, {"name": "Postprocessor/Reshape_1", "op": "Reshape", "input": ["Squeeze", "Postprocessor/Reshape_1/shape"], "attr": {"T": {"type": "DT_FLOAT"}, "Tshape": {"type": "DT_INT32"}}}, {"name": "Postprocessor/Shape", "op": "Shape", "input": ["Squeeze"], "attr": {"out_type": {"type": "DT_INT32"}, "T": {"type": "DT_FLOAT"}}}, {"name": "Postprocessor/Slice", "op": "Slice", "input": ["Postprocessor/convert_scores", "Postprocessor/Slice/begin", "Postprocessor/Slice/size"], "attr": {"T": {"type": "DT_FLOAT"}, "Index": {"type": "DT_INT32"}}}, {"name": "Postprocessor/Decode/transpose", "op": "Transpose", "input": ["Postprocessor/Reshape_1", "Postprocessor/Decode/transpose/perm"], "attr": {"T": {"type": "DT_FLOAT"}, "Tperm": {"type": "DT_INT32"}}}, {"name": "Postprocessor/strided_slice", "op": "StridedSlice", "input": ["Postprocessor/Shape", "Postprocessor/strided_slice/stack", "Postprocessor/strided_slice/stack_1", "Postprocessor/strided_slice/stack_2"], "attr": {"Index": {"type": "DT_INT32"}, "shrink_axis_mask": {"i": "1"}, "ellipsis_mask": {"i": "0"}, "begin_mask": {"i": "0"}, "T": {"type": "DT_INT32"}, "end_mask": {"i": "0"}, "new_axis_mask": {"i": "0"}}}, {"name": "Postprocessor/strided_slice_1", "op": "StridedSlice", "input": ["Postprocessor/Shape", "Postprocessor/strided_slice_1/stack", "Postprocessor/strided_slice_1/stack_1", "Postprocessor/strided_slice_1/stack_2"], "attr": {"end_mask": {"i": "0"}, "begin_mask": {"i": "0"}, "Index": {"type": "DT_INT32"}, "shrink_axis_mask": {"i": "1"}, "ellipsis_mask": {"i": "0"}, "T": {"type": "DT_INT32"}, "new_axis_mask": {"i": "0"}}}, {"name": "Postprocessor/Decode/unstack", "op": "Unpack", "input": ["Postprocessor/Decode/transpose"], "attr": {"num": {"i": "4"}, "axis": {"i": "0"}, "T": {"type": "DT_FLOAT"}}}, {"name": "Postprocessor/Tile/multiples", "op": "Pack", "input": ["Postprocessor/strided_slice", "Postprocessor/Tile/multiples/1", "Postprocessor/Tile/multiples/2"], "attr": {"N": {"i": "3"}, "T": {"type": "DT_INT32"}, "axis": {"i": "0"}}}, {"name": "Postprocessor/stack", "op": "Pack", "input": ["Postprocessor/strided_slice", "Postprocessor/strided_slice_1", "Postprocessor/stack/2"], "attr": {"N": {"i": "3"}, "T": {"type": "DT_INT32"}, "axis": {"i": "0"}}}, {"name": "Postprocessor/Decode/truediv", "op": "Mul", "input": ["Postprocessor/Decode/unstack", "ConstantFolding/Postprocessor/Decode/truediv_recip"], "attr": {"T": {"type": "DT_FLOAT"}}}, {"name": "Postprocessor/Decode/truediv_1", "op": "Mul", "input": ["Postprocessor/Decode/unstack:1", "ConstantFolding/Postprocessor/Decode/truediv_1_recip"], "attr": {"T": {"type": "DT_FLOAT"}}}, {"name": "Postprocessor/Decode/truediv_2", "op": "Mul", "input": ["Postprocessor/Decode/unstack:2", "ConstantFolding/Postprocessor/Decode/truediv_2_recip"], "attr": {"T": {"type": "DT_FLOAT"}}}, {"name": "Postprocessor/Decode/truediv_3", "op": "Mul", "input": ["Postprocessor/Decode/unstack:3", "ConstantFolding/Postprocessor/Decode/truediv_3_recip"], "attr": {"T": {"type": "DT_FLOAT"}}}, {"name": "Postprocessor/Tile", "op": "Tile", "input": ["Postprocessor/ExpandDims", "Postprocessor/Tile/multiples"], "attr": {"Tmultiples": {"type": "DT_INT32"}, "T": {"type": "DT_FLOAT"}}}, {"name": "Postprocessor/Decode/Exp_1", "op": "Exp", "input": ["Postprocessor/Decode/truediv_2"], "attr": {"T": {"type": "DT_FLOAT"}}}, {"name": "Postprocessor/Decode/Exp", "op": "Exp", "input": ["Postprocessor/Decode/truediv_3"], "attr": {"T": {"type": "DT_FLOAT"}}}, {"name": "Postprocessor/Reshape", "op": "Reshape", "input": ["Postprocessor/Tile", "Postprocessor/Reshape/shape"], "attr": {"Tshape": {"type": "DT_INT32"}, "T": {"type": "DT_FLOAT"}}}, {"name": "Postprocessor/Decode/get_center_coordinates_and_sizes/transpose", "op": "Transpose", "input": ["Postprocessor/Reshape", "Postprocessor/Decode/get_center_coordinates_and_sizes/transpose/perm"], "attr": {"T": {"type": "DT_FLOAT"}, "Tperm": {"type": "DT_INT32"}}}, {"name": "Postprocessor/Decode/get_center_coordinates_and_sizes/unstack", "op": "Unpack", "input": ["Postprocessor/Decode/get_center_coordinates_and_sizes/transpose"], "attr": {"T": {"type": "DT_FLOAT"}, "axis": {"i": "0"}, "num": {"i": "4"}}}, {"name": "Postprocessor/Decode/get_center_coordinates_and_sizes/sub_1", "op": "Sub", "input": ["Postprocessor/Decode/get_center_coordinates_and_sizes/unstack:2", "Postprocessor/Decode/get_center_coordinates_and_sizes/unstack"], "attr": {"T": {"type": "DT_FLOAT"}}}, {"name": "Postprocessor/Decode/get_center_coordinates_and_sizes/sub", "op": "Sub", "input": ["Postprocessor/Decode/get_center_coordinates_and_sizes/unstack:3", "Postprocessor/Decode/get_center_coordinates_and_sizes/unstack:1"], "attr": {"T": {"type": "DT_FLOAT"}}}, {"name": "Postprocessor/Decode/mul_2", "op": "Mul", "input": ["Postprocessor/Decode/truediv", "Postprocessor/Decode/get_center_coordinates_and_sizes/sub_1"], "attr": {"T": {"type": "DT_FLOAT"}}}, {"name": "Postprocessor/Decode/get_center_coordinates_and_sizes/truediv", "op": "Mul", "input": ["Postprocessor/Decode/get_center_coordinates_and_sizes/sub_1", "ConstantFolding/Postprocessor/Decode/get_center_coordinates_and_sizes/truediv_recip"], "attr": {"T": {"type": "DT_FLOAT"}}}, {"name": "Postprocessor/Decode/mul_1", "op": "Mul", "input": ["Postprocessor/Decode/Exp_1", "Postprocessor/Decode/get_center_coordinates_and_sizes/sub_1"], "attr": {"T": {"type": "DT_FLOAT"}}}, {"name": "Postprocessor/Decode/mul_3", "op": "Mul", "input": ["Postprocessor/Decode/truediv_1", "Postprocessor/Decode/get_center_coordinates_and_sizes/sub"], "attr": {"T": {"type": "DT_FLOAT"}}}, {"name": "Postprocessor/Decode/get_center_coordinates_and_sizes/truediv_1", "op": "Mul", "input": ["Postprocessor/Decode/get_center_coordinates_and_sizes/sub", "ConstantFolding/Postprocessor/Decode/get_center_coordinates_and_sizes/truediv_1_recip"], "attr": {"T": {"type": "DT_FLOAT"}}}, {"name": "Postprocessor/Decode/mul", "op": "Mul", "input": ["Postprocessor/Decode/Exp", "Postprocessor/Decode/get_center_coordinates_and_sizes/sub"], "attr": {"T": {"type": "DT_FLOAT"}}}, {"name": "Postprocessor/Decode/get_center_coordinates_and_sizes/add", "op": "AddV2", "input": ["Postprocessor/Decode/get_center_coordinates_and_sizes/unstack", "Postprocessor/Decode/get_center_coordinates_and_sizes/truediv"], "attr": {"T": {"type": "DT_FLOAT"}}}, {"name": "Postprocessor/Decode/truediv_4", "op": "Mul", "input": ["Postprocessor/Decode/mul_1", "ConstantFolding/Postprocessor/Decode/truediv_4_recip"], "attr": {"T": {"type": "DT_FLOAT"}}}, {"name": "Postprocessor/Decode/truediv_6", "op": "Mul", "input": ["Postprocessor/Decode/mul_1", "ConstantFolding/Postprocessor/Decode/truediv_6_recip"], "attr": {"T": {"type": "DT_FLOAT"}}}, {"name": "Postprocessor/Decode/get_center_coordinates_and_sizes/add_1", "op": "AddV2", "input": ["Postprocessor/Decode/get_center_coordinates_and_sizes/unstack:1", "Postprocessor/Decode/get_center_coordinates_and_sizes/truediv_1"], "attr": {"T": {"type": "DT_FLOAT"}}}, {"name": "Postprocessor/Decode/truediv_5", "op": "Mul", "input": ["Postprocessor/Decode/mul", "ConstantFolding/Postprocessor/Decode/truediv_5_recip"], "attr": {"T": {"type": "DT_FLOAT"}}}, {"name": "Postprocessor/Decode/truediv_7", "op": "Mul", "input": ["Postprocessor/Decode/mul", "ConstantFolding/Postprocessor/Decode/truediv_7_recip"], "attr": {"T": {"type": "DT_FLOAT"}}}, {"name": "Postprocessor/Decode/add", "op": "AddV2", "input": ["Postprocessor/Decode/mul_2", "Postprocessor/Decode/get_center_coordinates_and_sizes/add"], "attr": {"T": {"type": "DT_FLOAT"}}}, {"name": "Postprocessor/Decode/add_1", "op": "AddV2", "input": ["Postprocessor/Decode/mul_3", "Postprocessor/Decode/get_center_coordinates_and_sizes/add_1"], "attr": {"T": {"type": "DT_FLOAT"}}}, {"name": "Postprocessor/Decode/sub", "op": "Sub", "input": ["Postprocessor/Decode/add", "Postprocessor/Decode/truediv_4"], "attr": {"T": {"type": "DT_FLOAT"}}}, {"name": "Postprocessor/Decode/add_2", "op": "AddV2", "input": ["Postprocessor/Decode/add", "Postprocessor/Decode/truediv_6"], "attr": {"T": {"type": "DT_FLOAT"}}}, {"name": "Postprocessor/Decode/sub_1", "op": "Sub", "input": ["Postprocessor/Decode/add_1", "Postprocessor/Decode/truediv_5"], "attr": {"T": {"type": "DT_FLOAT"}}}, {"name": "Postprocessor/Decode/add_3", "op": "AddV2", "input": ["Postprocessor/Decode/add_1", "Postprocessor/Decode/truediv_7"], "attr": {"T": {"type": "DT_FLOAT"}}}, {"name": "Postprocessor/Decode/stack", "op": "Pack", "input": ["Postprocessor/Decode/sub", "Postprocessor/Decode/sub_1", "Postprocessor/Decode/add_2", "Postprocessor/Decode/add_3"], "attr": {"axis": {"i": "0"}, "N": {"i": "4"}, "T": {"type": "DT_FLOAT"}}}, {"name": "Postprocessor/Decode/transpose_1", "op": "Transpose", "input": ["Postprocessor/Decode/stack", "Postprocessor/Decode/transpose_1/perm"], "attr": {"T": {"type": "DT_FLOAT"}, "Tperm": {"type": "DT_INT32"}}}, {"name": "Postprocessor/Reshape_2", "op": "Reshape", "input": ["Postprocessor/Decode/transpose_1", "Postprocessor/stack"], "attr": {"T": {"type": "DT_FLOAT"}, "Tshape": {"type": "DT_INT32"}}}, {"name": "Postprocessor/ExpandDims_1", "op": "ExpandDims", "input": ["Postprocessor/Reshape_2", "Postprocessor/ExpandDims_1/dim"], "attr": {"Tdim": {"type": "DT_INT32"}, "T": {"type": "DT_FLOAT"}}}], "library": {}, "versions": {}}, "weightsManifest": [{"paths": ["group1-shard1of1.bin"], "weights": [{"name": "ConstantFolding/Postprocessor/Decode/truediv_4_recip", "shape": [], "dtype": "float32"}, {"name": "ConstantFolding/Postprocessor/Decode/truediv_5_recip", "shape": [], "dtype": "float32"}, {"name": "ConstantFolding/Postprocessor/Decode/truediv_recip", "shape": [], "dtype": "float32"}, {"name": "ConstantFolding/Postprocessor/Decode/get_center_coordinates_and_sizes/truediv_recip", "shape": [], "dtype": "float32"}, {"name": "ConstantFolding/Postprocessor/Decode/truediv_2_recip", "shape": [], "dtype": "float32"}, {"name": "ConstantFolding/Postprocessor/Decode/truediv_6_recip", "shape": [], "dtype": "float32"}, {"name": "ConstantFolding/Postprocessor/Decode/truediv_1_recip", "shape": [], "dtype": "float32"}, {"name": "ConstantFolding/Postprocessor/Decode/get_center_coordinates_and_sizes/truediv_1_recip", "shape": [], "dtype": "float32"}, {"name": "Postprocessor/Reshape_1/shape", "shape": [2], "dtype": "int32"}, {"name": "Postprocessor/Decode/transpose/perm", "shape": [2], "dtype": "int32"}, {"name": "ConstantFolding/Postprocessor/Decode/truediv_3_recip", "shape": [], "dtype": "float32"}, {"name": "Postprocessor/ExpandDims", "shape": [1, 2034, 4], "dtype": "float32"}, {"name": "Postprocessor/Tile/multiples/1", "shape": [], "dtype": "int32"}, {"name": "Postprocessor/Tile/multiples/2", "shape": [], "dtype": "int32"}, {"name": "Postprocessor/Reshape/shape", "shape": [2], "dtype": "int32"}, {"name": "Postprocessor/Decode/get_center_coordinates_and_sizes/transpose/perm", "shape": [2], "dtype": "int32"}, {"name": "ConstantFolding/Postprocessor/Decode/truediv_7_recip", "shape": [], "dtype": "float32"}, {"name": "Postprocessor/Decode/transpose_1/perm", "shape": [2], "dtype": "int32"}, {"name": "Postprocessor/strided_slice/stack", "shape": [1], "dtype": "int32"}, {"name": "Postprocessor/strided_slice/stack_1", "shape": [1], "dtype": "int32"}, {"name": "Postprocessor/strided_slice/stack_2", "shape": [1], "dtype": "int32"}, {"name": "BoxPredictor_0/BoxEncodingPredictor/weights", "shape": [1, 1, 288, 12], "dtype": "float32"}, {"name": "BoxPredictor_0/BoxEncodingPredictor/biases", "shape": [12], "dtype": "float32"}, {"name": "BoxPredictor_0/strided_slice/stack", "shape": [1], "dtype": "int32"}, {"name": "BoxPredictor_0/strided_slice/stack_1", "shape": [1], "dtype": "int32"}, {"name": "BoxPredictor_0/strided_slice/stack_2", "shape": [1], "dtype": "int32"}, {"name": "BoxPredictor_0/Reshape/shape/1", "shape": [], "dtype": "int32"}, {"name": "BoxPredictor_0/Reshape/shape/2", "shape": [], "dtype": "int32"}, {"name": "BoxPredictor_0/Reshape/shape/3", "shape": [], "dtype": "int32"}, {"name": "BoxPredictor_1/BoxEncodingPredictor/weights", "shape": [1, 1, 288, 24], "dtype": "float32"}, {"name": "BoxPredictor_1/BoxEncodingPredictor/biases", "shape": [24], "dtype": "float32"}, {"name": "BoxPredictor_1/strided_slice/stack", "shape": [1], "dtype": "int32"}, {"name": "BoxPredictor_1/strided_slice/stack_1", "shape": [1], "dtype": "int32"}, {"name": "BoxPredictor_1/strided_slice/stack_2", "shape": [1], "dtype": "int32"}, {"name": "BoxPredictor_1/Reshape/shape/1", "shape": [], "dtype": "int32"}, {"name": "BoxPredictor_1/Reshape/shape/2", "shape": [], "dtype": "int32"}, {"name": "BoxPredictor_1/Reshape/shape/3", "shape": [], "dtype": "int32"}, {"name": "BoxPredictor_2/BoxEncodingPredictor/weights", "shape": [1, 1, 512, 24], "dtype": "float32"}, {"name": "BoxPredictor_2/BoxEncodingPredictor/biases", "shape": [24], "dtype": "float32"}, {"name": "BoxPredictor_2/strided_slice/stack", "shape": [1], "dtype": "int32"}, {"name": "BoxPredictor_2/strided_slice/stack_1", "shape": [1], "dtype": "int32"}, {"name": "BoxPredictor_2/strided_slice/stack_2", "shape": [1], "dtype": "int32"}, {"name": "BoxPredictor_2/Reshape/shape/1", "shape": [], "dtype": "int32"}, {"name": "BoxPredictor_2/Reshape/shape/2", "shape": [], "dtype": "int32"}, {"name": "BoxPredictor_2/Reshape/shape/3", "shape": [], "dtype": "int32"}, {"name": "BoxPredictor_3/BoxEncodingPredictor/weights", "shape": [1, 1, 256, 24], "dtype": "float32"}, {"name": "BoxPredictor_3/BoxEncodingPredictor/biases", "shape": [24], "dtype": "float32"}, {"name": "BoxPredictor_3/strided_slice/stack", "shape": [1], "dtype": "int32"}, {"name": "BoxPredictor_3/strided_slice/stack_1", "shape": [1], "dtype": "int32"}, {"name": "BoxPredictor_3/strided_slice/stack_2", "shape": [1], "dtype": "int32"}, {"name": "BoxPredictor_3/Reshape/shape/1", "shape": [], "dtype": "int32"}, {"name": "BoxPredictor_3/Reshape/shape/2", "shape": [], "dtype": "int32"}, {"name": "BoxPredictor_3/Reshape/shape/3", "shape": [], "dtype": "int32"}, {"name": "BoxPredictor_4/BoxEncodingPredictor/weights", "shape": [1, 1, 256, 24], "dtype": "float32"}, {"name": "BoxPredictor_4/BoxEncodingPredictor/biases", "shape": [24], "dtype": "float32"}, {"name": "BoxPredictor_4/strided_slice/stack", "shape": [1], "dtype": "int32"}, {"name": "BoxPredictor_4/strided_slice/stack_1", "shape": [1], "dtype": "int32"}, {"name": "BoxPredictor_4/strided_slice/stack_2", "shape": [1], "dtype": "int32"}, {"name": "BoxPredictor_4/Reshape/shape/1", "shape": [], "dtype": "int32"}, {"name": "BoxPredictor_4/Reshape/shape/2", "shape": [], "dtype": "int32"}, {"name": "BoxPredictor_4/Reshape/shape/3", "shape": [], "dtype": "int32"}, {"name": "BoxPredictor_5/BoxEncodingPredictor/weights", "shape": [1, 1, 128, 24], "dtype": "float32"}, {"name": "BoxPredictor_5/BoxEncodingPredictor/biases", "shape": [24], "dtype": "float32"}, {"name": "BoxPredictor_5/strided_slice/stack", "shape": [1], "dtype": "int32"}, {"name": "BoxPredictor_5/strided_slice/stack_1", "shape": [1], "dtype": "int32"}, {"name": "BoxPredictor_5/strided_slice/stack_2", "shape": [1], "dtype": "int32"}, {"name": "BoxPredictor_5/Reshape/shape/1", "shape": [], "dtype": "int32"}, {"name": "BoxPredictor_5/Reshape/shape/2", "shape": [], "dtype": "int32"}, {"name": "BoxPredictor_5/Reshape/shape/3", "shape": [], "dtype": "int32"}, {"name": "concat/axis", "shape": [], "dtype": "int32"}, {"name": "Postprocessor/strided_slice_1/stack", "shape": [1], "dtype": "int32"}, {"name": "Postprocessor/strided_slice_1/stack_1", "shape": [1], "dtype": "int32"}, {"name": "Postprocessor/strided_slice_1/stack_2", "shape": [1], "dtype": "int32"}, {"name": "Postprocessor/stack/2", "shape": [], "dtype": "int32"}, {"name": "Postprocessor/ExpandDims_1/dim", "shape": [], "dtype": "int32"}, {"name": "BoxPredictor_0/ClassPredictor/weights", "shape": [1, 1, 288, 6], "dtype": "float32"}, {"name": "BoxPredictor_0/ClassPredictor/biases", "shape": [6], "dtype": "float32"}, {"name": "BoxPredictor_0/strided_slice_1/stack", "shape": [1], "dtype": "int32"}, {"name": "BoxPredictor_0/strided_slice_1/stack_1", "shape": [1], "dtype": "int32"}, {"name": "BoxPredictor_0/strided_slice_1/stack_2", "shape": [1], "dtype": "int32"}, {"name": "BoxPredictor_0/Reshape_1/shape/1", "shape": [], "dtype": "int32"}, {"name": "BoxPredictor_0/Reshape_1/shape/2", "shape": [], "dtype": "int32"}, {"name": "BoxPredictor_1/ClassPredictor/weights", "shape": [1, 1, 288, 12], "dtype": "float32"}, {"name": "BoxPredictor_1/ClassPredictor/biases", "shape": [12], "dtype": "float32"}, {"name": "BoxPredictor_1/strided_slice_1/stack", "shape": [1], "dtype": "int32"}, {"name": "BoxPredictor_1/strided_slice_1/stack_1", "shape": [1], "dtype": "int32"}, {"name": "BoxPredictor_1/strided_slice_1/stack_2", "shape": [1], "dtype": "int32"}, {"name": "BoxPredictor_1/Reshape_1/shape/1", "shape": [], "dtype": "int32"}, {"name": "BoxPredictor_1/Reshape_1/shape/2", "shape": [], "dtype": "int32"}, {"name": "BoxPredictor_2/ClassPredictor/weights", "shape": [1, 1, 512, 12], "dtype": "float32"}, {"name": "BoxPredictor_2/ClassPredictor/biases", "shape": [12], "dtype": "float32"}, {"name": "BoxPredictor_2/strided_slice_1/stack", "shape": [1], "dtype": "int32"}, {"name": "BoxPredictor_2/strided_slice_1/stack_1", "shape": [1], "dtype": "int32"}, {"name": "BoxPredictor_2/strided_slice_1/stack_2", "shape": [1], "dtype": "int32"}, {"name": "BoxPredictor_2/Reshape_1/shape/1", "shape": [], "dtype": "int32"}, {"name": "BoxPredictor_2/Reshape_1/shape/2", "shape": [], "dtype": "int32"}, {"name": "BoxPredictor_3/ClassPredictor/weights", "shape": [1, 1, 256, 12], "dtype": "float32"}, {"name": "BoxPredictor_3/ClassPredictor/biases", "shape": [12], "dtype": "float32"}, {"name": "BoxPredictor_3/strided_slice_1/stack", "shape": [1], "dtype": "int32"}, {"name": "BoxPredictor_3/strided_slice_1/stack_1", "shape": [1], "dtype": "int32"}, {"name": "BoxPredictor_3/strided_slice_1/stack_2", "shape": [1], "dtype": "int32"}, {"name": "BoxPredictor_3/Reshape_1/shape/1", "shape": [], "dtype": "int32"}, {"name": "BoxPredictor_3/Reshape_1/shape/2", "shape": [], "dtype": "int32"}, {"name": "BoxPredictor_4/ClassPredictor/weights", "shape": [1, 1, 256, 12], "dtype": "float32"}, {"name": "BoxPredictor_4/ClassPredictor/biases", "shape": [12], "dtype": "float32"}, {"name": "BoxPredictor_4/strided_slice_1/stack", "shape": [1], "dtype": "int32"}, {"name": "BoxPredictor_4/strided_slice_1/stack_1", "shape": [1], "dtype": "int32"}, {"name": "BoxPredictor_4/strided_slice_1/stack_2", "shape": [1], "dtype": "int32"}, {"name": "BoxPredictor_4/Reshape_1/shape/1", "shape": [], "dtype": "int32"}, {"name": "BoxPredictor_4/Reshape_1/shape/2", "shape": [], "dtype": "int32"}, {"name": "BoxPredictor_5/ClassPredictor/weights", "shape": [1, 1, 128, 12], "dtype": "float32"}, {"name": "BoxPredictor_5/ClassPredictor/biases", "shape": [12], "dtype": "float32"}, {"name": "FeatureExtractor/MobilenetV3/Conv_1/hard_swish/mul_1/y", "shape": [], "dtype": "float32"}, {"name": "FeatureExtractor/MobilenetV3/expanded_conv_10/squeeze_excite/Conv_1/mul/y", "shape": [], "dtype": "float32"}, {"name": "FeatureExtractor/MobilenetV3/expanded_conv_10/squeeze_excite/Mean/reduction_indices", "shape": [2], "dtype": "int32"}, {"name": "FeatureExtractor/MobilenetV3/expanded_conv_10/squeeze_excite/Conv/weights", "shape": [1, 1, 288, 72], "dtype": "float32"}, {"name": "FeatureExtractor/MobilenetV3/expanded_conv_10/squeeze_excite/Conv/biases", "shape": [72], "dtype": "float32"}, {"name": "FeatureExtractor/MobilenetV3/expanded_conv_10/squeeze_excite/Conv_1/weights", "shape": [1, 1, 72, 288], "dtype": "float32"}, {"name": "FeatureExtractor/MobilenetV3/expanded_conv_10/squeeze_excite/Conv_1/biases", "shape": [288], "dtype": "float32"}, {"name": "FeatureExtractor/MobilenetV3/expanded_conv_10/squeeze_excite/Conv_1/add/y", "shape": [], "dtype": "float32"}, {"name": "FeatureExtractor/MobilenetV3/expanded_conv_10/depthwise/hard_swish/mul_1/y", "shape": [], "dtype": "float32"}, {"name": "FeatureExtractor/MobilenetV3/expanded_conv_10/expand/hard_swish/mul_1/y", "shape": [], "dtype": "float32"}, {"name": "FeatureExtractor/MobilenetV3/expanded_conv_10/expand/hard_swish/add/y", "shape": [], "dtype": "float32"}, {"name": "FeatureExtractor/MobilenetV3/expanded_conv_10/depthwise/hard_swish/add/y", "shape": [], "dtype": "float32"}, {"name": "FeatureExtractor/MobilenetV3/expanded_conv_9/squeeze_excite/Conv_1/mul/y", "shape": [], "dtype": "float32"}, {"name": "FeatureExtractor/MobilenetV3/expanded_conv_9/squeeze_excite/Mean/reduction_indices", "shape": [2], "dtype": "int32"}, {"name": "FeatureExtractor/MobilenetV3/expanded_conv_9/squeeze_excite/Conv/weights", "shape": [1, 1, 288, 72], "dtype": "float32"}, {"name": "FeatureExtractor/MobilenetV3/expanded_conv_9/squeeze_excite/Conv/biases", "shape": [72], "dtype": "float32"}, {"name": "FeatureExtractor/MobilenetV3/expanded_conv_9/squeeze_excite/Conv_1/weights", "shape": [1, 1, 72, 288], "dtype": "float32"}, {"name": "FeatureExtractor/MobilenetV3/expanded_conv_9/squeeze_excite/Conv_1/biases", "shape": [288], "dtype": "float32"}, {"name": "FeatureExtractor/MobilenetV3/expanded_conv_9/squeeze_excite/Conv_1/add/y", "shape": [], "dtype": "float32"}, {"name": "FeatureExtractor/MobilenetV3/expanded_conv_9/depthwise/hard_swish/mul_1/y", "shape": [], "dtype": "float32"}, {"name": "FeatureExtractor/MobilenetV3/expanded_conv_9/expand/hard_swish/mul_1/y", "shape": [], "dtype": "float32"}, {"name": "FeatureExtractor/MobilenetV3/expanded_conv_9/expand/hard_swish/add/y", "shape": [], "dtype": "float32"}, {"name": "FeatureExtractor/MobilenetV3/expanded_conv_9/depthwise/hard_swish/add/y", "shape": [], "dtype": "float32"}, {"name": "FeatureExtractor/MobilenetV3/expanded_conv_8/squeeze_excite/Conv_1/mul/y", "shape": [], "dtype": "float32"}, {"name": "FeatureExtractor/MobilenetV3/expanded_conv_8/squeeze_excite/Mean/reduction_indices", "shape": [2], "dtype": "int32"}, {"name": "FeatureExtractor/MobilenetV3/expanded_conv_8/squeeze_excite/Conv/weights", "shape": [1, 1, 288, 72], "dtype": "float32"}, {"name": "FeatureExtractor/MobilenetV3/expanded_conv_8/squeeze_excite/Conv/biases", "shape": [72], "dtype": "float32"}, {"name": "FeatureExtractor/MobilenetV3/expanded_conv_8/squeeze_excite/Conv_1/weights", "shape": [1, 1, 72, 288], "dtype": "float32"}, {"name": "FeatureExtractor/MobilenetV3/expanded_conv_8/squeeze_excite/Conv_1/biases", "shape": [288], "dtype": "float32"}, {"name": "FeatureExtractor/MobilenetV3/expanded_conv_8/squeeze_excite/Conv_1/add/y", "shape": [], "dtype": "float32"}, {"name": "FeatureExtractor/MobilenetV3/expanded_conv_8/depthwise/hard_swish/mul_1/y", "shape": [], "dtype": "float32"}, {"name": "FeatureExtractor/MobilenetV3/expanded_conv_8/expand/hard_swish/mul_1/y", "shape": [], "dtype": "float32"}, {"name": "FeatureExtractor/MobilenetV3/expanded_conv_7/squeeze_excite/Conv_1/mul/y", "shape": [], "dtype": "float32"}, {"name": "FeatureExtractor/MobilenetV3/expanded_conv_7/squeeze_excite/Mean/reduction_indices", "shape": [2], "dtype": "int32"}, {"name": "FeatureExtractor/MobilenetV3/expanded_conv_7/squeeze_excite/Conv/weights", "shape": [1, 1, 144, 40], "dtype": "float32"}, {"name": "FeatureExtractor/MobilenetV3/expanded_conv_7/squeeze_excite/Conv/biases", "shape": [40], "dtype": "float32"}, {"name": "FeatureExtractor/MobilenetV3/expanded_conv_7/squeeze_excite/Conv_1/weights", "shape": [1, 1, 40, 144], "dtype": "float32"}, {"name": "FeatureExtractor/MobilenetV3/expanded_conv_7/squeeze_excite/Conv_1/biases", "shape": [144], "dtype": "float32"}, {"name": "FeatureExtractor/MobilenetV3/expanded_conv_7/squeeze_excite/Conv_1/add/y", "shape": [], "dtype": "float32"}, {"name": "FeatureExtractor/MobilenetV3/expanded_conv_7/depthwise/hard_swish/mul_1/y", "shape": [], "dtype": "float32"}, {"name": "FeatureExtractor/MobilenetV3/expanded_conv_7/expand/hard_swish/mul_1/y", "shape": [], "dtype": "float32"}, {"name": "FeatureExtractor/MobilenetV3/expanded_conv_7/expand/hard_swish/add/y", "shape": [], "dtype": "float32"}, {"name": "FeatureExtractor/MobilenetV3/expanded_conv_7/depthwise/hard_swish/add/y", "shape": [], "dtype": "float32"}, {"name": "FeatureExtractor/MobilenetV3/expanded_conv_6/squeeze_excite/Conv_1/mul/y", "shape": [], "dtype": "float32"}, {"name": "FeatureExtractor/MobilenetV3/expanded_conv_6/squeeze_excite/Mean/reduction_indices", "shape": [2], "dtype": "int32"}, {"name": "FeatureExtractor/MobilenetV3/expanded_conv_6/squeeze_excite/Conv/weights", "shape": [1, 1, 120, 32], "dtype": "float32"}, {"name": "FeatureExtractor/MobilenetV3/expanded_conv_6/squeeze_excite/Conv/biases", "shape": [32], "dtype": "float32"}, {"name": "FeatureExtractor/MobilenetV3/expanded_conv_6/squeeze_excite/Conv_1/weights", "shape": [1, 1, 32, 120], "dtype": "float32"}, {"name": "FeatureExtractor/MobilenetV3/expanded_conv_6/squeeze_excite/Conv_1/biases", "shape": [120], "dtype": "float32"}, {"name": "FeatureExtractor/MobilenetV3/expanded_conv_6/squeeze_excite/Conv_1/add/y", "shape": [], "dtype": "float32"}, {"name": "FeatureExtractor/MobilenetV3/expanded_conv_6/depthwise/hard_swish/mul_1/y", "shape": [], "dtype": "float32"}, {"name": "FeatureExtractor/MobilenetV3/expanded_conv_6/expand/hard_swish/mul_1/y", "shape": [], "dtype": "float32"}, {"name": "FeatureExtractor/MobilenetV3/expanded_conv_5/squeeze_excite/Conv_1/mul/y", "shape": [], "dtype": "float32"}, {"name": "FeatureExtractor/MobilenetV3/expanded_conv_5/squeeze_excite/Mean/reduction_indices", "shape": [2], "dtype": "int32"}, {"name": "FeatureExtractor/MobilenetV3/expanded_conv_5/squeeze_excite/Conv/weights", "shape": [1, 1, 240, 64], "dtype": "float32"}, {"name": "FeatureExtractor/MobilenetV3/expanded_conv_5/squeeze_excite/Conv/biases", "shape": [64], "dtype": "float32"}, {"name": "FeatureExtractor/MobilenetV3/expanded_conv_5/squeeze_excite/Conv_1/weights", "shape": [1, 1, 64, 240], "dtype": "float32"}, {"name": "FeatureExtractor/MobilenetV3/expanded_conv_5/squeeze_excite/Conv_1/biases", "shape": [240], "dtype": "float32"}, {"name": "FeatureExtractor/MobilenetV3/expanded_conv_5/squeeze_excite/Conv_1/add/y", "shape": [], "dtype": "float32"}, {"name": "FeatureExtractor/MobilenetV3/expanded_conv_5/depthwise/hard_swish/mul_1/y", "shape": [], "dtype": "float32"}, {"name": "FeatureExtractor/MobilenetV3/expanded_conv_5/expand/hard_swish/mul_1/y", "shape": [], "dtype": "float32"}, {"name": "FeatureExtractor/MobilenetV3/expanded_conv_5/expand/hard_swish/add/y", "shape": [], "dtype": "float32"}, {"name": "FeatureExtractor/MobilenetV3/expanded_conv_5/depthwise/hard_swish/add/y", "shape": [], "dtype": "float32"}, {"name": "FeatureExtractor/MobilenetV3/expanded_conv_4/squeeze_excite/Conv_1/mul/y", "shape": [], "dtype": "float32"}, {"name": "FeatureExtractor/MobilenetV3/expanded_conv_4/squeeze_excite/Mean/reduction_indices", "shape": [2], "dtype": "int32"}, {"name": "FeatureExtractor/MobilenetV3/expanded_conv_4/squeeze_excite/Conv/weights", "shape": [1, 1, 240, 64], "dtype": "float32"}, {"name": "FeatureExtractor/MobilenetV3/expanded_conv_4/squeeze_excite/Conv/biases", "shape": [64], "dtype": "float32"}, {"name": "FeatureExtractor/MobilenetV3/expanded_conv_4/squeeze_excite/Conv_1/weights", "shape": [1, 1, 64, 240], "dtype": "float32"}, {"name": "FeatureExtractor/MobilenetV3/expanded_conv_4/squeeze_excite/Conv_1/biases", "shape": [240], "dtype": "float32"}, {"name": "FeatureExtractor/MobilenetV3/expanded_conv_4/squeeze_excite/Conv_1/add/y", "shape": [], "dtype": "float32"}, {"name": "FeatureExtractor/MobilenetV3/expanded_conv_4/depthwise/hard_swish/mul_1/y", "shape": [], "dtype": "float32"}, {"name": "FeatureExtractor/MobilenetV3/expanded_conv_4/expand/hard_swish/mul_1/y", "shape": [], "dtype": "float32"}, {"name": "FeatureExtractor/MobilenetV3/expanded_conv_4/expand/hard_swish/add/y", "shape": [], "dtype": "float32"}, {"name": "FeatureExtractor/MobilenetV3/expanded_conv_4/depthwise/hard_swish/add/y", "shape": [], "dtype": "float32"}, {"name": "FeatureExtractor/MobilenetV3/expanded_conv_3/squeeze_excite/Conv_1/mul/y", "shape": [], "dtype": "float32"}, {"name": "FeatureExtractor/MobilenetV3/expanded_conv_3/squeeze_excite/Mean/reduction_indices", "shape": [2], "dtype": "int32"}, {"name": "FeatureExtractor/MobilenetV3/expanded_conv_3/squeeze_excite/Conv/weights", "shape": [1, 1, 96, 24], "dtype": "float32"}, {"name": "FeatureExtractor/MobilenetV3/expanded_conv_3/squeeze_excite/Conv/biases", "shape": [24], "dtype": "float32"}, {"name": "FeatureExtractor/MobilenetV3/expanded_conv_3/squeeze_excite/Conv_1/weights", "shape": [1, 1, 24, 96], "dtype": "float32"}, {"name": "FeatureExtractor/MobilenetV3/expanded_conv_3/squeeze_excite/Conv_1/biases", "shape": [96], "dtype": "float32"}, {"name": "FeatureExtractor/MobilenetV3/expanded_conv_3/squeeze_excite/Conv_1/add/y", "shape": [], "dtype": "float32"}, {"name": "FeatureExtractor/MobilenetV3/expanded_conv_3/depthwise/hard_swish/mul_1/y", "shape": [], "dtype": "float32"}, {"name": "FeatureExtractor/MobilenetV3/expanded_conv_3/expand/hard_swish/mul_1/y", "shape": [], "dtype": "float32"}, {"name": "FeatureExtractor/MobilenetV3/expanded_conv/squeeze_excite/Conv_1/mul/y", "shape": [], "dtype": "float32"}, {"name": "FeatureExtractor/MobilenetV3/expanded_conv/squeeze_excite/Mean/reduction_indices", "shape": [2], "dtype": "int32"}, {"name": "FeatureExtractor/MobilenetV3/expanded_conv/squeeze_excite/Conv/weights", "shape": [1, 1, 16, 8], "dtype": "float32"}, {"name": "FeatureExtractor/MobilenetV3/expanded_conv/squeeze_excite/Conv/biases", "shape": [8], "dtype": "float32"}, {"name": "FeatureExtractor/MobilenetV3/expanded_conv/squeeze_excite/Conv_1/weights", "shape": [1, 1, 8, 16], "dtype": "float32"}, {"name": "FeatureExtractor/MobilenetV3/expanded_conv/squeeze_excite/Conv_1/biases", "shape": [16], "dtype": "float32"}, {"name": "FeatureExtractor/MobilenetV3/expanded_conv/squeeze_excite/Conv_1/add/y", "shape": [], "dtype": "float32"}, {"name": "FeatureExtractor/MobilenetV3/Conv/hard_swish/mul_1/y", "shape": [], "dtype": "float32"}, {"name": "Preprocessor/map/TensorArrayStack/range/start", "shape": [], "dtype": "int32"}, {"name": "Preprocessor/map/TensorArrayStack/range/delta", "shape": [], "dtype": "int32"}, {"name": "Preprocessor/map/TensorArrayUnstack/range/start", "shape": [], "dtype": "int32"}, {"name": "Preprocessor/map/TensorArrayUnstack/strided_slice/stack", "shape": [1], "dtype": "int32"}, {"name": "Preprocessor/map/TensorArrayUnstack/strided_slice/stack_1", "shape": [1], "dtype": "int32"}, {"name": "Preprocessor/map/TensorArrayUnstack/strided_slice/stack_2", "shape": [1], "dtype": "int32"}, {"name": "Preprocessor/map/TensorArrayUnstack/range/delta", "shape": [], "dtype": "int32"}, {"name": "Preprocessor/map/Const", "shape": [], "dtype": "int32"}, {"name": "Preprocessor/map/while/iteration_counter", "shape": [], "dtype": "int32"}, {"name": "Preprocessor/mul/x", "shape": [], "dtype": "float32"}, {"name": "Preprocessor/sub/y", "shape": [], "dtype": "float32"}, {"name": "Preprocessor/map/strided_slice/stack", "shape": [1], "dtype": "int32"}, {"name": "Preprocessor/map/strided_slice/stack_1", "shape": [1], "dtype": "int32"}, {"name": "Preprocessor/map/strided_slice/stack_2", "shape": [1], "dtype": "int32"}, {"name": "FeatureExtractor/MobilenetV3/Conv/hard_swish/add/y", "shape": [], "dtype": "float32"}, {"name": "FeatureExtractor/MobilenetV3/expanded_conv_3/expand/hard_swish/add/y", "shape": [], "dtype": "float32"}, {"name": "FeatureExtractor/MobilenetV3/expanded_conv_3/depthwise/hard_swish/add/y", "shape": [], "dtype": "float32"}, {"name": "FeatureExtractor/MobilenetV3/expanded_conv_6/expand/hard_swish/add/y", "shape": [], "dtype": "float32"}, {"name": "FeatureExtractor/MobilenetV3/expanded_conv_6/depthwise/hard_swish/add/y", "shape": [], "dtype": "float32"}, {"name": "FeatureExtractor/MobilenetV3/expanded_conv_8/expand/hard_swish/add/y", "shape": [], "dtype": "float32"}, {"name": "FeatureExtractor/MobilenetV3/expanded_conv_8/depthwise/hard_swish/add/y", "shape": [], "dtype": "float32"}, {"name": "FeatureExtractor/MobilenetV3/Conv_1/hard_swish/add/y", "shape": [], "dtype": "float32"}, {"name": "BoxPredictor_5/strided_slice_1/stack", "shape": [1], "dtype": "int32"}, {"name": "BoxPredictor_5/strided_slice_1/stack_1", "shape": [1], "dtype": "int32"}, {"name": "BoxPredictor_5/strided_slice_1/stack_2", "shape": [1], "dtype": "int32"}, {"name": "BoxPredictor_5/Reshape_1/shape/1", "shape": [], "dtype": "int32"}, {"name": "BoxPredictor_5/Reshape_1/shape/2", "shape": [], "dtype": "int32"}, {"name": "concat_1/axis", "shape": [], "dtype": "int32"}, {"name": "Postprocessor/Slice/begin", "shape": [3], "dtype": "int32"}, {"name": "Postprocessor/Slice/size", "shape": [3], "dtype": "int32"}, {"name": "FeatureExtractor/MobilenetV3/Conv/Conv2D_weights", "shape": [3, 3, 3, 16], "dtype": "float32"}, {"name": "FeatureExtractor/MobilenetV3/Conv/Conv2D_bn_offset", "shape": [16], "dtype": "float32"}, {"name": "FeatureExtractor/MobilenetV3/expanded_conv/depthwise/depthwise_weights", "shape": [3, 3, 16, 1], "dtype": "float32"}, {"name": "FeatureExtractor/MobilenetV3/expanded_conv/depthwise/depthwise_bn_offset", "shape": [16], "dtype": "float32"}, {"name": "FeatureExtractor/MobilenetV3/layer_13_2_Conv2d_5_3x3_s2_128_depthwise/depthwise_weights", "shape": [3, 3, 64, 1], "dtype": "float32"}, {"name": "FeatureExtractor/MobilenetV3/layer_13_2_Conv2d_5_3x3_s2_128_depthwise/depthwise_bn_offset", "shape": [64], "dtype": "float32"}, {"name": "FeatureExtractor/MobilenetV3/expanded_conv/project/Conv2D_weights", "shape": [1, 1, 16, 16], "dtype": "float32"}, {"name": "FeatureExtractor/MobilenetV3/expanded_conv/project/Conv2D_bn_offset", "shape": [16], "dtype": "float32"}, {"name": "FeatureExtractor/MobilenetV3/expanded_conv_1/expand/Conv2D_weights", "shape": [1, 1, 16, 72], "dtype": "float32"}, {"name": "FeatureExtractor/MobilenetV3/expanded_conv_1/expand/Conv2D_bn_offset", "shape": [72], "dtype": "float32"}, {"name": "FeatureExtractor/MobilenetV3/layer_13_2_Conv2d_5_3x3_s2_128/Conv2D_weights", "shape": [1, 1, 64, 128], "dtype": "float32"}, {"name": "FeatureExtractor/MobilenetV3/expanded_conv_1/depthwise/depthwise_weights", "shape": [3, 3, 72, 1], "dtype": "float32"}, {"name": "FeatureExtractor/MobilenetV3/expanded_conv_1/depthwise/depthwise_bn_offset", "shape": [72], "dtype": "float32"}, {"name": "FeatureExtractor/MobilenetV3/expanded_conv_1/project/Conv2D_weights", "shape": [1, 1, 72, 24], "dtype": "float32"}, {"name": "FeatureExtractor/MobilenetV3/expanded_conv_1/project/Conv2D_bn_offset", "shape": [24], "dtype": "float32"}, {"name": "FeatureExtractor/MobilenetV3/expanded_conv_2/expand/Conv2D_weights", "shape": [1, 1, 24, 88], "dtype": "float32"}, {"name": "FeatureExtractor/MobilenetV3/layer_13_2_Conv2d_5_3x3_s2_128/Conv2D_bn_offset", "shape": [128], "dtype": "float32"}, {"name": "FeatureExtractor/MobilenetV3/expanded_conv_2/expand/Conv2D_bn_offset", "shape": [88], "dtype": "float32"}, {"name": "FeatureExtractor/MobilenetV3/expanded_conv_2/depthwise/depthwise_weights", "shape": [3, 3, 88, 1], "dtype": "float32"}, {"name": "FeatureExtractor/MobilenetV3/expanded_conv_2/depthwise/depthwise_bn_offset", "shape": [88], "dtype": "float32"}, {"name": "FeatureExtractor/MobilenetV3/expanded_conv_2/project/Conv2D_weights", "shape": [1, 1, 88, 24], "dtype": "float32"}, {"name": "FeatureExtractor/MobilenetV3/expanded_conv_2/project/Conv2D_bn_offset", "shape": [24], "dtype": "float32"}, {"name": "FeatureExtractor/MobilenetV3/expanded_conv_3/expand/Conv2D_weights", "shape": [1, 1, 24, 96], "dtype": "float32"}, {"name": "FeatureExtractor/MobilenetV3/expanded_conv_3/expand/Conv2D_bn_offset", "shape": [96], "dtype": "float32"}, {"name": "FeatureExtractor/MobilenetV3/expanded_conv_3/depthwise/depthwise_weights", "shape": [5, 5, 96, 1], "dtype": "float32"}, {"name": "FeatureExtractor/MobilenetV3/expanded_conv_3/depthwise/depthwise_bn_offset", "shape": [96], "dtype": "float32"}, {"name": "FeatureExtractor/MobilenetV3/expanded_conv_3/project/Conv2D_weights", "shape": [1, 1, 96, 40], "dtype": "float32"}, {"name": "FeatureExtractor/MobilenetV3/expanded_conv_3/project/Conv2D_bn_offset", "shape": [40], "dtype": "float32"}, {"name": "FeatureExtractor/MobilenetV3/expanded_conv_4/expand/Conv2D_weights", "shape": [1, 1, 40, 240], "dtype": "float32"}, {"name": "FeatureExtractor/MobilenetV3/expanded_conv_4/expand/Conv2D_bn_offset", "shape": [240], "dtype": "float32"}, {"name": "FeatureExtractor/MobilenetV3/expanded_conv_4/depthwise/depthwise_weights", "shape": [5, 5, 240, 1], "dtype": "float32"}, {"name": "FeatureExtractor/MobilenetV3/expanded_conv_4/depthwise/depthwise_bn_offset", "shape": [240], "dtype": "float32"}, {"name": "BoxPredictor_5/BoxEncodingPredictor_depthwise/depthwise_weights", "shape": [3, 3, 128, 1], "dtype": "float32"}, {"name": "BoxPredictor_5/BoxEncodingPredictor_depthwise/depthwise_bn_offset", "shape": [128], "dtype": "float32"}, {"name": "FeatureExtractor/MobilenetV3/expanded_conv_4/project/Conv2D_weights", "shape": [1, 1, 240, 40], "dtype": "float32"}, {"name": "FeatureExtractor/MobilenetV3/expanded_conv_4/project/Conv2D_bn_offset", "shape": [40], "dtype": "float32"}, {"name": "FeatureExtractor/MobilenetV3/expanded_conv_5/expand/Conv2D_weights", "shape": [1, 1, 40, 240], "dtype": "float32"}, {"name": "FeatureExtractor/MobilenetV3/expanded_conv_5/expand/Conv2D_bn_offset", "shape": [240], "dtype": "float32"}, {"name": "FeatureExtractor/MobilenetV3/expanded_conv_5/depthwise/depthwise_weights", "shape": [5, 5, 240, 1], "dtype": "float32"}, {"name": "FeatureExtractor/MobilenetV3/expanded_conv_5/depthwise/depthwise_bn_offset", "shape": [240], "dtype": "float32"}, {"name": "FeatureExtractor/MobilenetV3/expanded_conv_5/project/Conv2D_weights", "shape": [1, 1, 240, 40], "dtype": "float32"}, {"name": "FeatureExtractor/MobilenetV3/expanded_conv_5/project/Conv2D_bn_offset", "shape": [40], "dtype": "float32"}, {"name": "FeatureExtractor/MobilenetV3/expanded_conv_6/expand/Conv2D_weights", "shape": [1, 1, 40, 120], "dtype": "float32"}, {"name": "FeatureExtractor/MobilenetV3/expanded_conv_6/expand/Conv2D_bn_offset", "shape": [120], "dtype": "float32"}, {"name": "FeatureExtractor/MobilenetV3/expanded_conv_6/depthwise/depthwise_weights", "shape": [5, 5, 120, 1], "dtype": "float32"}, {"name": "FeatureExtractor/MobilenetV3/expanded_conv_6/depthwise/depthwise_bn_offset", "shape": [120], "dtype": "float32"}, {"name": "FeatureExtractor/MobilenetV3/expanded_conv_6/project/Conv2D_weights", "shape": [1, 1, 120, 48], "dtype": "float32"}, {"name": "FeatureExtractor/MobilenetV3/expanded_conv_6/project/Conv2D_bn_offset", "shape": [48], "dtype": "float32"}, {"name": "FeatureExtractor/MobilenetV3/expanded_conv_7/expand/Conv2D_weights", "shape": [1, 1, 48, 144], "dtype": "float32"}, {"name": "FeatureExtractor/MobilenetV3/expanded_conv_7/expand/Conv2D_bn_offset", "shape": [144], "dtype": "float32"}, {"name": "FeatureExtractor/MobilenetV3/expanded_conv_7/depthwise/depthwise_weights", "shape": [5, 5, 144, 1], "dtype": "float32"}, {"name": "FeatureExtractor/MobilenetV3/expanded_conv_7/depthwise/depthwise_bn_offset", "shape": [144], "dtype": "float32"}, {"name": "FeatureExtractor/MobilenetV3/expanded_conv_7/project/Conv2D_weights", "shape": [1, 1, 144, 48], "dtype": "float32"}, {"name": "FeatureExtractor/MobilenetV3/expanded_conv_7/project/Conv2D_bn_offset", "shape": [48], "dtype": "float32"}, {"name": "FeatureExtractor/MobilenetV3/expanded_conv_8/expand/Conv2D_weights", "shape": [1, 1, 48, 288], "dtype": "float32"}, {"name": "FeatureExtractor/MobilenetV3/expanded_conv_8/expand/Conv2D_bn_offset", "shape": [288], "dtype": "float32"}, {"name": "BoxPredictor_0/BoxEncodingPredictor_depthwise/depthwise_weights", "shape": [3, 3, 288, 1], "dtype": "float32"}, {"name": "BoxPredictor_0/BoxEncodingPredictor_depthwise/depthwise_bn_offset", "shape": [288], "dtype": "float32"}, {"name": "BoxPredictor_0/ClassPredictor_depthwise/depthwise_weights", "shape": [3, 3, 288, 1], "dtype": "float32"}, {"name": "BoxPredictor_0/ClassPredictor_depthwise/depthwise_bn_offset", "shape": [288], "dtype": "float32"}, {"name": "FeatureExtractor/MobilenetV3/expanded_conv_8/depthwise/depthwise_weights", "shape": [5, 5, 288, 1], "dtype": "float32"}, {"name": "FeatureExtractor/MobilenetV3/expanded_conv_8/depthwise/depthwise_bn_offset", "shape": [288], "dtype": "float32"}, {"name": "FeatureExtractor/MobilenetV3/expanded_conv_8/project/Conv2D_weights", "shape": [1, 1, 288, 48], "dtype": "float32"}, {"name": "FeatureExtractor/MobilenetV3/expanded_conv_8/project/Conv2D_bn_offset", "shape": [48], "dtype": "float32"}, {"name": "FeatureExtractor/MobilenetV3/expanded_conv_9/expand/Conv2D_weights", "shape": [1, 1, 48, 288], "dtype": "float32"}, {"name": "FeatureExtractor/MobilenetV3/expanded_conv_9/expand/Conv2D_bn_offset", "shape": [288], "dtype": "float32"}, {"name": "FeatureExtractor/MobilenetV3/expanded_conv_9/depthwise/depthwise_weights", "shape": [5, 5, 288, 1], "dtype": "float32"}, {"name": "FeatureExtractor/MobilenetV3/expanded_conv_9/depthwise/depthwise_bn_offset", "shape": [288], "dtype": "float32"}, {"name": "FeatureExtractor/MobilenetV3/expanded_conv_9/project/Conv2D_weights", "shape": [1, 1, 288, 48], "dtype": "float32"}, {"name": "FeatureExtractor/MobilenetV3/expanded_conv_9/project/Conv2D_bn_offset", "shape": [48], "dtype": "float32"}, {"name": "FeatureExtractor/MobilenetV3/expanded_conv_10/expand/Conv2D_weights", "shape": [1, 1, 48, 288], "dtype": "float32"}, {"name": "FeatureExtractor/MobilenetV3/expanded_conv_10/expand/Conv2D_bn_offset", "shape": [288], "dtype": "float32"}, {"name": "FeatureExtractor/MobilenetV3/expanded_conv_10/depthwise/depthwise_weights", "shape": [5, 5, 288, 1], "dtype": "float32"}, {"name": "FeatureExtractor/MobilenetV3/expanded_conv_10/depthwise/depthwise_bn_offset", "shape": [288], "dtype": "float32"}, {"name": "FeatureExtractor/MobilenetV3/expanded_conv_10/project/Conv2D_weights", "shape": [1, 1, 288, 48], "dtype": "float32"}, {"name": "FeatureExtractor/MobilenetV3/expanded_conv_10/project/Conv2D_bn_offset", "shape": [48], "dtype": "float32"}, {"name": "FeatureExtractor/MobilenetV3/Conv_1/Conv2D_weights", "shape": [1, 1, 48, 288], "dtype": "float32"}, {"name": "FeatureExtractor/MobilenetV3/Conv_1/Conv2D_bn_offset", "shape": [288], "dtype": "float32"}, {"name": "BoxPredictor_1/BoxEncodingPredictor_depthwise/depthwise_weights", "shape": [3, 3, 288, 1], "dtype": "float32"}, {"name": "BoxPredictor_1/BoxEncodingPredictor_depthwise/depthwise_bn_offset", "shape": [288], "dtype": "float32"}, {"name": "BoxPredictor_1/ClassPredictor_depthwise/depthwise_weights", "shape": [3, 3, 288, 1], "dtype": "float32"}, {"name": "BoxPredictor_1/ClassPredictor_depthwise/depthwise_bn_offset", "shape": [288], "dtype": "float32"}, {"name": "FeatureExtractor/MobilenetV3/layer_13_1_Conv2d_2_1x1_256/Conv2D_weights", "shape": [1, 1, 288, 256], "dtype": "float32"}, {"name": "FeatureExtractor/MobilenetV3/layer_13_1_Conv2d_2_1x1_256/Conv2D_bn_offset", "shape": [256], "dtype": "float32"}, {"name": "FeatureExtractor/MobilenetV3/layer_13_2_Conv2d_2_3x3_s2_512_depthwise/depthwise_weights", "shape": [3, 3, 256, 1], "dtype": "float32"}, {"name": "FeatureExtractor/MobilenetV3/layer_13_2_Conv2d_2_3x3_s2_512_depthwise/depthwise_bn_offset", "shape": [256], "dtype": "float32"}, {"name": "FeatureExtractor/MobilenetV3/layer_13_2_Conv2d_2_3x3_s2_512/Conv2D_weights", "shape": [1, 1, 256, 512], "dtype": "float32"}, {"name": "FeatureExtractor/MobilenetV3/layer_13_2_Conv2d_2_3x3_s2_512/Conv2D_bn_offset", "shape": [512], "dtype": "float32"}, {"name": "BoxPredictor_2/BoxEncodingPredictor_depthwise/depthwise_weights", "shape": [3, 3, 512, 1], "dtype": "float32"}, {"name": "BoxPredictor_2/BoxEncodingPredictor_depthwise/depthwise_bn_offset", "shape": [512], "dtype": "float32"}, {"name": "BoxPredictor_2/ClassPredictor_depthwise/depthwise_weights", "shape": [3, 3, 512, 1], "dtype": "float32"}, {"name": "BoxPredictor_2/ClassPredictor_depthwise/depthwise_bn_offset", "shape": [512], "dtype": "float32"}, {"name": "FeatureExtractor/MobilenetV3/layer_13_1_Conv2d_3_1x1_128/Conv2D_weights", "shape": [1, 1, 512, 128], "dtype": "float32"}, {"name": "FeatureExtractor/MobilenetV3/layer_13_1_Conv2d_3_1x1_128/Conv2D_bn_offset", "shape": [128], "dtype": "float32"}, {"name": "FeatureExtractor/MobilenetV3/layer_13_2_Conv2d_3_3x3_s2_256_depthwise/depthwise_weights", "shape": [3, 3, 128, 1], "dtype": "float32"}, {"name": "FeatureExtractor/MobilenetV3/layer_13_2_Conv2d_3_3x3_s2_256_depthwise/depthwise_bn_offset", "shape": [128], "dtype": "float32"}, {"name": "FeatureExtractor/MobilenetV3/layer_13_2_Conv2d_3_3x3_s2_256/Conv2D_weights", "shape": [1, 1, 128, 256], "dtype": "float32"}, {"name": "FeatureExtractor/MobilenetV3/layer_13_2_Conv2d_3_3x3_s2_256/Conv2D_bn_offset", "shape": [256], "dtype": "float32"}, {"name": "BoxPredictor_3/BoxEncodingPredictor_depthwise/depthwise_weights", "shape": [3, 3, 256, 1], "dtype": "float32"}, {"name": "BoxPredictor_3/BoxEncodingPredictor_depthwise/depthwise_bn_offset", "shape": [256], "dtype": "float32"}, {"name": "BoxPredictor_3/ClassPredictor_depthwise/depthwise_weights", "shape": [3, 3, 256, 1], "dtype": "float32"}, {"name": "BoxPredictor_3/ClassPredictor_depthwise/depthwise_bn_offset", "shape": [256], "dtype": "float32"}, {"name": "FeatureExtractor/MobilenetV3/layer_13_1_Conv2d_4_1x1_128/Conv2D_weights", "shape": [1, 1, 256, 128], "dtype": "float32"}, {"name": "FeatureExtractor/MobilenetV3/layer_13_1_Conv2d_4_1x1_128/Conv2D_bn_offset", "shape": [128], "dtype": "float32"}, {"name": "BoxPredictor_5/ClassPredictor_depthwise/depthwise_weights", "shape": [3, 3, 128, 1], "dtype": "float32"}, {"name": "FeatureExtractor/MobilenetV3/layer_13_2_Conv2d_4_3x3_s2_256_depthwise/depthwise_weights", "shape": [3, 3, 128, 1], "dtype": "float32"}, {"name": "FeatureExtractor/MobilenetV3/layer_13_2_Conv2d_4_3x3_s2_256_depthwise/depthwise_bn_offset", "shape": [128], "dtype": "float32"}, {"name": "FeatureExtractor/MobilenetV3/layer_13_2_Conv2d_4_3x3_s2_256/Conv2D_weights", "shape": [1, 1, 128, 256], "dtype": "float32"}, {"name": "FeatureExtractor/MobilenetV3/layer_13_2_Conv2d_4_3x3_s2_256/Conv2D_bn_offset", "shape": [256], "dtype": "float32"}, {"name": "BoxPredictor_5/ClassPredictor_depthwise/depthwise_bn_offset", "shape": [128], "dtype": "float32"}, {"name": "BoxPredictor_4/BoxEncodingPredictor_depthwise/depthwise_weights", "shape": [3, 3, 256, 1], "dtype": "float32"}, {"name": "BoxPredictor_4/BoxEncodingPredictor_depthwise/depthwise_bn_offset", "shape": [256], "dtype": "float32"}, {"name": "BoxPredictor_4/ClassPredictor_depthwise/depthwise_weights", "shape": [3, 3, 256, 1], "dtype": "float32"}, {"name": "BoxPredictor_4/ClassPredictor_depthwise/depthwise_bn_offset", "shape": [256], "dtype": "float32"}, {"name": "FeatureExtractor/MobilenetV3/layer_13_1_Conv2d_5_1x1_64/Conv2D_weights", "shape": [1, 1, 256, 64], "dtype": "float32"}, {"name": "FeatureExtractor/MobilenetV3/layer_13_1_Conv2d_5_1x1_64/Conv2D_bn_offset", "shape": [64], "dtype": "float32"}, {"name": "Preprocessor/map/while/ResizeImage/resize/ExpandDims/dim", "shape": [], "dtype": "int32"}, {"name": "Preprocessor/map/while/ResizeImage/stack", "shape": [2], "dtype": "int32"}, {"name": "Preprocessor/map/while/add/y", "shape": [], "dtype": "int32"}, {"name": "Preprocessor/map/while/add_1/y", "shape": [], "dtype": "int32"}]}]}